models_parameter/BTFeature_param.pth (torch, 33269 bytes, 4 tensors)

feat_mlp.0.weight f4 [64, 30]
0	0xbdb92f80	-0.09042263
1	0xbdedeb95	-0.11617199
2	0xbde6b6ec	-0.11265358
3	0x3daa418e	0.08313285
4	0xbdd71b70	-0.1050328
5	0xbdc37ccc	-0.095452875
6	0x3df89b6f	0.121390216
7	0x3e64d39b	0.22346346
8	0xbde8a022	-0.11358668
9	0x3d7e6b8f	0.062114295
10	0x3d14254e	0.03616839
11	0xbdc8d1c6	-0.09805636
12	0xbd024490	-0.031803668
13	0xbdaa948e	-0.08329116
14	0xbe7282bb	-0.23682682
15	0xbe2d9325	-0.16950662
16	0x3d47abf4	0.04874797
17	0xbd093f74	-0.03350778
18	0x3d82c8e2	0.063859716
19	0xbd8bc906	-0.068254516
20	0xbdf4c062	-0.119507566
21	0x3d92fa8f	0.071766965
22	0xbda6fe9b	-0.08154031
23	0x3e28d429	0.16487183
24	0xbd022590	-0.031774104
25	0xbd81091c	-0.063005656
26	0x3d53f3e8	0.05174628
27	0xbe0bbe79	-0.13646878
28	0xbe54ef8b	-0.20794503
29	0xbdd9c5fa	-0.10633464
30	0xbe7abe49	-0.2448665
31	0x3d7d3b26	0.061823986
32	0x3e982309	0.2971423
33	0x3ca4568e	0.020060804
34	0xbd8d8302	-0.069097534
35	0x3d863745	0.065535106
36	0x3d22a8fa	0.03971193
37	0xbdc643a1	-0.09680868
38	0x3db8b5aa	0.09019025
39	0xbdb0079b	-0.08595201
40	0xbc735153	-0.014850932
41	0x3b5ab027	0.0033369155
42	0xbdef82db	-0.116948806
43	0x3b3bf4dd	0.0028679885
44	0xbe00cc46	-0.12577924
45	0x3e1ce94c	0.1532337
46	0x3e0e3729	0.1388823
47	0xbe25d07d	-0.16192813
48	0xbdcfae7e	-0.101407036
49	0xbd0dcae8	-0.034617335
50	0x3e0d116e	0.1377618
51	0xbe99ca18	-0.30036998
52	0xbd4a30b8	-0.049362868
53	0xbde365f9	-0.11103434
54	0x3d942549	0.07233674
55	0xbe9e2c28	-0.30893064
56	0xbe244b5c	-0.16044372
57	0x3daf79e8	0.08568174
58	0xbd896e8a	-0.06710537
59	0x3c262a19	0.010141873
60	0xbe2b79ce	-0.16745684
61	0x3b4e31ab	0.003146271
62	0x3e2b0738	0.16701972
63	0xbc2692a1	-0.010166795
64	0x3df1074a	0.117689684
65	0xbe725753	-0.23666124
66	0xbe4550df	-0.19269131
67	0xbcccbafd	-0.024991507
68	0x3de2a071	0.11065758
69	0x3c2430fe	0.010021446
70	0xbe097106	-0.13422021
71	0x3ded271f	0.115797274
72	0x3e3b74ba	0.18306246
73	0xbe8941c9	-0.26808003
74	0xbdff748f	-0.12473404
75	0xbdae9bc6	-0.08525805
76	0xbda41fc2	-0.0801387
77	0x3d9474c8	0.07248837
78	0xbbc8a8a8	-0.006123621
79	0x3d4b3a24	0.049615994
80	0xbe4aaf7e	-0.19793507
81	0x3d8703b0	0.065925
82	0x3e2393d9	0.15974368
83	0xbe9c03c1	-0.30471614
84	0xbef13498	-0.47110438
85	0xbe74be0c	-0.23900622
86	0xbd7d1b60	-0.061793685
87	0xbda87742	-0.082258716
88	0xbe9c6684	-0.30546963
89	0x3d80c427	0.06287413
90	0xbd9a95a0	-0.0754807
91	0x3d88f521	0.0668738
92	0x3d0098cf	0.03139573
93	0x3d364245	0.044496793
94	0x3e24e8e6	0.16104469
95	0x3d69f216	0.057115637
96	0x3d3ea598	0.04654464
97	0x3e07b809	0.13253798
98	0x3ddba2f7	0.107244425
99	0x3d87e6d1	0.066358216
100	0x3e694ba1	0.22782756
101	0x3e1b72f0	0.15180564
102	0xbe2d34ab	-0.16914622
103	0xbd0f70f3	-0.035019826
104	0x3df7b28c	0.12094602
105	0x3c9be3ef	0.019029586
106	0x3e166ba4	0.14689499
107	0xbda4f7f9	-0.080551095
108	0x3dbba578	0.0916242
109	0xbd6c1c24	-0.057644024
110	0x3e377a5e	0.17917773
111	0x3e0a440b	0.13502519
112	0x3c202cfd	0.009776351
113	0x3e0b09bf	0.13577937
114	0x3c03c871	0.008043394
115	0x3e0ad982	0.13559535
116	0x3d58517d	0.05281209
117	0xbe46b58b	-0.1940519
118	0xbd794f2a	-0.060866512
119	0xbe534f09	-0.20635618
120	0x3e63ed72	0.22258547
121	0x3e3f3958	0.18674219
122	0xbcdc10f5	-0.026863554
123	0xbc858843	-0.016300326
124	0x3deee080	0.11663914
125	0xbcd72ef2	-0.026267502
126	0xbd92b48b	-0.07163342
127	0x3e49c50a	0.1970407
128	0xbdc1679a	-0.094435886
129	0x3d85edb5	0.0653948
130	0xbdd48679	-0.10377211
131	0x3dd9a59e	0.10627292
132	0xbe84ba67	-0.25923464
133	0xbdea55f8	-0.114421785
134	0x3dd97871	0.106186755
135	0xbe174732	-0.14773253
136	0x3e28b0b8	0.16473663
137	0xbd67f109	-0.056626353
138	0x3d9baeb8	0.07601684
139	0xbba950c4	-0.0051670987
140	0x3e38ed6d	0.18059321
141	0xbce5b020	-0.028038085
142	0x3de5aa40	0.11214113
143	0x3df06260	0.117375135
144	0x3dc8afa7	0.09799128
145	0xbb553e0a	-0.00325382
146	0xbcce3468	-0.025171474
147	0xbd25de67	-0.040495303
148	0xbd3a598e	-0.045495562
149	0xbe67bf3b	-0.22631542
150	0xbd824955	-0.06361643
151	0x3e7ba0d3	0.24573068
152	0x3e544f5d	0.207334
153	0xbe044a23	-0.12918906
154	0xbe95c9e7	-0.29255602
155	0x3d191b45	0.037379522
156	0xbdefb567	-0.117045216
157	0x3d93e084	0.07220557
158	0x3b0672ed	0.0020515278
159	0x3eaee213	0.34156856
160	0x3e063682	0.1310673
161	0xbe4d52e2	-0.20051149
162	0x3dbe1118	0.09280604
163	0xbe24aff1	-0.16082741
164	0x3de00a81	0.109395035
165	0xbd6427f4	-0.055702165
166	0x3e62ea79	0.22159757
167	0xbe336913	-0.17520551
168	0xbe2240dc	-0.15845054
169	0xbdfb4134	-0.12268296
170	0xbe8f0ecd	-0.2794098
171	0x3db57ff5	0.088622965
172	0xbc987c6d	-0.018614018
173	0x3e953673	0.29143104
174	0x3e7d251c	0.24721187
175	0x3e133e11	0.14379145
176	0x3d663f41	0.056212667
177	0x3e5d2cd0	0.21599126
178	0x3ed8e05c	0.42358673
179	0x3cc40a99	0.023930835
180	0x3e683240	0.22675419
181	0x3cceae68	0.025229648
182	0x3dd26647	0.10273414
183	0x3dbc8be5	0.0920637
184	0x3d136a73	0.03599019
185	0x3e426fbb	0.18987934
186	0x3e47dfa9	0.19518913
187	0x3d61069a	0.054937936
188	0xbe0e92a4	-0.13923126
189	0xbe1ad007	-0.15118419
190	0xbdbcd714	-0.092207104
191	0x3e060cee	0.1309087
192	0x3d88958a	0.06669147
193	0x3e051508	0.12996304
194	0xbe14399f	-0.14475106
195	0x3c648eae	0.013950033
196	0x3dd505d9	0.10401506
197	0x3df00f3a	0.11721654
198	0xbccba610	-0.024859458
199	0x3dabc2f0	0.08386791
200	0x3d7aaff8	0.061202973
201	0x3db1c62d	0.08680377
202	0xbdd1c78a	-0.10243137
203	0xbe743be1	-0.23850967
204	0x3e84265f	0.25810525
205	0x3c92b36e	0.017907824
206	0x3e0a120b	0.13483445
207	0x3e46fad3	0.1943162
208	0x3d28e6dd	0.041235793
209	0xbda9ba56	-0.08287494
210	0x3e789700	0.24276352
211	0x3e2c6392	0.16834858
212	0xbceb863f	-0.028750537
213	0xbe117620	-0.14205217
214	0x3dcaf6e5	0.09910373
215	0xbe06c202	-0.13159946
216	0x3d38746a	0.045032896
217	0x3e1430cd	0.14471741
218	0xbd92ea2e	-0.071735725
219	0xbdcd3ee7	-0.10021763
220	0x3db3a676	0.08771984
221	0xbd6a277e	-0.05716657
222	0xbd674aba	-0.05646775
223	0x3cdc30c8	0.02687873
224	0x3c1faf1e	0.009746341
225	0xbe78bf77	-0.24291788
226	0x3de83077	0.11337369
227	0x3c27935a	0.010228002
228	0xbdcd4f0c	-0.100248426
229	0xbdb548e1	-0.08851791
230	0xbdfb1506	-0.12259869
231	0xbe12630d	-0.14295597
232	0x3dc779ee	0.09740053
233	0x3de30105	0.11084179
234	0xbe0fb50d	-0.14033909
235	0xbe4c366a	-0.19942632
236	0xbd98c64f	-0.07459699
237	0xbe2a8f51	-0.16656233
238	0x3e1734ec	0.14766282
239	0xbd3b6d61	-0.04575861
240	0x3e3c63a4	0.18397385
241	0xbc871983	-0.016491657
242	0x3d030302	0.03198529
243	0xbe5e56c9	-0.21712793
244	0x3e8978ca	0.26849967
245	0xbe9cd8c9	-0.30634144
246	0x3e1af806	0.15133676
247	0xbd903ba3	-0.07042625
248	0xbd8b0965	-0.06788901
249	0xbe855336	-0.26040047
250	0xbdb357fa	-0.087570146
251	0xbd2b5c02	-0.041835792
252	0xbd639dde	-0.055570476
253	0x3ec7deef	0.39037272
254	0x3e8e4df2	0.27793843
255	0x3d56dd07	0.05245688

feat_mlp.0.bias f4 [64]
0	0xbe42ffc3	-0.19042878
1	0xbc0698ad	-0.008215112
2	0xbd953f1b	-0.07287427
3	0xbe25ef81	-0.16204645
4	0xbdb54171	-0.088503726
5	0xbed39d19	-0.41330793
6	0x3dde33cc	0.10849723
7	0x3d2e97f4	0.042625383
8	0x3e3323d5	0.17494138
9	0xbdc9e90d	-0.09858904
10	0xbea3d3ff	-0.31997678
11	0x3eb75711	0.35808614
12	0x3e4161bc	0.18884939
13	0x3e67b27e	0.22626683
14	0xbe354af3	-0.17704372
15	0x3df7825f	0.12085413
16	0xbd62d7e1	-0.05538166
17	0xbdfc682a	-0.12324555
18	0xbeeeff4c	-0.4667915
19	0x3e065195	0.13117059
20	0x3d3ccee5	0.046095748
21	0xbcb0d774	-0.021587111
22	0x3d4ba778	0.049720258
23	0xbda7cd0d	-0.08193407
24	0x3e304695	0.17214425
25	0x3e9975b8	0.29972625
26	0x3c231690	0.00995411
27	0xbda3ac51	-0.07991851
28	0x3d9a7782	0.075423256
29	0xbe37b91f	-0.17941712
30	0x3dd94cfe	0.10610388
31	0xbc2b0c78	-0.0104399845
32	0x3e285780	0.16439629
33	0xbe0dae82	-0.138361
34	0x3e9794e2	0.29605776
35	0xbdbca981	-0.09212018
36	0x3e0b1f86	0.13586244
37	0x3d7b1e57	0.06130823
38	0xbe59585a	-0.2122511
39	0x3e1ad47b	0.15120117
40	0xbdfafb12	-0.12254919
41	0x3dd88383	0.10571959
42	0xbd97a8a5	-0.07405213
43	0x3e95fba0	0.29293537
44	0xbeb4fe79	-0.35350397
45	0x3e4617d0	0.19345021
46	0xbe9f8668	-0.3115723
47	0x3dd0ea32	0.10200919
48	0x3def4cc0	0.11684561
49	0xbd3b701b	-0.04576121
50	0x3c9d6908	0.019215122
51	0x3e7fd4d3	0.2498353
52	0xbe02c196	-0.1276916
53	0xbe5d87af	-0.2163379
54	0xbe4d9d62	-0.20079568
55	0xbe47f625	-0.1952749
56	0xbd48d624	-0.049032345
57	0xbe1a4f33	-0.15069275
58	0xbdd9024c	-0.10596141
59	0xbd89fb78	-0.06737417
60	0x3d8993e3	0.0671766
61	0x3da4d7a8	0.08048946
62	0xbd19d12f	-0.03755301
63	0x3e8cec96	0.2752425

feat_mlp.2.weight f4 [1, 64]
0	0xbdb8318b	-0.089938246
1	0xbe279764	-0.16366345
2	0xbd9be033	-0.07611122
3	0xbd80ab9d	-0.06282733
4	0x3dcb7f1f	0.09936356
5	0xbdc70b6e	-0.09718977
6	0x3df1bd28	0.11803657
7	0xbde04441	-0.109505184
8	0x3dbd5402	0.09244539
9	0xbdc35eec	-0.09539589
10	0xbe188679	-0.14895047
11	0xbd830c50	-0.06398833
12	0x3dfcdab3	0.12346401
13	0x3d8e55fb	0.06949993
14	0xbe10d34b	-0.14143102
15	0xbe03604f	-0.12829708
16	0xbdca042e	-0.098640785
17	0xbdc11ed9	-0.09429712
18	0xbe0ac67e	-0.13552281
19	0x3dfd57c3	0.12370255
20	0xbe0fdf97	-0.14050137
21	0x3dfa5ea8	0.122250855
22	0xbdc42c8c	-0.09578809
23	0x3de798c1	0.11308432
24	0x3df32cae	0.11873756
25	0x3dcc3c8d	0.09972487
26	0xbdae610d	-0.08514605
27	0x3dd695e0	0.10477805
28	0x3dfba827	0.12287932
29	0x3e0ddfbf	0.13854884
30	0x3e211422	0.15730336
31	0xbde1d26b	-0.11026462
32	0x3e021348	0.12702668
33	0x3e3701f2	0.17871836
34	0xbda18e8d	-0.078885175
35	0xbda115a3	-0.07865455
36	0x3dbfa11a	0.093568996
37	0xbe075d77	-0.13219248
38	0xbe16daac	-0.14731854
39	0xbdfa36d6	-0.122174904
40	0x3de7f857	0.11326664
41	0xbdd31b4a	-0.10307939
42	0xbdd8380f	-0.10557567
43	0x3e03834b	0.12843053
44	0xbe0d52ce	-0.13801119
45	0x3d97593a	0.073900655
46	0xbe240d04	-0.1602059
47	0xbe08545e	-0.13313434
48	0xbdfa48b7	-0.122209005
49	0x3e09e96b	0.13467948
50	0x3ddb2b14	0.10701576
51	0xbdd7eabc	-0.10542819
52	0x3dc0eb66	0.09419899
53	0xbde264e8	-0.110544026
54	0xbe0900aa	-0.1337916
55	0x3e2e496a	0.17020193
56	0x3e10a63e	0.14125916
57	0x3e04fef4	0.12987882
58	0xbde22f36	-0.11044161
59	0x3e1b85ee	0.15187809
60	0x3e2fb345	0.1715823
61	0xbdb430bd	-0.087983586
62	0x3de2780c	0.110580534
63	0x3dab6c8f	0.08370315

embed.weight f4 [171, 32]
0	0x3ff70c3f	1.9300612
1	0xbe56544b	-0.20930593
2	0x3f12d810	0.57360935
3	0x3f8fc9af	1.1233424
4	0xbd7bf750	-0.061515152
5	0xbe0771be	-0.13226983
6	0xbd17d4a7	-0.037068035
7	0xbef93bc3	-0.48678407
8	0x3fa69844	1.3015218
9	0x3f0aa4a4	0.5415747
10	0xbe255c9d	-0.1614861
11	0x3f07da9b	0.5306794
12	0x3d798189	0.06091455
13	0xbec267e5	-0.3796989
14	0x3fad0d6f	1.3519725
15	0xbfebda86	-1.8426063
16	0xbe66bfbd	-0.2253408
17	0xbf5545d2	-0.8330966
18	0x3dd0ccf9	0.101953454
19	0xbe2ac0ac	-0.16675061
20	0x3ff817a7	1.9382218
21	0xbec2cc72	-0.38046604
22	0x3f14d7bf	0.581417
23	0xbfa5e3af	-1.2960109
24	0x3f636e76	0.88840425
25	0x3f3d73d9	0.74004894
26	0xbf527219	-0.8220535
27	0xbf14e9ab	-0.5816905
28	0x3f5c1b4a	0.8597914
29	0xbf6eaf9d	-0.93236715
30	0xbe8a9fe3	-0.2707511
31	0x3f7e9f29	0.9946161
32	0x407c0d89	3.9383261
33	0x3e4ea7b4	0.20181161
34	0x3f22ec50	0.63641834
35	0x3ca0d91e	0.01963478
36	0x3e8bc177	0.2729604
37	0xbf9d05ac	-1.2267356
38	0x3f387f13	0.720689
39	0x3f71e85d	0.94495183
40	0x3fd2ce58	1.6469221
41	0xbf8e6538	-1.112464
42	0x3f20ca9d	0.62809163
43	0x3fcce22d	1.6006523
44	0xbf16dfd0	-0.5893526
45	0xbc5634b5	-0.01307409
46	0x3e8375dd	0.2567586
47	0x3edb7d6f	0.42869136
48	0xc007bece	-2.1210208
49	0x3dabad8b	0.0838271
50	0x40038575	2.0550206
51	0x3f759940	0.95936966
52	0x3dea67b9	0.11445565
53	0xbf37d816	-0.71814096
54	0x3f348711	0.70518595
55	0xbe99ae53	-0.3001581
56	0x3f2d50f0	0.67701626
57	0x3f7cddb9	0.9877582
58	0xbdeba86b	-0.115067326
59	0xbef5a206	-0.47975177
60	0xbf1801f4	-0.5937798
61	0x3f30df67	0.69090885
62	0xbf377830	-0.71667767
63	0xbf8c0399	-1.0938598
64	0x3f86808a	1.0507977
65	0xbf8e84f0	-1.1134319
66	0x3ed19694	0.40935194
67	0xbfcc0662	-1.5939448
68	0xbdd17daa	-0.10229047
69	0xbf24ac25	-0.6432517
70	0xbeef2bc5	-0.4671308
71	0x3df4a064	0.119446546
72	0xbfb2a0b3	-1.3955292
73	0xbf8b3060	-1.0874138
74	0x3fe7cb95	1.8109003
75	0xbf8deef9	-1.1088554
76	0x3f4f7727	0.8104119
77	0xbf284180	-0.65724945
78	0xbe34806a	-0.17627111
79	0xbf924040	-1.1425858
80	0xbc326b13	-0.010889786
81	0x3fa52d45	1.290444
82	0x3fb58ead	1.4184166
83	0xbf1c20a9	-0.60987335
84	0xbd6c3ee9	-0.057677183
85	0x3f36afd1	0.71362025
86	0x3f064844	0.5245402
87	0x3fb64675	1.4240252
88	0x3efb2a3e	0.49055666
89	0xbfaae157	-1.3350018
90	0x3e380ef1	0.1797445
91	0xbfbe1c7c	-1.4852443
92	0xc0123411	-2.284428
93	0xbe84686f	-0.25860927
94	0xbeb11bc7	-0.34591505
95	0xbf69b9b4	-0.91298985
96	0xbebdf98c	-0.37104452
97	0xbf85616a	-1.0420353
98	0x3ebe90cf	0.37219855
99	0x3f3b9f01	0.73289496
100	0xbf2337d6	-0.63757074
101	0x3f121bdc	0.5707376
102	0xbf47ddbb	-0.7807271
103	0x3eb96544	0.36210072
104	0x3d62398a	0.055230655
105	0x3f97eb6e	1.1868722
106	0x3f847fca	1.0351498
107	0xbe6f51a0	-0.23370981
108	0x3fae339f	1.3609504
109	0x3efcc999	0.49372557
110	0x3fb58f1b	1.4184297
111	0x3d71a2bb	0.058993082
112	0xbf026e10	-0.5094919
113	0x3e6d0222	0.23145345
114	0x3f3f69b8	0.7477069
115	0x3d695973	0.05697007
116	0x3dad82f7	0.08472245
117	0x3f2ea75f	0.6822414
118	0xbf68ce1b	-0.9093949
119	0x3fe79abc	1.8094096
120	0xbdffd036	-0.12490885
121	0x3fbdd8ef	1.4831828
122	0xbf33d765	-0.7025054
123	0x3ef55a96	0.47920674
124	0x3de1f202	0.110324875
125	0xbf97a2bc	-1.1846538
126	0x3f028010	0.5097666
127	0x3f1eecd8	0.62080145
128	0x3ed4277e	0.4143638
129	0xbf095270	-0.53641415
130	0xbf5685a2	-0.8379766
131	0xbef4dd20	-0.47824955
132	0x3f281858	0.65662146
133	0x3f38b849	0.72156197
134	0x3fd2e63b	1.6476511
135	0x3fd536b6	1.6657321
136	0xbe614124	-0.21997505
137	0xbfa4919e	-1.2856939
138	0xbec086b2	-0.37602764
139	0xbf707334	-0.93925786
140	0x3f4b9267	0.7952027
141	0x3f63fc6c	0.8905704
142	0x3f96bf84	1.1777196
143	0xbf49d4a1	-0.7884007
144	0xbf02f65a	-0.5115715
145	0xbeb15aba	-0.3463953
146	0xc01c5dc6	-2.4432235
147	0xbf814bf6	-1.0101306
148	0x3e57bc27	0.21067868
149	0xbe02bcf7	-0.12767397
150	0x401a89d3	2.4146621
151	0xbf6ee4e3	-0.93318003
152	0x3fdba9cd	1.7161194
153	0xbf821db1	-1.0165311
154	0xc0030c2f	-2.0476186
155	0x3eb3dcbe	0.3512935
156	0x3f475670	0.7786627
157	0x3f1b018c	0.60549235
158	0x3eda4315	0.42629305
159	0x3f225af2	0.6342002
160	0xbfe4a6b6	-1.7863376
161	0x3efb7f8d	0.4912075
162	0xbf6dbc8a	-0.9286581
163	0xbf925476	-1.1432025
164	0x3e878668	0.2646973
165	0x3e879413	0.2648016
166	0xbee71731	-0.4513488
167	0xbf9b9726	-1.2155502
168	0xbdc2165c	-0.09476921
169	0x3fad9db9	1.3563758
170	0x3f0d5f9f	0.5522403
171	0xbfe72631	-1.805853
172	0x3e793196	0.24335322
173	0xbf8c9d84	-1.098557
174	0xbfe316f1	-1.7741376
175	0x3f0050b2	0.5012313
176	0xc0073c6d	-2.113063
177	0xbfa7fba6	-1.3123672
178	0x3f7adde6	0.9799484
179	0xbf948a5e	-1.1604726
180	0x3cfc802b	0.030822834
181	0x3d63e7f1	0.05564112
182	0xbfb38e14	-1.4027734
183	0x3f78bf24	0.9716666
184	0xbeb89ce9	-0.36057213
185	0xbf6935ad	-0.9109753
186	0x3d8c8a48	0.068623126
187	0xbf9675e9	-1.1754733
188	0xbfa40de4	-1.2816739
189	0xbfa08024	-1.2539105
190	0xbe09ea3a	-0.13468257
191	0x3e98e3da	0.29861337
192	0x3ff75314	1.9322228
193	0xbe4e7979	-0.20163526
194	0xbf637a42	-0.88858426
195	0xbf56f2c1	-0.83964163
196	0xbf58afe0	-0.84643364
197	0xbf6800c3	-0.9062616
198	0x3ea55db5	0.32298055
199	0x3db41c40	0.08794451
200	0xbe8d7ee4	-0.27635872
201	0xbfcf83f6	-1.6212146
202	0xbfdc48ed	-1.7209755
203	0xbe8cbb35	-0.27486578
204	0x3f366afd	0.71257
205	0x3f282c05	0.6569217
206	0xbf7a4813	-0.97766227
207	0xbe26db86	-0.16294679
208	0xbf8bfb09	-1.0935985
209	0x3fc9b5e2	1.5758631
210	0x3fb453e7	1.4088105
211	0x3f5c59cf	0.8607454
212	0xbd49b7c1	-0.049247507
213	0x3f3a663b	0.7281224
214	0xbf05d3cc	-0.522763
215	0xbfc59e1b	-1.5438875
216	0xbfe45ead	-1.7841393
217	0x3e8fef16	0.28112096
218	0x3f5c8ee3	0.8615553
219	0xbf99c327	-1.2012681
220	0x3d296b66	0.04136219
221	0x3f6439b4	0.8915055
222	0xbf1b8504	-0.6074984
223	0x3f37c4b7	0.7178454
224	0x3e4ab787	0.19796573
225	0x3e9e2ce7	0.30893633
226	0xbe63c361	-0.222425
227	0x3f104940	0.5636177
228	0x3fb87d84	1.4413304
229	0xbe720dd0	-0.23638082
230	0x3e771fad	0.24133177
231	0x3ec339d3	0.38130054
232	0x3f98b39a	1.192981
233	0x3f403bab	0.75091046
234	0x3f2a2ef4	0.66477895
235	0x3fa2b484	1.2711339
236	0xbf65a052	-0.89697754
237	0x3f945278	1.1587667
238	0xbf306c38	-0.6891513
239	0xbf18cc8f	-0.5968713
240	0xbe9bdf33	-0.30443725
241	0x3d6f512f	0.058427032
242	0xbedd4ac0	-0.43221092
243	0xbf22be95	-0.63572055
244	0x3f7fd24e	0.99930274
245	0x3f370e96	0.7150663
246	0x3f079f33	0.52977294
247	0x3fb895d7	1.4420727
248	0xbd6419ef	-0.055688795
249	0xbcd1ba72	-0.0256016
250	0xbf021435	-0.50812083
251	0x3f921cd7	1.1415051
252	0xbf48b577	-0.78401893
253	0xbe8eb122	-0.27869517
254	0x3fddcfb7	1.7329015
255	0xc00a2adb	-2.1588657
