models_parameter/BTFeature_param.pth (torch, 112385 bytes, 7 tensors)

feat_mlp.0.weight f4 [128, 60]
000000 0f df 03 3e 7c e3 c3 b8 97 2d 9e 3d ad 8b 33 be
       0.12878059 -9.340697e-05 0.07723539 -0.17533751
000010 01 b2 bd bd 3d 50 82 be 76 46 21 be 51 87 76 be
       -0.09262467 -0.25451842 -0.15749535 -0.24075057
000020 ce de 6f bd a7 2c f9 3d d0 4b 1d bd 01 b5 40 3e
       -0.058562092 0.1216672 -0.03840238 0.18819048
000030 02 4e 38 bd 7c fe ad bb 0a 6f 19 3c 5c a0 59 3d
       -0.04499627 -0.005309878 0.009364853 0.053131446
000040 5a 0f 37 3e 58 83 3c bd bc d0 a6 3d f2 9c 9b 3d
       0.1787695 -0.046023697 0.08145282 0.07598294
000050 80 6a 50 3b bd b0 01 bd d4 5c 3d be ef 1e 8e be
       0.003180176 -0.03166269 -0.18492442 -0.27757975
000060 1b 74 82 3e 33 67 2d 3e 1f f1 93 3d 5a 10 91 3e
       0.25479206 0.16933899 0.072237246 0.28332788
000070 40 76 69 3d 68 d6 23 be 02 6f 0c be 36 2d 6d bc
       0.056997538 -0.15999758 -0.13714221 -0.014476111
000080 2c 7e 82 3d 4e a1 03 be 4d 11 ef 3d ab 6c 13 bd
       0.063717216 -0.12854502 0.11673222 -0.035992306
000090 ba 7d 57 3e 56 80 4c 3e 00 f5 d4 3d 18 83 d4 3c
       0.21044055 0.19970831 0.103982925 0.025941417
0000a0 1e 26 b3 3d d5 33 a0 be c5 41 fb bc 28 ac ca bd
       0.08747505 -0.31289545 -0.03067101 -0.098961174
0000b0 6b 04 3c 3e fd f3 40 bd 40 f8 0d 3d 34 12 1b be
       0.1836106 -0.047107685 0.034660578 -0.15143663
0000c0 1f 7a 83 bd 16 92 d4 3d d8 fb 7b bd c7 89 42 3e
       -0.06419777 0.10379426 -0.061519474 0.1899787
0000d0 92 5c 8e 3c c4 19 df bc ef 4c 09 be 9f 73 9c 3e
       0.017378125 -0.027233966 -0.13408254 0.30556962
0000e0 f6 ff 0b 3d 9d 97 3c be 86 15 23 3e 26 3f 83 3e
       0.03417965 -0.18417211 0.1592618 0.25634116
0000f0 7e 3a 8b bd 2f d1 f5 bd 10 9e 0b 3e c4 f0 fd 3d
       -0.06798266 -0.12002789 0.13634515 0.12399438
000100 21 23 37 be 23 59 97 3d 1b c9 ee bd 11 a8 37 bd
       -0.17884494 0.07390048 -0.116594516 -0.044838015
000110 c6 6d 60 3c 57 ef 48 3e d6 3a 27 3e 47 11 b5 3c
       0.013698047 0.19622551 0.16331038 0.022102965
000120 ab e6 0c be ee a2 34 3e 82 6d 0d be 0c a8 1d 3e
       -0.13759868 0.17640278 -0.13811305 0.15396136
000130 89 44 73 be b0 08 da 3d 4c a3 a8 3c 30 c0 ed 3d
       -0.23756613 0.10646188 0.020585679 0.116089225
000140 e4 c0 02 3e 37 63 3f 3d 7a c6 dd 3c ee 0c 71 3d
       0.12768894 0.046725478 0.02707218 0.05885022
000150 ed b5 d6 bd 05 07 41 bd e6 42 a2 bd 13 bf 34 be
       -0.10483918 -0.047125835 -0.07922916 -0.17651014
000160 82 82 92 bd 83 9a ad 3d 35 e7 aa 3c 76 92 79 3e
       -0.07153799 0.084767364 0.020862201 0.24372277
000170 52 c6 7d be bc 34 b2 b9 75 52 d9 bc bf 80 94 bc
       -0.24782684 -0.00033990096 -0.026528576 -0.018127797
000180 45 1d 1f bd a9 51 74 be 29 a9 dd bd 97 28 4e 3e
       -0.038846273 -0.23859276 -0.1082328 0.20132671
000190 b7 2b 15 3d c7 32 6d 3e 7c 0d 33 be bd 0c 20 bd
       0.036418643 0.23163901 -0.17485613 -0.03907465
0001a0 6a 9b b4 bd 1f f5 19 3e a5 ac fa bd 9f 2d aa 3d
       -0.088187054 0.15034913 -0.122399606 0.08309483
0001b0 34 b4 db bd 20 68 fb bd 20 b8 54 bb 0d 39 83 3c
       -0.107277304 -0.1227572 -0.003245838 0.016018415
0001c0 49 6d 5a 3e 56 7d 12 3c 29 15 56 be da 42 0a ba
       0.21330751 0.008941015 -0.2090651 -0.0005274244
0001d0 b9 ee 11 3c 08 d4 80 bd e1 82 db bd fe 29 8b ba
       0.008907014 -0.06290442 -0.107183225 -0.0010617373
0001e0 95 68 75 3e be 76 44 3e 62 9f 3c 3e 5e c7 e3 bc
       0.23965676 0.19185922 0.18420175 -0.027805027
0001f0 fd c1 0c be ec fa 40 3d 7e 5f c5 bd 92 4f d0 3d
       -0.13745876 0.047114298 -0.09637354 0.10171427
000200 2d 9a c0 3c e8 32 f8 3d 0a 42 a3 bc f4 45 17 3e
       0.023511017 0.121190846 -0.01992895 0.14772779
000210 ea a5 50 be 26 c5 93 bd 0b a2 14 bc d1 3e 22 be
       -0.20375791 -0.072153375 -0.009071837 -0.15844275
000220 c5 30 0e be 03 c7 76 bc e6 d5 78 bd cc 6d d5 bd
       -0.13885792 -0.0150620965 -0.060750864 -0.10421333
000230 39 11 2e 3d ee ee 35 be 8f af 62 be 35 10 61 3c
       0.042496894 -0.17766926 -0.22137283 0.013736774
000240 12 3d 69 3c e3 40 83 3b 16 e8 95 be b6 c0 27 be
       0.014235752 0.004005538 -0.2927863 -0.16382107
000250 4d e3 0c be 26 61 33 be 7b 5a 37 3e e7 4a 26 3d
       -0.13758583 -0.17517528 0.1790561 0.040598776
000260 97 f1 8d be a8 75 f1 bd b3 6e 94 3d fa 02 5b 3e
       -0.2772338 -0.11790019 0.07247677 0.21387854
000270 d6 3e 90 be 67 fa 13 3d 16 df 32 3e 07 44 6a 3e
       -0.2817294 0.036127474 0.17467913 0.22877513
000280 1d f7 2f be 0e 8f 65 3e 80 93 35 be eb 6b e6 3d
       -0.1718411 0.22417852 -0.17732048 0.112510525
000290 d0 1f 81 be 60 3a 2b bd 6d 53 b9 3c b5 a3 cd bc
       -0.25219584 -0.041803718 0.022622788 -0.025102476
0002a0 44 69 43 3d 80 f1 52 3c 3b d5 8a 3e dc 38 95 3d
       0.04770781 0.012874961 0.27115807 0.07286236
0002b0 a3 17 53 3e 66 be 05 3c d4 e0 72 3e e7 9b 82 3d
       0.20614485 0.00816307 0.23718578 0.06377392
0002c0 f0 c9 90 bc fe 87 be 3c d7 7d 78 be 39 ad 3b be
       -0.017674416 0.023258206 -0.24266754 -0.18327798
0002d0 87 18 81 3d b9 1c cc bd 86 f1 3d 3e e4 ae 55 3e
       0.06303506 -0.09966416 0.18549165 0.20867497
0002e0 0c a3 bb bc 03 f8 a9 bd 5c dd 50 be 71 35 c5 bc
       -0.022904895 -0.082992576 -0.20396942 -0.024073334
0002f0 bb 62 b0 3d 68 1f 98 bd 0c 57 70 bd 32 fc 95 3d
       0.08612581 -0.07427865 -0.058676764 0.07323493
000300 bc 77 da bd ed 5a f6 3d 41 46 26 3e d6 92 33 be
       -0.10667369 0.120290615 0.16237737 -0.17536482
000310 2d 93 84 bd e1 f2 14 3d 9c be 23 bc c0 83 a9 bc
       -0.06473384 0.03636444 -0.009994175 -0.020692706
000320 df 52 ba bb c3 18 6a be 18 87 5f 3e 2c 24 1e 3e
       -0.0056861485 -0.22861008 0.21828878 0.15443486
000330 25 fe e6 3d 95 b4 08 3e c8 3d 24 3e bd 85 26 bc
       0.11278943 0.13350137 0.16039193 -0.010163722
000340 5c c0 39 3d e4 23 84 3d 7d e2 e2 3e 4c 94 3f 3e
       0.045349464 0.06452158 0.44313422 0.18708915
000350 a7 7d 2e 3e f1 5c aa bd d2 8f 95 bd 7a b8 5b 3b
       0.1704012 -0.083185084 -0.07302822 0.0033526705
000360 93 e0 b1 3d 49 14 f7 3d 5b 02 ae 3d 40 ab 5d 3e
       0.08685412 0.12064416 0.08496543 0.21647358
000370 41 32 d0 3b f7 51 82 bc 86 10 68 3e e2 98 3f be
       0.006353647 -0.015908225 0.22662553 -0.18710664
000380 ad 9f 41 bc 32 8c ed 3b 07 46 3d 3e 0c 4f 2b 3e
       -0.011817855 0.0072493786 0.18483745 0.16729373
000390 9d df 97 bd e0 e0 7e 3d e6 c9 17 be 84 15 8a 3c
       -0.07415698 0.062226176 -0.14823112 0.016855963
0003a0 1b ad db 3d 2e 78 14 be cf f8 39 3e 32 83 9c 3e
       0.107263766 -0.1449897 0.18161319 0.30568844
0003b0 55 9a 23 3c bd 9f 73 3e b1 1c c6 bd fb b2 a1 3d
       0.009985526 0.23791404 -0.09673441 0.07895466
0003c0 27 7e a3 3d f6 fd 1e 3e 1a b0 71 bd a0 53 08 bd
       0.07983046 0.15526566 -0.059005834 -0.033282876
0003d0 fd 0a d9 3d 63 93 e9 bd 90 9b 33 bd 9c 58 94 3c
       0.10597799 -0.11405065 -0.043849528 0.018108658
0003e0 40 99 c5 3d 41 a7 b0 3d 15 f4 96 3d 7b 87 24 be
       0.09648371 0.08625651 0.07370774 -0.16067307
0003f0 62 7e 9c bd 01 e2 e6 3d 98 7b 11 3e 44 68 f6 3c
       -0.07641293 0.112735756 0.14207304 0.030079015

feat_mlp.0.bias f4 [128]
000000 86 8c 17 3b 41 e1 f3 bd 9b 88 03 be 07 65 31 bd
       0.002312453 -0.11908198 -0.1284508 -0.043309238
000010 f5 1c 34 3e 4b 39 d9 bc 6d ab 33 3e 0e c6 1d ba
       0.17589171 -0.026516577 0.17545862 -0.0006018587
000020 c7 14 d7 3d 5f 04 65 bd eb ec 0a bc 3e 2b a8 be
       0.1050201 -0.05591237 -0.008479337 -0.3284549
000030 5d f4 42 3c 3a 05 df bd f4 50 4b bd 20 2e 50 be
       0.011899081 -0.10889669 -0.04963775 -0.20330095
000040 38 af 16 be 14 87 07 3e 86 06 15 be ec d3 d2 bd
       -0.14715278 0.13235122 -0.1455327 -0.10294327
000050 1c db e8 3c 3b c8 06 bd 53 0e 0c 3d 0d 52 09 3e
       0.028424792 -0.0329058 0.03419335 0.13410206
000060 36 bf c4 3d 30 80 90 3c 76 fb cc bd 9a 3e 12 bd
       0.09606783 0.01763925 -0.100089 -0.035704233
000070 89 0d 7e 3d 50 d5 94 bc 18 96 b8 3d 77 4c cb bd
       0.062024627 -0.018168122 0.09013003 -0.09926694
000080 58 31 12 be 95 40 45 be 08 33 6d bd e6 e3 97 bd
       -0.14276636 -0.19262917 -0.057909995 -0.07416515
000090 76 ee 40 3d ce 03 7d bd 0d 08 1c 3d 1d e3 91 3c
       0.047102414 -0.061771207 0.038093615 0.017808491
0000a0 60 69 13 3d 5d 91 3c 3d cc b0 21 3d 74 47 6d be
       0.035989165 0.046037067 0.039475247 -0.23171788
0000b0 3b 6f 46 be b6 7e 79 3d d4 c1 a4 3d be 0f 28 bd
       -0.19378369 0.060911857 0.08044782 -0.041030638
0000c0 7a 53 b2 bd 15 31 77 bd f3 d7 b1 be 43 26 3f be
       -0.08707328 -0.060349543 -0.3473507 -0.1866694
0000d0 ac 6e 16 be 33 6f 4b be 1b 45 ff bd 5b 30 ca bd
       -0.14690655 -0.19866638 -0.12464353 -0.09872504
0000e0 2a 06 9a bd 58 c4 af bc ae fd 8f be c2 30 13 bd
       -0.07520707 -0.021455929 -0.2812323 -0.03593517
0000f0 74 1e 4a be f7 b8 e8 3d ae 99 41 3c 2f 7c b5 3d
       -0.1973818 0.11363404 0.011816425 0.08861577
000100 91 12 e9 bd ed d4 2b be 55 f8 32 bc c8 26 07 bc
       -0.113804944 -0.16780443 -0.010923465 -0.008248992
000110 82 86 08 be db 9f 3d bd e9 64 d8 3d 07 b5 92 be
       -0.1333256 -0.04629503 0.10566122 -0.28653738
000120 7c c8 88 bb 09 8a c2 bd 19 ca 01 be 0c 96 92 3b
       -0.00417429 -0.09498984 -0.1267475 0.0044734534
000130 5f 3c 22 be a0 b6 21 be 27 01 d7 bd 6a 35 95 bd
       -0.15843342 -0.15792322 -0.10498267 -0.072855785
000140 4f af 24 3d cc e8 bf 3d d7 3d ab bd 04 38 90 bd
       0.04020625 0.09370574 -0.083614044 -0.07041934
000150 03 04 98 bd c7 11 23 bc 71 1e 59 be 02 66 c4 3c
       -0.0742264 -0.009952969 -0.21203019 0.023974422
000160 56 29 a4 bc 5f b1 59 bd ac 14 f5 3c fd 3e a7 3d
       -0.020039242 -0.05314767 0.029917084 0.08166311
000170 10 0f 84 bd 55 a6 f2 3c 91 61 df 3d 47 79 9e 3c
       -0.064481854 0.029620329 0.10907281 0.019344939
000180 ed 40 d5 bd c7 0d 01 3d 65 2d 08 3d ca 2a 66 be
       -0.10412774 0.03150728 0.033246417 -0.2247726
000190 1e b1 1c be a5 00 51 3c 75 a6 43 bd 6a 83 25 3e
       -0.1530194 0.012756501 -0.047766168 0.16163412
0001a0 43 9f 86 be 5e c7 a1 bb f7 b6 a8 3d cd 4c 29 be
       -0.26293382 -0.0049370965 0.08238023 -0.16533203
0001b0 22 41 a7 bd 7e 23 9d bd be b9 49 3e 49 25 6b 3d
       -0.0816672 -0.07672785 0.19699761 0.057408605
0001c0 ce 4d e6 3d c2 57 54 be b1 71 ae bd 15 c2 41 bd
       0.11245309 -0.20736602 -0.08517779 -0.04730423
0001d0 7f 72 c8 bd ec 4e 2f bc af 17 98 bd 52 ec 80 bc
       -0.097874634 -0.010699969 -0.07426392 -0.015737686
0001e0 28 eb 03 be 40 1d ca bd f3 ce 7c 3e 9f d0 0f be
       -0.12882674 -0.0986886 0.2468832 -0.14044426
0001f0 58 31 f5 bd ff 1a 92 bd 61 ab ad bd 18 12 6b bc
       -0.11972302 -0.07134055 -0.084799536 -0.014347576

feat_mlp.2.weight f4 [64, 128]
000000 6f e4 d5 3d f8 e7 ec bc 78 c2 76 bd 6a a4 fa 3c
       0.10443961 -0.028919205 -0.060244054 0.030595977
000010 47 1c 50 be 83 05 10 3d 23 e2 1e be bf 13 80 3d
       -0.20323287 0.035161506 -0.15515952 0.06253766
000020 4d 0d 2d bb aa 75 8a bd 98 5f 1f 3d 6d 77 18 bd
       -0.0026405633 -0.06760724 0.038909525 -0.03722327
000030 67 53 5f 3d 21 5b 15 bb cf 45 1a 3d 3f 64 8b bd
       0.054522898 -0.0022789913 0.03766423 -0.0680623
000040 50 69 d2 3d f1 bf dd 3d 99 3d e8 3d 2f 44 86 bc
       0.10273993 0.108276255 0.11339874 -0.016389934
000050 14 9e 91 bd af 62 a7 3d 64 f4 28 bd d9 c2 ce 3d
       -0.07110229 0.08173119 -0.041248694 0.10095758
000060 ac d4 5a 3d d6 27 b6 3d 91 d1 75 3d 81 91 d4 3c
       0.053425476 0.08894317 0.06001431 0.025948288
000070 11 1c d0 bd fb 8e 90 3d 5a cd 5a 3d f4 42 bc 3c
       -0.10161603 0.07058521 0.053418495 0.022981144
000080 c2 22 a6 3d b7 a4 ba 3d d6 8f 28 3e 98 f4 16 be
       0.08112098 0.09113448 0.16461119 -0.14741743
000090 9a 36 aa 3c d2 65 13 3e 4e f9 15 3e a5 d6 ab bd
       0.02077799 0.1439431 0.14645883 -0.083905496
0000a0 90 ff 96 3d e0 1a 0b 3e f3 b0 34 bc 1b 3d 3a 3e
       0.073729634 0.13584471 -0.011028516 0.18187372
0000b0 9e 85 1e 3d 96 13 76 3d 1d d3 01 bd c2 ea 1b be
       0.038701646 0.060077272 -0.031695474 -0.15226272
0000c0 2a 2d 4c 3c 56 b1 f3 bd 6c ee a2 bc 67 ca 9d 3d
       0.01246194 -0.118990585 -0.019889079 0.07704621
0000d0 d1 ec df 3c 31 3f 1b bd 2c 24 08 3e 14 9b cf bb
       0.027334603 -0.03790206 0.13295048 -0.0063356254
0000e0 b7 6d d3 3d f5 9d b0 bc 2b 2a f0 3c ef 50 15 be
       0.10323661 -0.021559695 0.029316982 -0.14581655
0000f0 ad fc 0b 3e 68 1e 1d 3d d8 51 e7 3d 24 87 07 3c
       0.13670607 0.038359076 0.11294907 0.008271966
000100 40 c3 30 3e f0 5e 1f bc b1 1d 04 bd fd 8d af bd
       0.17261982 -0.009727225 -0.03225488 -0.08572004
000110 8a 38 25 be 16 b7 00 bd 82 a9 49 3b b7 e8 b0 3d
       -0.16134849 -0.031424604 0.00307712 0.08638137
000120 ce 06 9e bd 2c 3b 20 bd 88 f0 21 bb a9 fc d9 3c
       -0.07716142 -0.03911893 -0.0024710018 0.026609736
000130 0f 23 82 bd 93 31 b6 bd bf 43 29 bd 96 56 9b bc
       -0.06354343 -0.08896174 -0.041324373 -0.018962186
000140 3a 39 df bd d3 4f df bd 77 a4 65 3c 46 10 2f 3e
       -0.10899587 -0.10903897 0.014016262 0.17096052
000150 ba 4f 10 3e 1e 0e d6 3d b2 f4 91 3d 22 f0 e9 3d
       0.14092913 0.104519114 0.0712675 0.11422755
000160 80 40 4e bd 41 1d bd 3d 65 d5 83 bd d1 e2 c8 bd
       -0.05035448 0.09234095 -0.06437186 -0.09808887
000170 68 44 c2 bc 82 c1 21 3e 0f 23 1f be 11 33 22 3c
       -0.02371426 0.15796474 -0.15540718 0.0098998705
000180 82 0f e0 3d 2e 96 1e 3e 61 46 85 bd a9 43 65 bb
       0.10940458 0.15486977 -0.06507564 -0.0034982956
000190 0b 01 2e 3c ed cb 72 bd 35 09 64 3d 59 c6 52 3d
       0.010620366 -0.05927651 0.055672843 0.05145869
0001a0 af 40 41 bd 0d e4 86 bd 30 f8 44 3e 12 09 8d 3d
       -0.047180828 -0.06586466 0.19235301 0.06886496
0001b0 07 7c d4 3c 7e 66 1d bc 4b c8 1a bd fe 68 89 bd
       0.025938047 -0.009606956 -0.03778867 -0.06709479
0001c0 82 6a 6b bd b3 36 20 bc 72 7e 97 3c 84 70 f3 bc
       -0.05747462 -0.009778666 0.018492911 -0.029716738
0001d0 40 16 e4 bd 28 c6 c2 bd 44 f6 e1 3c a6 f5 38 bd
       -0.11137056 -0.095104516 0.027583249 -0.045156144
0001e0 a3 8f f8 3b b6 45 b3 be ad d6 d6 bc 6e a2 a7 bd
       0.007585482 -0.35014123 -0.026225412 -0.08185278
0001f0 28 22 73 3d c3 f0 e9 3d 06 c4 d0 3c 1f 26 68 b9
       0.059358746 0.11422875 0.025484096 -0.00022139445
000200 2e bc 99 3d fb 36 20 be f3 07 0f be b4 74 ff bc
       0.075065956 -0.15645973 -0.13967876 -0.031183578
000210 2d f5 bc 3d bc a8 b4 3a 9d d7 ee bc cb 55 8d bd
       0.09226451 0.0013783197 -0.029155547 -0.06901129
000220 79 58 0f 3c d6 9f c8 3d c6 2c 32 3c 23 c3 e4 3a
       0.008749121 0.09796111 0.010874933 0.0017453175
000230 34 a0 1b 3d 5a 2a 56 3e 88 1a 18 3d ec b8 97 3c
       0.03799458 0.20914593 0.037134677 0.018520795
000240 bd dd ef 3d 07 3d 80 3d 54 cf 65 bd dc 35 29 bd
       0.11712215 0.0626164 -0.056105927 -0.04131113
000250 f7 ec 8c 3d d8 3d 95 3d ad 55 f8 3d 80 e7 08 3e
       0.06881135 0.072871864 0.12125716 0.1336956
000260 2c 74 75 3d d4 fa 48 3b 67 58 4a bd 3b 90 91 3d
       0.059925243 0.0030667083 -0.049400713 0.07107588
000270 31 3b b9 3d 2d a4 94 bd 78 ed e5 3d 53 92 32 3d
       0.09044493 -0.072578765 0.11226934 0.043596577
000280 e1 8b 8c bc f6 bb 71 3d d0 27 a6 3b ef a8 e1 3d
       -0.017156543 0.059017144 0.005070664 0.1101855
000290 d9 a0 46 3c 85 78 07 be 4f 37 82 3d 9c e9 97 3d
       0.01212331 -0.13229568 0.063582055 0.07417604
0002a0 7d a1 f3 3d e5 24 f4 bc da e8 1e be 00 20 a1 3d
       0.11896036 -0.029802749 -0.15518513 0.07867432
0002b0 97 40 5b bd 04 73 b9 bd 82 d4 b9 bc d7 21 bf 3c
       -0.053528395 -0.090551406 -0.02268434 0.023331566
0002c0 63 12 36 3e f7 29 a9 3d 35 0f 2d 3e 56 0a c4 3d
       0.17780451 0.08259957 0.16900332 0.09572284
0002d0 07 e6 5d 3d a9 47 c5 3d a2 40 00 3d 0c 95 0b bc
       0.05417445 0.09632809 0.03131164 -0.008519422
0002e0 8e 4d 31 be e0 03 56 3c 6d ea 6f 3d 7a aa 28 3e
       -0.17314741 0.013062447 0.058573175 0.16471282
0002f0 4d f7 08 be 4b 76 7e 3c 31 28 5f bd 74 4f 71 3c
       -0.13375588 0.015531133 -0.05448169 0.014728416
000300 05 06 18 3e f7 77 a7 3d 3c 9d ff 3d 6a 6e 9b bd
       0.14846046 0.08177178 0.12481162 -0.07589419
000310 9c fb 8c 3d ba 4c 89 bd a7 b1 6f bd 54 b1 60 bd
       0.06883928 -0.067040876 -0.05851903 -0.054856613
000320 70 77 7b be cf 7d 07 3e fe b0 ff bc 74 ae 91 bc
       -0.2455728 0.13231586 -0.031212326 -0.017783381
000330 e7 62 7f be de 29 f5 3d 98 81 a7 bb 46 1b b6 3a
       -0.24940072 0.11970876 -0.0051118843 0.0013893626
000340 bb 8f 86 bd 21 7e 51 3c e4 87 46 bd da a7 0f 3d
       -0.06570383 0.012786419 -0.04846944 0.035072185
000350 ee 2d ce bd c0 70 d9 bd 6a 6a 70 be 80 5d 28 bd
       -0.10067354 -0.106172085 -0.23478094 -0.041104794
000360 e8 2f 18 3d 95 05 18 be d8 6b 42 3e e7 a7 dc 3c
       0.037155062 -0.1484588 0.18986452 0.02693553
000370 8f 30 27 bd 41 ca f7 bd 09 88 f9 3c f3 c6 29 3d
       -0.040817793 -0.12099124 0.030460374 0.0414495
000380 a4 cb b6 3d 2c 4c 43 bd 95 79 6c be 0d a5 53 3d
       0.0892556 -0.047680065 -0.23093255 0.051671077
000390 95 99 4c bd 32 bd 96 be ee 0a 84 3c 46 b9 9f 3d
       -0.049951155 -0.2944122 0.016118493 0.0779901
0003a0 6e 95 97 3d 12 05 92 3d 96 73 0a bd c2 09 c8 3d
       0.07401548 0.07129873 -0.033801638 0.09767486
0003b0 80 32 00 3c c1 33 c0 bd 4c c4 41 be b8 f8 a4 bd
       0.00782454 -0.09384871 -0.18922538 -0.08055252
0003c0 9c 4d 20 bd cc 2a d7 bc 69 07 bf bc 9b ac 6d bc
       -0.039136514 -0.026265524 -0.023318963 -0.014506484
0003d0 fa 21 b8 bd ab bc 13 be 65 94 e9 bb 80 24 e0 bc
       -0.089908555 -0.1442744 -0.0071282857 -0.027361155
0003e0 88 67 23 be 7c 74 83 3d 68 38 2c be 56 44 29 be
       -0.15957463 0.06418702 -0.16818392 -0.16529974
0003f0 0b 36 d5 bd 78 c4 43 3d fe a2 5c bd 93 87 19 be
       -0.104106985 0.04779479 -0.05386638 -0.14993124

feat_mlp.2.bias f4 [64]
000000 3e be 1d bd e4 ea a4 3d 46 2f 7c bd 3f 9a 10 bd
       -0.038511507 0.08052614 -0.06156852 -0.03530335
000010 8b 66 77 3d b3 4c f8 3d 02 42 22 3d 92 a7 b5 3c
       0.060400527 0.12124004 0.03961373 0.02217463
000020 52 a8 57 bd c9 c4 0b be 93 39 9f bd 12 db b4 bd
       -0.052650757 -0.13649286 -0.07774653 -0.08830847
000030 51 f7 25 3d 2e d5 a7 bd b2 8a fe 3c 5c a1 c0 bb
       0.040519062 -0.08194958 0.031071994 -0.0058786105
000040 be ea 85 bd 70 1e 19 bd 20 5d 3d 3d cb 2d c7 3d
       -0.06538914 -0.037382543 0.04623139 0.09725531
000050 67 63 93 3d ac df cc bb 6d 99 1f 3d 0b b2 09 be
       0.07196694 -0.0062522497 0.038964678 -0.13446824
000060 58 2b 3a 3d 8b 08 a3 bd a9 bc 01 bd fc 10 83 3d
       0.045451492 -0.07960614 -0.03167406 0.06399724
000070 ca 08 9a bd c8 a2 c6 3a a9 24 8e 3c 5c dd f0 bc
       -0.07521208 0.0015154714 0.017351465 -0.029402427
000080 94 2b 99 3d 47 e2 21 3d 1c 44 ba 3d a1 31 8d bd
       0.07479015 0.039522436 0.09095022 -0.068942316
000090 ac ed 00 bc 13 19 2d 3d 9d 34 95 3d 6e bd 22 3d
       -0.007869165 0.04226024 0.07285426 0.039731435
0000a0 98 03 f9 3d c2 df 22 3d c4 07 29 bd c7 c9 9d bc
       0.121588886 0.039764173 -0.04126717 -0.019261254
0000b0 2b ab 3f 3d 33 22 aa 3b c0 2d f2 bb 5b 91 35 bd
       0.046794098 0.005192065 -0.0073907077 -0.044328075
0000c0 74 73 5c 3d 48 23 b5 bd b3 ea 52 bc 56 05 94 3d
       0.053821042 -0.0884462 -0.0128733395 0.0722758
0000d0 54 97 32 bc 4c de 02 bd 39 66 60 3d d7 f5 9c 3d
       -0.010900337 -0.03195028 0.054784987 0.07664078
0000e0 22 3d b0 3d 75 b1 9b 3d 23 da 80 bd 32 77 12 3d
       0.0860541 0.076022066 -0.06291606 0.035758205
0000f0 26 0d 67 bc 97 3f ab bc 6a ae 42 3d f3 c3 30 bb
       -0.014102256 -0.020904345 0.047529615 -0.0026972264

feat_mlp.4.weight f4 [1, 64]
000000 17 67 0c 3e ce 0f ac be ec d4 be be a9 7c d6 3e
       0.137112 -0.33605808 -0.37271821 0.41891983
000010 e2 cf 5f 3e 42 bd a0 be 09 e3 a7 3d 1d 61 5a 3e
       0.21856645 -0.31394392 0.081976004 0.21326108
000020 6d 91 a5 be de 03 96 3e 75 60 ca be 8d d5 2f be
       -0.32337514 0.29299825 -0.39526716 -0.17171307
000030 d2 b6 39 3e c6 64 6c be 91 c3 bd be 98 2a 41 3e
       0.18136147 -0.23085317 -0.37063268 0.18863904
000040 94 62 49 be c3 c9 07 3f 66 1f 2a bf 00 8d e1 3e
       -0.19666511 0.5304224 -0.6645416 0.44052887
000050 0f 47 4a 3e 55 da a8 be 81 9a 80 be fd 3b ab be
       0.19753669 -0.32979074 -0.25117877 -0.33444205
000060 3b c1 bd 3e 06 41 b6 bd ae 41 3a be 08 22 69 be
       0.37061486 -0.08899121 -0.18189117 -0.22766888
000070 b4 e1 42 be 0d 76 90 be 40 f7 ed 3d b0 b2 9a be
       -0.19031411 -0.28215066 0.11619425 -0.30214453
000080 24 01 76 be 09 cc 15 3e d0 27 a3 be 44 04 a1 3e
       -0.24023873 0.14628614 -0.31866312 0.31448567
000090 e3 64 6e 3e dd fc 64 3d 9c 9f 63 3e f3 d7 a4 be
       0.23280673 0.05590521 0.22228855 -0.32196006
0000a0 fc 45 42 3e 2c 58 2c 3e 51 b3 73 3e 19 00 29 bf
       0.1897201 0.1683051 0.23798873 -0.66015774
0000b0 f1 ce 32 3e b7 09 88 be e7 86 e2 be dd 1a ad 3e
       0.17461754 -0.26569912 -0.44243547 0.33809558
0000c0 6f ef bb 3e 33 8b 92 be 7f 60 36 bd 9c 0c 4b be
       0.3670611 -0.28621826 -0.04452562 -0.19829029
0000d0 8e 78 bf 3e 2e 65 78 3e d2 a7 8a 3e 01 2c 14 bf
       0.37396663 0.24257347 0.27081162 -0.57879645
0000e0 ac 3b 8b 3e 71 5e 50 3e 4b c7 28 be 25 4e b7 3e
       0.27193964 0.20348527 -0.16482274 0.35801807
0000f0 0f d7 e5 be 06 46 6d be 39 8b 34 3e c5 9b a1 3e
       -0.4489064 -0.23171243 0.17631234 0.31564155

embed.weight f4 [171, 32]
000000 59 a4 9b bf 38 bb 86 3f 97 f8 4a 3f bf ff f3 3d
       -1.215953 1.0525885 0.7928557 0.11914014
000010 e4 2f 51 3f ab 88 c0 bf ba 16 1b bf 5c 33 7f 3f
       0.817137 -1.5041708 -0.60581553 0.99687743
000020 cd ff d9 3e 7b 56 0d 3f e0 47 9e be 2c 15 a1 3e
       0.42577973 0.55210084 -0.3091421 0.31461465
000030 8f 08 dd 3f 9e e9 d5 3e 98 72 2d 3e dc 33 5f be
       1.7268237 0.41779798 0.16938245 -0.21797127
000040 7b d5 cc 3f 16 6a ef be 1b a9 93 bf 82 ac 17 bd
       1.6002649 -0.46760625 -1.1535982 -0.03702975
000050 d0 37 c7 3e 5f 9f ed 3c 0d d4 56 3d 0f c5 df 3f
       0.3890977 0.029006658 0.05244832 1.7482013
000060 3f 2d ca 3d 3b 81 a6 be fb a9 5f bf 6f 17 06 40
       0.09871911 -0.3252047 -0.87368745 2.0951803
000070 49 23 dd be 7e ac ee be b6 6c ee bd 09 2d 17 bf
       -0.43190983 -0.46615976 -0.11641829 -0.59053093
000080 0b 84 05 bf 14 6c dc bf 4e f7 37 3f b2 18 96 bf
       -0.52154607 -1.7220483 0.7186173 -1.1726286
000090 f0 d2 80 3f 6d 98 41 bf 83 5e 12 bf ad 12 97 3e
       1.0064373 -0.7562321 -0.57175463 0.29506436
0000a0 85 ec cb bf 3d ae 1a be ce c7 e0 3f 0b 1d e3 3e
       -1.5931555 -0.15105529 1.7560976 0.44358096
0000b0 1f d8 93 3f b4 d6 13 be bb e8 c8 bf 04 73 a1 3e
       1.155033 -0.14437371 -1.5696024 0.31533062
0000c0 2e ae 03 be 7d be 2a 3f 65 59 61 bf 16 8e 09 3f
       -0.12859413 0.6669691 -0.8802703 0.5373243
0000d0 cd 10 66 c0 07 78 69 bf 54 d5 a1 3d 54 83 cb 3f
       -3.5947754 -0.9119877 0.07902017 1.5899453
0000e0 f0 3d 23 3d 55 ee b3 be 22 9d f3 be 09 71 8c bf
       0.03985399 -0.3514277 -0.4758082 -1.0971996
0000f0 05 5a e3 3e de b1 94 3e 74 4a d2 3f fc 52 85 3f
       0.44404617 0.29041952 1.6428971 1.041595
000100 7a 01 e1 bf 9e 75 07 bf dc fe b5 3f 09 f3 cc 3f
       -1.7578576 -0.52913845 1.4218402 1.6011668
000110 67 ed 1b bf bf b7 6e bf fc b6 6a be db 23 28 3f
       -0.6090912 -0.93249124 -0.22921365 0.6567971
000120 81 c5 c2 3e 71 38 1f 40 a9 9e 1e c0 33 6b 9d bd
       0.3804131 2.48782 -2.4784338 -0.07686462
000130 19 67 84 3e a7 b6 fb 3e 20 7d 16 3f 5e 8b 02 c0
       0.25859907 0.4916279 0.58784676 -2.0397563
000140 fe 9c 63 bf 51 40 2b be 4b 33 34 3e 5d 60 be 3f
       -0.88911426 -0.16723754 0.17597692 1.4873158
000150 6b 72 6c 3f d5 45 12 3f 1b 98 83 3f 30 7b b9 3f
       0.9236209 0.57137805 1.0280794 1.4490719
000160 81 66 d2 3f 9d 4a 07 bd cc cf 1d c0 b0 e5 3e 3f
       1.6437532 -0.03303014 -2.465808 0.74569225
000170 61 41 e1 3f 16 08 98 be c0 8a f2 3d a9 68 86 bf
       1.7598077 -0.2969367 0.11842871 -1.050069
000180 d7 c2 8d 3f 11 c0 b1 bf 3f fc 10 be 9b 5a 89 3e
       1.1075085 -1.3886739 -0.14158724 0.2682694
000190 1e 0d 8c be 02 bc bf 3f 3f bf c5 bd a9 4a 35 bf
       -0.27353758 1.497925 -0.09655618 -0.7081705
0001a0 7d 13 43 be 3d 25 24 bf cc c9 b5 bf 36 ca ce 3f
       -0.19050403 -0.6411932 -1.4202209 1.615546
0001b0 bc b5 9b bf 3c 2b 0a bf b1 fe 98 3e cf ee 15 40
       -1.2164836 -0.5397222 0.29881814 2.3427007
0001c0 47 0b 61 bf 40 a1 be bf b5 b8 e0 3e c7 ef 12 40
       -0.8790783 -1.489296 0.4389092 2.2958848
0001d0 ea 9e f7 bf dd 63 99 3e 1c 4f d3 3f 47 27 95 3f
       -1.9345372 0.29959002 1.6508517 1.1652611
0001e0 87 76 03 c0 16 3e 04 3f 48 77 70 be e0 f6 33 40
       -2.0541093 0.51657236 -0.23483002 2.811943
0001f0 c2 8a 51 bf c9 b6 d5 be 2e a3 a9 bf 15 21 43 3f
       -0.8185235 -0.41741017 -1.3252923 0.76222354
000200 2e c9 ad bf c4 19 94 3f 48 6a 65 3d da d9 b3 3f
       -1.357702 1.1570363 0.05600956 1.4050858
000210 f8 b9 d7 be 76 34 af bd fb e4 f2 be 20 83 fb be
       -0.4213407 -0.08554928 -0.47440323 -0.49123478
000220 9e 77 8b be 23 c1 3c bf e1 d4 b0 be 26 c8 31 3f
       -0.27239698 -0.73732203 -0.34537414 0.6944603
000230 76 25 2a c0 ca b6 c0 be 7d af 6e 3f 22 87 8e 3f
       -2.6585364 -0.37639457 0.93236524 1.1134989
000240 e4 df 5e 3f fb c8 eb 3f ee 4a 69 bd 35 32 be 3e
       0.8706038 1.8420709 -0.056956224 0.3714768
000250 69 57 bd 3e 20 89 71 bf d3 97 c5 3f f6 72 dc 3e
       0.3698075 -0.9434986 1.5436958 0.43056458
000260 17 53 85 bf 5b 67 92 3f b1 b3 ad be 06 cf d1 bf
       -1.0415982 1.1437792 -0.33926156 -1.6391304
000270 cb fd 87 3e 6e 51 b0 be 48 1e 8c be 6e 54 af be
       0.26560816 -0.34437126 -0.27366853 -0.34244102
000280 55 1b 03 40 c0 db 22 3f 12 83 a1 bf a9 38 57 3f
       2.0485432 0.6361656 -1.2618124 0.8407083
000290 72 d4 8b bf 23 3b 29 40 8c 20 2f 3e 0f 2a ea 3e
       -1.0924208 2.6442344 0.1710226 0.45735213
0002a0 52 d9 27 3e d2 c8 c5 bf 3a 18 74 bf 63 11 b5 3e
       0.16391495 -1.545191 -0.95349467 0.35364828
0002b0 cb 8c 74 bf 23 54 8c bc 61 b7 9a bf 36 6b b4 bf
       -0.95527333 -0.017129963 -1.2087213 -1.4095218
0002c0 f4 f6 6e 3f a1 a1 80 3f bc f3 26 3f 5d 08 c5 3e
       0.9334557 1.0049325 0.6521566 0.38482943
0002d0 41 d0 04 bf 41 f0 08 bf 2f ac 64 bd dd 1f d4 3e
       -0.5188027 -0.534916 -0.05582827 0.4143056
0002e0 3a fc 9f 3f 4e 4d 8a bf 3e 33 45 3f 40 f3 4c 3f
       1.2498848 -1.0804842 0.77031314 0.8005867
0002f0 af 43 21 bd 92 26 f5 be 4b 56 1e bf 35 fd 92 3f
       -0.03937119 -0.4788099 -0.6185042 1.1483523
000300 bb e6 4d c0 49 7f 8b c0 c7 2b b1 3f 2f 8d 12 3f
       -3.2172077 -4.3592877 1.3841485 0.5724668
000310 c9 07 df 3f e4 bd 11 3f d9 04 bd c0 5d aa 69 3d
       1.7424251 0.56930375 -5.9068418 0.057047237
000320 dd 59 e7 bf 4e e2 e7 bf 52 a2 17 be 00 3a 0d 3f
       -1.8074299 -1.8115938 -0.14808014 0.55166626
000330 ac 16 2e 40 ed 16 90 40 94 03 85 3f f7 6a 63 be
       2.7201338 4.5027986 1.0391717 -0.22208773
000340 04 f7 bd 3f 6c e1 31 3e 1f 99 ec 3f 74 45 77 c0
       1.4841008 0.17371148 1.8484229 -3.863614
000350 e8 8c 87 3f 3d b6 f9 3d de 05 0e 3e ae 97 a2 3f
       1.0589876 0.12192962 0.13869426 1.2702539
000360 10 d2 03 c0 f1 f7 ca 3f ca 88 9b be 7c e3 81 3f
       -2.0596962 1.5856916 -0.303778 1.0147548
000370 3a d4 a4 3f 82 dd 56 c0 d9 63 20 c0 a0 3e 55 3f
       1.2877266 -3.3572698 -2.5060942 0.83298683
000380 ab 7f 8c 3f c9 86 e8 3d ad 23 1e be 4b 85 d0 be
       1.0976461 0.11353833 -0.15443297 -0.40726694
000390 63 89 09 40 77 10 3f 3f 67 c8 a0 3f 71 86 e9 3f
       2.1490104 0.746345 1.2561158 1.8244153
0003a0 fc d8 ce bf b5 aa 4b 3f 35 50 3b 3f 65 bb 46 bf
       -1.6159968 0.79557353 0.7316926 -0.7762969
0003b0 b9 ed 91 3f f2 4b c8 3f d8 a0 09 40 3e e7 0a 3f
       1.1400672 1.5648177 2.1504421 0.542591
0003c0 45 a6 84 bf e7 62 e1 3e c4 15 39 bc ae 67 01 bf
       -1.0363241 0.4402077 -0.011296693 -0.5054883
0003d0 70 f6 81 3f 12 17 20 bf cb b3 cf 3f c9 7c fe 3e
       1.0153332 -0.625352 1.6226743 0.4970458
0003e0 bc 61 77 bf 2c 11 b1 3f 72 6b a8 bf b7 e1 a0 3e
       -0.96633506 1.3833365 -1.315779 0.31422207
0003f0 77 2b de 3e 81 48 0f 40 c7 c6 8b bf 48 b7 67 3f
       0.43392536 2.2388003 -1.0920037 0.9051404

embed_bias.weight f4 [171, 32]
000000 d7 64 c2 3f 25 05 39 40 fc 63 b8 bd 1e 29 01 3f
       1.5187024 2.890939 -0.090034455 0.50453365
000010 99 76 31 bf 0a b0 8b 3f 07 08 f9 be c5 6e 54 3e
       -0.6932159 1.0913098 -0.48638937 0.2074538
000020 cc 6f da 3f 7a 19 64 3f ea be 89 bf ab 8b 52 c0
       1.7065368 0.89101374 -1.0761387 -3.2897747
000030 f5 48 2f bf 54 47 21 bf 55 91 16 3f b3 7a ec bf
       -0.684707 -0.62999463 0.5881551 -1.8474945
000040 44 18 6c bf 49 9e 8c bd 2c a5 3d bf 50 e7 c8 3e
       -0.92224526 -0.06866128 -0.7408016 0.39238977
000050 82 21 3d 3f 00 31 5f 40 37 b1 91 bf db f9 06 be
       0.73879254 3.4873657 -1.1382207 -0.1318125
000060 61 0b ba be 3e cd 70 bf ea 70 28 bf 85 9b b8 3f
       -0.36336806 -0.94063175 -0.65797293 1.4422461
000070 de 08 5e be 43 f8 20 3e 5b f4 4d bf 9e e7 dd bd
       -0.2168307 0.15719704 -0.8045098 -0.10835193
000080 78 35 89 3f 37 0d 40 3c 78 d9 3b 3f a1 47 05 bf
       1.0719442 0.011721901 0.73378706 -0.5206242
000090 92 33 24 c0 b8 ee d1 bf 2b c7 81 3f f6 92 af 3f
       -2.5656476 -1.6400976 1.0138906 1.3716724
0000a0 5a a8 82 3f c3 50 a6 3f b4 5a 41 bf e5 4b 23 bf
       1.0207627 1.2993397 -0.75529027 -0.6378768
0000b0 e5 64 2a bf 9c 5d 6e 3e ef 12 b8 bf 5c fc 36 bf
       -0.665602 0.23277897 -1.4380778 -0.7147882
0000c0 7a 42 4e 3f 5c 69 ba 3f ee af 8a 3f 43 c0 fe be
       0.80570185 1.4563403 1.083494 -0.4975606
0000d0 56 22 ad 3f 51 f4 bd 3f b3 e6 c4 3e f9 6c f2 bc
       1.3526103 1.4840184 0.3845726 -0.029592978
0000e0 f0 cb 30 bf 32 52 94 bf 93 87 3d bf 61 34 46 3f
       -0.69061184 -1.1587584 -0.74034995 0.77423674
0000f0 35 c3 7a 3f 2b 61 0f c0 58 7d e9 3e ce 7c bb 3f
       0.9795411 -2.2403057 0.45603442 1.4647462
000100 79 25 a8 bf e5 df 30 bf a6 51 8e 3f ac 3d 68 3f
       -1.3136436 -0.69091636 1.1118667 0.90719104
000110 22 30 26 3d 91 3c b6 3e 8d 55 3d 3f 39 95 15 bf
       0.040573247 0.35593084 0.73958665 -0.5843082
000120 bf ae 2a bf 0f d0 19 3f 4c ec ed be 07 27 c3 3f
       -0.6667289 0.600831 -0.46469343 1.5246285
000130 51 b7 cf 3e ab 44 2a bf 37 09 4f bf 2d 45 86 be
       0.40569547 -0.6651103 -0.80873436 -0.26224652
000140 c9 9b fb 3e 79 cd 78 be ef 6f 22 3f 7b 7d 13 3e
       0.49142292 -0.24297132 0.6345205 0.14403336
000150 64 cc 51 be e7 6b 63 3e 6a b1 fe 3f 41 98 16 3f
       -0.20488125 0.2220913 1.9897892 0.5882607
000160 ca b9 ff bc 8c 30 2f bf 7a 75 a2 3f 15 76 2c bd
       -0.03121652 -0.6843345 1.2692101 -0.0421048
000170 31 14 45 3d d8 13 87 3d 29 8c a9 bf 11 99 a3 3f
       0.04811496 0.06595582 -1.3245898 1.2781087
000180 0a 14 a3 3d a7 79 60 3f 38 9e 48 bf ba 5e b4 3f
       0.079628065 0.87685627 -0.7836642 1.4091408
000190 28 1f d3 bf 3d 42 93 3f f0 e4 cd bf 5a 35 81 be
       -1.6493883 1.1504589 -1.6085491 -0.25236017
0001a0 14 d8 2b c0 c1 f3 35 bf dc eb a6 be 25 ce 0a bf
       -2.6850634 -0.71075064 -0.3260182 -0.542208
0001b0 80 d3 c7 bf bb 2f 9d bf 0b fc 9b bf 04 9c b6 bf
       -1.561142 -1.2280191 -1.2186292 -1.4266362
0001c0 a2 57 9a 3f e3 10 07 3f 99 94 af 3f c2 d2 93 3e
       1.2057993 0.5276014 1.3717223 0.28871733
0001d0 3c ec 94 bf 60 52 6a 3e b5 a5 20 bf 51 f6 f9 3f
       -1.1634593 0.22882986 -0.6275285 1.9528295
0001e0 1f e6 0f bf 34 4a bb 3f bc 2b 84 3e 1e 04 0a 3f
       -0.5621051 1.463202 0.25814617 0.5391253
0001f0 75 38 91 3f b9 a1 0b bf 00 63 bf 3e fc e5 b2 3e
       1.1345354 -0.54543644 0.37380219 0.3494109
000200 52 27 96 bf 70 9b 0a bf aa 42 5f bf 94 af 22 3e
       -1.173075 -0.5414343 -0.87211096 0.1588729
000210 e8 a1 98 bf 2d 66 7b bf 89 fd 7e 3f 12 16 e0 bd
       -1.192441 -0.9820278 0.99605614 -0.109417096
000220 2c 11 28 40 e1 6f 43 bf b9 70 8f 3f 3e e5 8b 3f
       2.626048 -0.7634259 1.1206275 1.0929334
000230 54 81 9a 3f e3 97 27 3f 03 8c 61 bf 16 8a 9e 3f
       1.2070718 0.65466136 -0.88104266 1.238589
000240 23 64 96 3f 61 3a 59 3e 3b b1 b9 be f9 01 3c 3f
       1.1749309 0.21213676 -0.3626803 0.7344051
000250 da 5c 50 3e c0 63 85 3f 54 8f e8 3e a9 b1 6b be
       0.2034792 1.0421066 0.4542185 -0.2301699
000260 5d 70 93 bf a7 bc f3 bf 3b 67 e8 bf d0 5e ae 3e
       -1.1518666 -1.9041947 -1.8156503 0.3405671
000270 33 2d d8 bd e7 c2 5c 3f 20 fd 6c 3f b4 22 84 be
       -0.10555496 0.862349 0.9257374 -0.25807726
000280 2c 9f a3 3e d1 bc b0 3e 23 e9 3a 3f 72 dd 75 bf
       0.31957376 0.34519055 0.7301199 -0.96041024
000290 93 a1 30 bf 9e d5 93 3f 45 71 11 bf 86 e4 3b be
       -0.6899654 1.1549566 -0.5681346 -0.18348894
0002a0 84 16 91 3e 85 11 1e 3e 69 3f c6 be c7 0a c2 bd
       0.2833749 0.1543637 -0.38720253 -0.09474712
0002b0 2b 99 10 c0 b5 b5 80 3e 8d 6c 86 3f 9b 02 81 bf
       -2.2593486 0.2513863 1.0501877 -1.007892
0002c0 91 de 87 bf 0a 10 6d be 93 be c2 bf 8b 71 73 3f
       -1.0614797 -0.2315065 -1.5214409 0.9509513
0002d0 fe bb 80 bd 2e 63 37 be d6 7c b4 3f e0 d3 05 40
       -0.06285857 -0.17908928 1.4100597 2.0910568
0002e0 23 c2 4f bf d8 ad 93 bf 8e 6f 10 3e 59 a4 84 be
       -0.81155604 -1.1537428 0.14105055 -0.25906637
0002f0 bd 78 e8 3d 63 81 31 be b4 ac b7 be ad f4 e7 3e
       0.11351154 -0.17334513 -0.3587395 0.4530386
000300 d6 c9 f0 be 41 15 37 be e6 e6 d1 3b bc 98 8b 3e
       -0.4702899 -0.17879201 0.006405699 0.27264965
000310 7b a6 9c bf fa 2b c6 bf 07 c9 9a bc df b4 4c 3e
       -1.2238306 -1.548217 -0.018894685 0.19990872
000320 bb 32 78 bf f7 30 3f bf b9 85 a8 bd 5f 94 60 3f
       -0.9695241 -0.7468409 -0.082286306 0.87726396
000330 5c 81 a0 bf 1d 7e 12 bf 04 89 4c 3e 63 5a 0e be
       -1.2539477 -0.57223684 0.19974142 -0.13901667
000340 fd ce 1c be 53 ed 9d bc a4 16 d1 bc 72 de 6c 3e
       -0.15313335 -0.019278204 -0.025523491 0.23131731
000350 8f aa 6e 3e c2 73 0e c0 43 0b df 3f fe b4 a5 bf
       0.2330725 -2.2258153 1.7425312 -1.294586
000360 c7 f7 aa be 86 90 c5 3f f1 a4 49 bf bc 5f c8 3f
       -0.33392164 1.543473 -0.78767306 1.5654216
000370 bd a6 11 3e d4 09 d6 3e f6 50 90 be c2 2b 7c bf
       0.14223762 0.41804373 -0.28186768 -0.9850427
000380 4f 2f 96 be 74 d9 f6 3f a2 33 b9 3e a1 81 2f bf
       -0.2933297 1.9285111 0.36172205 -0.68557173
000390 73 06 03 40 f3 48 f9 be 21 0e c4 bf 67 ef 18 3f
       2.0472686 -0.48688468 -1.5316812 0.597403
0003a0 a0 1f 8b 3f f2 f0 a6 3f 03 a3 3b 3f 52 14 d8 3f
       1.0869026 1.3042281 0.7329561 1.6881201
0003b0 a4 24 9b bf 10 64 41 bf de c4 88 be 13 cf 9c 3e
       -1.2120557 -0.7554331 -0.26712698 0.30626735
0003c0 eb b4 5a 3f 58 54 c9 3f cc ea 90 3f 12 6b 41 3f
       0.8543231 1.5728865 1.1321654 0.75554
0003d0 08 2e 06 be ef b4 03 40 b6 d2 54 be 39 38 4f 3e
       -0.13103497 2.0579183 -0.20783505 0.20236291
0003e0 a1 1a 88 3f f0 fd 61 bf 36 37 0f 3f fd 3f 57 bf
       1.0633126 -0.882781 0.5594362 -0.84082013
0003f0 5a f4 2e 3f c6 77 43 3f 40 fb 4e 3f e2 b9 71 bf
       0.683416 0.76354635 0.8085213 -0.9442426
