models_parameter/BTFeature_param.pth (torch, 33269 bytes, 4 tensors)

feat_mlp.0.weight f4 [64, 30]
000000 c8 8e 60 be 0a ec 03 3d 20 37 92 be 34 fd b8 3d
       -0.21929467 0.032207526 -0.28557682 0.0903267
000010 fb 9c 8c 3c 45 ad 33 bd 65 f9 9a 3b 87 74 53 3e
       0.017164698 -0.043866415 0.004729437 0.2064992
000020 15 ec 25 bd 72 e5 d6 3d 51 86 23 be 25 16 57 3e
       -0.04050835 0.10492982 -0.15969206 0.21004541
000030 0a f8 44 3c ad 57 9e bd 13 32 86 bd aa 3b 19 3e
       0.012022028 -0.077315666 -0.0655252 0.14964166
000040 71 e7 8f 3d f2 a4 d7 bd 07 12 24 be 18 db 0b be
       0.07026566 -0.10529508 -0.16022502 -0.13657796
000050 4f ab 4c 3e 84 41 68 bd 30 6e 94 bc c4 32 a9 bc
       0.19987224 -0.056703106 -0.018118948 -0.02065409
000060 b9 95 6b 3c ab fd 1d 3e 64 5d 01 be af 08 ca 3e
       0.014378958 0.15428798 -0.12633282 0.3945975
000070 b8 a4 d8 3d 52 3c 41 be 0a e1 0a 3c cb d6 01 3e
       0.105782926 -0.18870667 0.008476505 0.12679593
000080 aa 8a 0c 3e 8a 19 25 be d3 e2 26 bc 3b da b4 bc
       0.13724771 -0.16123024 -0.010185915 -0.022076717
000090 d7 0c 20 be 3a a3 fd bd 50 a5 08 be d9 7c 81 3c
       -0.15629898 -0.123846486 -0.13344312 0.015806602
0000a0 2e 34 89 be 10 67 df 3c ad 6c eb bd cb 9f 16 be
       -0.26797622 0.027270824 -0.11495338 -0.14709394
0000b0 0b 9e 11 be 5e a0 b1 3c c6 95 38 bc ad 09 0b 3e
       -0.14220445 0.021682914 -0.0112661775 0.1357791
0000c0 98 56 c2 3d 10 fe 2f be 82 a3 62 3c 3f bf 62 bd
       0.09489173 -0.17186761 0.013832929 -0.055358168
0000d0 79 e6 db bd 87 9d 8c bd b4 eb 91 bd 21 17 06 3e
       -0.107373185 -0.068659835 -0.07125035 0.1309476
0000e0 25 7b d6 3d 82 60 b5 3c 32 16 7a 3d 79 8e 17 be
       0.10472707 0.022140745 0.061056323 -0.14800443
0000f0 48 4e 3e be 78 84 33 3e 09 2d a6 bc 8b 6f ca bd
       -0.1858455 0.17531002 -0.020285146 -0.098845564
000100 3a 27 5d bb 76 cf e7 3d d1 c9 a0 3c 74 2c 03 be
       -0.0033745305 0.11318867 0.019627484 -0.12809926
000110 b9 df 59 be b7 3f fe 3c 34 34 90 bb 7c 90 af 3d
       -0.2127675 0.031036241 -0.0044007543 0.0857248
000120 9d 73 a3 3c 66 65 90 3d 4a 21 08 3c 04 f2 08 3e
       0.01995259 0.0705059 0.008308718 0.13373572
000130 22 1b 2b 3e 18 2f 84 3c 4c 88 9c 3d c6 08 95 bd
       0.16709569 0.016135737 0.07643184 -0.07277064
000140 e2 ce 37 3c 7c 41 6f bd 82 3a 63 be 1c c5 44 bd
       0.011218758 -0.05841206 -0.22190288 -0.04803954
000150 25 14 48 3d 14 f9 83 3d 24 75 93 bd 8a 59 4c be
       0.048847336 0.06443992 -0.07200077 -0.19956031
000160 b8 30 19 be e9 5b 65 bd 70 8a 0d bd dd d5 49 3d
       -0.14959991 -0.055995855 -0.034555852 0.04927622
000170 1c 71 c4 3d 4d 5b 46 3d d2 fd 42 3e 40 14 d1 3d
       0.095918864 0.048426915 0.19042137 0.102089405
000180 01 06 dd bc 38 4e c2 3c f8 49 db 3c 52 16 ff 3d
       -0.026980402 0.023718938 0.02676867 0.12455429
000190 60 80 1d bd 54 f5 a8 3d d3 f9 ae bb 82 08 3e 3e
       -0.038452506 0.082499176 -0.00533984 0.18557933
0001a0 52 db 4a bc 60 ed da 3c 42 f7 39 be e1 34 39 3e
       -0.012381392 0.026724517 -0.18160728 0.18086578
0001b0 de 4c e1 bd 0c a9 99 3d 5a f2 82 3d 70 e5 0f be
       -0.110009894 0.07502946 0.06393881 -0.14052367
0001c0 79 f4 94 bd d0 ed 17 3e d2 b4 e9 3d 0f 0b f3 3c
       -0.07273192 0.14836812 0.11411442 0.02966836
0001d0 04 99 1c be 0a 54 fe bd 59 a2 40 3d 59 d0 09 bd
       -0.15292746 -0.12418373 0.047029827 -0.03364596
0001e0 ee a8 30 be d4 db 96 3d dc f1 7a bd 4c b6 95 3d
       -0.17251942 0.07366148 -0.06126581 0.07310161
0001f0 6d 29 04 be 92 57 ce bd c4 de 04 3e a0 e5 d5 bd
       -0.12906428 -0.100752965 0.12975603 -0.10444188
000200 b1 3e 89 be 59 fd ff 3d f5 2e ac be 6e 3e 60 3e
       -0.26805642 0.12499494 -0.33629575 0.21898815
000210 e6 be e9 3d 34 84 f7 bd bc 96 f7 bc d1 27 b4 be
       0.11413364 -0.120857626 -0.030223243 -0.35186628
000220 7f cc b3 bb f5 a8 8d bb 5a 12 06 3e b6 ad 70 bd
       -0.0054870243 -0.0043231198 0.13092938 -0.058759414
000230 37 42 77 3e ba dd a2 3d 9c c7 1a 3e 05 78 87 3d
       0.24146353 0.07952447 0.15115207 0.06614689
000240 7b d5 c6 3d 41 77 c5 3d 71 c7 26 bd 9b ac 9f 3d
       0.09708687 0.096418865 -0.040717546 0.07796594
000250 5e 60 d1 3d e2 8d 1f be 3b f5 c0 3c 2e 8d c9 bd
       0.10223459 -0.15581468 0.023554435 -0.09841381
000260 b3 e8 89 bd 65 ea bf 3d d9 3e 3f 3e 3e d5 e1 bd
       -0.06733837 0.09370879 0.18676318 -0.11027001
000270 8d 7f 00 3e 35 d2 2e ba 77 dd 6c 3d cf 31 6c 3d
       0.12548657 -0.00066688965 0.057828393 0.05766469
000280 39 d3 12 be 4a 4f c3 3d 3d af 68 3d de 62 06 be
       -0.14338388 0.095366076 0.056807745 -0.13123652
000290 19 ec 92 3d 69 e5 2f be 8d f1 3a bc 4c 54 98 3d
       0.07173938 -0.17177357 -0.011410129 0.07437953
0002a0 e4 ef b7 3d 30 de 4a bb 79 3f 22 be 6f b1 4b bd
       0.089813024 -0.0030955188 -0.15844525 -0.04972976
0002b0 cc 16 86 3d 62 f0 e6 3c 63 db 8f bd 99 49 90 bd
       0.06547317 0.028190795 -0.070242666 -0.07045288
0002c0 77 34 4e bd c4 ea 49 bd f8 a5 4e be 7b 34 89 bd
       -0.050343003 -0.049296156 -0.201805 -0.06699463
0002d0 ba 37 1f 3e 30 cb 13 be 37 9f b4 be 9a da 36 3e
       0.15548602 -0.14432979 -0.3527772 0.17856827
0002e0 97 ad 23 bc 69 e6 8c 3e 24 53 6d 3e 08 14 fe 3d
       -0.0099901175 0.2751954 0.23176247 0.124061644
0002f0 f3 36 3d 3e e6 e4 71 3e bd c8 8e 3d c8 3b bc 3e
       0.18477993 0.23622474 0.069718815 0.3676436
000300 ef 49 13 3e 06 06 49 bd c1 cd b5 3c ea 1f d4 3d
       0.14383672 -0.04907801 0.022192838 0.103576496
000310 84 30 a3 bd ae c3 f8 3c 47 4f 04 be 5e 17 e0 bd
       -0.07968238 0.030366745 -0.12920867 -0.10941957
000320 71 6c a8 ba 5a 28 b0 3d 12 23 a1 3d 07 56 1a 3e
       -0.0012849701 0.086014464 0.07868017 0.1507188
000330 2a 25 5e bd b5 48 8b bc 4c 82 9b bd 8b 43 25 be
       -0.05423466 -0.017002443 -0.075932115 -0.16139047
000340 f3 8a 34 be 19 7c 06 bf cd b6 86 3c 9e 9a 0a 3d
       -0.1763113 -0.5253311 0.016444588 0.03383886
000350 ca 28 f0 3c 3f a4 1c 3e f8 d7 23 be 3b e3 15 3b
       0.029316325 0.1529703 -0.16000354 0.0022871036
000360 90 64 fe bd 57 83 4f 3d aa de 7e 3d a0 d6 42 3e
       -0.124215245 0.050662365 0.062224068 0.19027185
000370 b0 6a a1 bd 02 5b 05 be 38 04 34 3e 85 26 cf bc
       -0.07881677 -0.13022998 0.17579734 -0.025286922
000380 e4 45 8b bd 6c 80 0e 3e 19 e1 4a 3e 8c 7a 4a be
       -0.0680044 0.13916177 0.1981243 -0.1977331
000390 4c 3a 37 bd 77 a2 1b be de 1d 4d 3e 4d f6 86 bd
       -0.04473333 -0.15198694 0.20030925 -0.06589947
0003a0 19 63 66 be 73 45 02 3e eb 92 46 bd 99 b7 ce 3d
       -0.2249874 0.12721805 -0.048479956 0.10093612
0003b0 32 3d ad bc 47 50 bf 3d 27 50 1a 3d c9 b0 b6 3d
       -0.021147344 0.093414836 0.037674095 0.08920438
0003c0 aa 7f c5 3d 79 5e 3f 3d 8e f4 90 3d ce f8 81 3e
       0.096434906 0.046720956 0.07077895 0.25385135
0003d0 d6 db 0d be c5 4a 72 bc 52 69 ab bd 31 3b a9 bd
       -0.13853392 -0.014788334 -0.08369698 -0.08263243
0003e0 d0 64 7a be 0c 35 32 3c d5 bc b9 bd 13 6d 00 be
       -0.2445252 0.010876905 -0.0906922 -0.12541609
0003f0 8d 5f f9 ba e4 ec 23 bc 39 4f 43 be f3 76 02 be
       -0.0019025669 -0.01000521 -0.1907319 -0.12740688

feat_mlp.0.bias f4 [64]
000000 94 7b cf 3d 59 05 ba 3d fd 0b 59 be 9b 7e 11 3e
       0.101309925 0.09083051 -0.2119598 0.14208452
000010 78 d7 9a 3e 02 c1 3e bc ca 95 8a be 31 49 97 bd
       0.30242515 -0.011642696 -0.27067405 -0.07387007
000020 3b 17 06 3e cb f1 8c 3e d5 cb 49 3e e6 08 33 3e
       0.13094799 0.27528223 0.19706662 0.17483863
000030 15 db f8 3d 8c d4 6a 3e 8b de a2 3d e1 bf 02 be
       0.121511616 0.22932643 0.07952603 -0.12768508
000040 5a 6a 84 be 69 bf ec bd 70 7a ad 3d 37 db 89 bd
       -0.2586239 -0.11559946 0.08470619 -0.06731265
000050 da 67 e6 3e a1 a1 6a 3e 11 2f 12 be 03 6e a4 be
       0.45001107 0.22913219 -0.14275767 -0.32115182
000060 9c 12 33 3e 24 c6 10 bd ba a3 3b 3f cf b6 86 3d
       0.17487568 -0.03534521 0.732967 0.06577837
000070 d3 4d fb bd 1f a6 a7 3d 1c c2 21 be da 7e 87 3e
       -0.12270703 0.08185982 -0.15796703 0.26463968
000080 92 4e 0a 3e 2c cb cc bd 2f ef 1d 3d 72 2b 93 3d
       0.13506535 -0.099996895 0.03855818 0.07186021
000090 72 5e 92 3d 4b e9 9e bd 7a 89 28 3e 54 a5 7d be
       0.0714692 -0.07759341 0.16458693 -0.24770099
0000a0 d4 4d d1 be 8a f6 90 3a b3 87 80 3e 47 a7 b9 be
       -0.4087969 0.0011059802 0.2510353 -0.36260435
0000b0 b2 2e 50 be ce 45 94 3e 54 75 f7 bd ee 30 76 3e
       -0.20330313 0.28959507 -0.120829254 0.24042103
0000c0 3d 30 ab bb 36 40 2f be d1 ba 41 3c f6 88 cf 3d
       -0.0052242563 -0.17114338 0.011824326 0.10133545
0000d0 67 b8 47 3d 32 9b 5f bd 33 e9 92 3e 9e 78 09 3d
       0.048759844 -0.054591365 0.28693542 0.033562295
0000e0 09 14 34 be 86 a9 1f 3e 3a 8d 40 3b 8c e7 20 be
       -0.17585768 0.15592012 0.0029381053 -0.15713328
0000f0 96 4c 9b be ef 39 96 be 96 d7 34 be e3 7c 83 3d
       -0.30331868 -0.29341075 -0.17660365 0.064203046

feat_mlp.2.weight f4 [1, 64]
000000 23 84 21 be 00 d8 22 be b7 8c b6 bd 64 64 a8 3d
       -0.15773062 -0.1590271 -0.08913558 0.08222273
000010 53 63 e6 3d 06 79 1c be 85 3a cd 3d bb 40 fc 3d
       0.11249413 -0.15280542 0.10020927 0.12317034
000020 40 73 e1 3d a5 60 a2 bd 36 54 a7 bd 1f 33 e7 bd
       0.1100831 -0.0792859 -0.08170359 -0.112890474
000030 4a f7 08 3e 71 43 bc 3d e4 7f c4 bd 9c 73 a9 3d
       0.13375583 0.09192551 -0.09594706 0.08274004
000040 a7 0a f5 bd 1e 0b f9 bd 24 bd e3 bd 47 20 ef bd
       -0.119649224 -0.121603236 -0.1112006 -0.11676078
000050 88 4d ea 3d 7e bc b1 3d bf 31 d6 bd 11 df 0f 3e
       0.11440569 0.0867853 -0.10458707 0.14049937
000060 c1 79 86 3d fa 53 8b bd 1b 75 fa 3d 3a 41 bb bd
       0.065661915 -0.06803127 0.12229367 -0.091433
000070 73 4f c9 3d ff 8f 12 be ce 11 f7 3d 98 90 d5 3d
       0.09829607 -0.14312743 0.12063943 0.1042797
000080 46 fd f3 bd 54 49 f3 bd 0a 2d 0a be 8b 3e 7a 3e
       -0.119135424 -0.118792206 -0.13493744 0.24437921
000090 68 33 02 be 3c 24 7a 3d 22 a5 c6 3d 46 9b de bd
       -0.12714922 0.061069712 0.09699465 -0.1086946
0000a0 bf 1d 01 3e 42 16 06 3e c8 41 f1 3d c7 6d 15 be
       0.12609003 0.13094428 0.11780125 -0.14592658
0000b0 1f 97 c4 3d 8b 7b 92 3d be 80 1f be f1 84 c1 bd
       0.095991366 0.0715247 -0.15576455 -0.09449185
0000c0 57 9b b5 3d 59 8a 0e be 1e 8d bb 3d 55 fc da bd
       0.08867519 -0.13919963 0.09157775 -0.1069266
0000d0 4a 39 2b be ea f0 d7 3d bc cb e7 bd 60 ce 85 3d
       -0.16721073 0.105439976 -0.11318156 0.065335035
0000e0 a4 93 dd bd b0 3d ff 3d 72 a5 fc 3d e7 a3 dd 3d
       -0.10819176 0.12462938 0.12336244 0.108222775
0000f0 35 d1 f5 bd 3c 2a f9 3d 19 7e 09 be 23 14 a8 3d
       -0.12002794 0.12166259 -0.13427009 0.08206966

embed.weight f4 [171, 32]
000000 c7 d2 f9 bd 25 17 86 3e 8f b8 16 3f fe 6f 41 3f
       -0.12198406 0.26189533 0.58875364 0.7556151
000010 c3 e9 14 3e 98 fe 24 3f a2 d6 11 3d 1f ef 13 3e
       0.14542298 0.6445098 0.03560508 0.14446686
000020 b7 5f 38 bf 4a e5 d2 3f b7 65 de 3c 2e 0c 9e 3f
       -0.7202105 1.6476223 0.02714811 1.2347467
000030 a9 e8 27 bf 55 df f3 3f 2f f5 14 40 24 36 c5 bf
       -0.65589386 1.905253 2.3274648 -1.5407147
000040 ff bb a6 bd b2 05 47 3f 43 95 01 c0 e0 9a c2 b9
       -0.08141326 0.77743065 -2.0247352 -0.00037117954
000050 42 cf 97 bf e1 75 1b bf c5 0a b9 bf 0d 47 26 bf
       -1.1860125 -0.60726744 -1.4456412 -0.64952165
000060 d5 eb 43 3e 00 f5 8f bf 30 1b 4d 3f 89 11 01 be
       0.19132932 -1.1246643 0.8011961 -0.12604345
000070 f9 bc 83 3e 2b d9 bd 3f ad 48 0e be 5e d4 2f bc
       0.25730112 1.48319 -0.13894911 -0.010731785
000080 f7 22 29 bf ca 2d 9d 3d da 3b 8f 3e 0b 5a a1 be
       -0.6606898 0.07674749 0.2797535 -0.3151401
000090 56 90 86 bf b4 80 b4 bf 4e 95 8c 3f 66 f3 cd be
       -1.0512798 -1.4101777 1.0983064 -0.4022476
0000a0 ca cd 18 bf 1b 1f a9 3f 7b e2 d7 be 51 63 16 3e
       -0.5968901 1.3212618 -0.42164978 0.14686324
0000b0 eb 62 13 3f 8e 6f 91 bf cc 85 ba 3e c0 7f ae 3f
       0.5757281 -1.1362169 0.36430204 1.3632736
0000c0 b2 60 6f 3f 34 76 75 3f 3f 4e 16 40 87 e8 59 bf
       0.9350692 0.9588349 2.3485258 -0.85120434
0000d0 45 08 f9 3e 6c 3f f6 3d 0c d4 17 3f 97 fc 24 bf
       0.48639122 0.120238155 0.5930793 -0.6444792
0000e0 9f f1 a7 be 0a e8 d0 bd 47 80 a7 3e 58 d6 c4 be
       -0.3280153 -0.10200508 0.32715055 -0.3844478
0000f0 fe f9 94 bf a3 4e 60 bf 16 ea a5 3f 10 25 20 c0
       -1.1638792 -0.8761999 1.2962062 -2.502262
000100 6c 77 ae bf 50 6b 62 3f be 3e 7f 3f 65 f0 9e bf
       -1.3630195 0.88444996 0.9970511 -1.2417113
000110 9a 13 95 bf 54 56 64 bf 32 32 8c 3e 0b 38 80 3f
       -1.1646607 -0.89194226 0.27382046 1.0017103
000120 a6 a7 74 bf 74 ef e3 be 56 2c 3d bf 5f 96 0c c0
       -0.9556831 -0.44518626 -0.73895776 -2.196678
000130 88 f2 03 bf bb ec 29 3f b9 49 63 bf f4 78 eb bf
       -0.5154195 0.6637685 -0.88784367 -1.8396287
000140 52 d4 1f bd 9d c7 f3 3f 6b 40 05 bf 9e a8 7f bf
       -0.039020844 1.9045292 -0.5205142 -0.99866664
000150 98 6a bf be cc 8d 62 3e 4e b0 31 be 8b f1 f1 bf
       -0.37386012 0.22124404 -0.17352411 -1.8901838
000160 75 14 32 3f 4d 35 a2 3f b5 4a f3 be 14 2b 15 3f
       0.69562465 1.2672516 -0.47517934 0.58268857
000170 fd 00 6d 3f c4 65 cf 3f 2b 18 17 bf f9 dd b5 bf
       0.92579633 1.6202931 -0.5902125 -1.4208366
000180 a3 ea a4 3f d7 d0 3c bf a1 af 0c 3e be 0b fc be
       1.2884105 -0.73756164 0.13738872 -0.4922771
000190 36 67 a9 bd 5e 1c 9d 3f b3 99 9d 3e 24 22 49 3f
       -0.08271639 1.2274282 0.30781326 0.7856772
0001a0 79 aa 83 bf 4b 0c a7 bf 91 83 5f 3d bc d4 ae bf
       -1.0286399 -1.3050627 0.05456883 -1.3658671
0001b0 ad e4 40 3f 20 d2 40 3e ff a2 20 bf cb bd 70 bd
       0.7534893 0.18830156 -0.6274871 -0.05877475
0001c0 64 7f 1b be a3 7c d7 be 24 72 24 3f 43 b3 2a be
       -0.15185314 -0.42087278 0.64236665 -0.16669945
0001d0 eb 52 3e 3d 1e 78 9e 3e 5e e0 09 3f 94 48 dc 3e
       0.046465795 0.30951017 0.5385798 0.43024123
0001e0 31 1a be 3e 94 46 a1 be 00 84 b6 bd 74 42 ff bc
       0.37129357 -0.3149916 -0.08911896 -0.031159617
0001f0 c2 2d 2a bf 7b 76 90 3f b8 81 6d be 94 78 36 3f
       -0.6647607 1.1286157 -0.23194015 0.7127774
000200 9f 75 df 3e 33 12 5b bf 0c a0 1a 3f 93 8d 06 3d
       0.43644425 -0.85574645 0.6040046 0.03284986
000210 13 d1 c0 bd c2 16 88 bf 42 8c 37 3e b5 76 7b bf
       -0.09414878 -1.0631945 0.17924598 -0.9822801
000220 65 0f 8e bf 53 10 01 bf 93 74 bb bf b2 2e f2 bf
       -1.1098448 -0.50415534 -1.4644951 -1.89205
000230 b8 d7 7e 3f 68 c3 ac bf 7a b7 c7 bd 11 2c 60 bf
       0.9954791 -1.3497133 -0.09751792 -0.8756724
000240 ae 01 24 3e c2 1d 25 bf 82 a8 95 3f b9 7d 80 bf
       0.16016266 -0.6449853 1.169205 -1.0038368
000250 f3 05 b0 bf 00 fe 6a be 12 6a b7 3f 4d d0 a6 3f
       -1.3751816 -0.22948456 1.4329245 1.3032318
000260 43 1b 41 bf 08 6b 39 be 6d 17 4f be 8e 2b 9f be
       -0.75432223 -0.18107235 -0.2022378 -0.31087917
000270 98 30 7b 3e 44 57 86 3f 73 a3 a2 3f 2d c1 14 3f
       0.24530256 1.0495381 1.2706131 0.5810726
000280 93 8b 41 3f 70 cb 27 3e 22 4c 7c 3f 36 5a 32 bf
       0.756036 0.16386199 0.9855367 -0.696689
000290 30 96 71 be 26 65 2e 3f 0a b3 a7 3c a9 ba 88 3f
       -0.23592448 0.6812309 0.020471115 1.0681964
0002a0 63 9a 6b bf ec 7c 54 3e 0d dc ce 3f 49 6a 78 bf
       -0.9203245 0.20750779 1.6160904 -0.9703718
0002b0 b0 b6 82 bf 66 f8 68 bf 56 14 e4 3f c7 bb dc be
       -1.0212002 -0.91004026 1.7818706 -0.43112013
0002c0 61 10 3f be 12 9b e6 3f 88 d6 6c 3f 75 d7 9b 3f
       -0.18658592 1.8016074 0.9251485 1.2175127
0002d0 6d 31 80 be 9d b0 5b bf b2 3c fc be 56 87 b7 be
       -0.2503771 -0.85816365 -0.49265057 -0.3584544
0002e0 44 58 bf be a2 cb 35 3f 6f 80 82 bf 2c fa 52 bf
       -0.3737203 0.71013844 -1.0195445 -0.8241298
0002f0 e7 a8 d3 be 32 43 50 bf 8f f3 03 3f 3b 77 8d 3f
       -0.413398 -0.8135253 0.51543516 1.1052011
000300 36 bb 73 3e df 29 38 be c2 f0 0c 40 4c a9 15 bf
       0.23801884 -0.17984723 2.2021947 -0.5846145
000310 f6 57 24 3f 9f 25 96 bf 0d a2 98 bd 53 dc 44 3f
       0.6419672 -1.1730231 -0.07452784 0.7689869
000320 89 b1 2e 3e d4 13 7e 3f 99 6e 4b 3e e3 11 b9 bf
       0.17059912 0.99249005 0.19866408 -1.4458584
000330 0c 57 fc bf f1 3a 28 bf 2d 0e 92 bf ef e9 a6 3e
       -1.9714065 -0.6571494 -1.1410576 0.32600352
000340 4e 37 2a bf bb 31 91 3f ca 27 27 be f1 66 74 bf
       -0.6649064 1.1343302 -0.16323772 -0.95469576
000350 a2 8d 01 40 f5 2b 01 bf 2f bd 0f 3f 39 af c3 3d
       2.0242696 -0.504577 0.56148046 0.095549054
000360 83 0b 02 3f a7 81 99 bf 25 d6 05 bf 3c 97 98 3e
       0.50798815 -1.1992692 -0.52279884 0.29802883
000370 3e 13 7f be 71 af 33 3f 9a 8f 8e be 01 3a c2 bf
       -0.24909684 0.7018958 -0.27843934 -1.5173951
000380 6b 00 4c 3f 7e 80 14 3f 21 c8 0d 3f 6e 94 0b 40
       0.7968814 0.58008564 0.553835 2.1809344
000390 65 a3 9b bf 4a fd 70 3f 48 0a 73 bf 2f 17 9a be
       -1.2159239 0.9413649 -0.9493756 -0.30095813
0003a0 7d b9 2e be 4d 3b d1 bf 83 59 b6 bf a8 ff b2 bf
       -0.17062946 -1.6346222 -1.4246067 -1.398427
0003b0 dd 0d ea 3e a7 20 69 3e 90 40 07 3e bb 55 02 bf
       0.45713702 0.22766362 0.13208222 -0.50912064
0003c0 9e e9 a8 bf 5a 20 a2 be 35 25 96 3f a4 16 5d bf
       -1.3196294 -0.31665307 1.1730105 -0.8636267
0003d0 6c a3 3d 3f ac 47 3c 3f 99 00 17 c0 30 96 d6 3c
       0.74077487 0.7354686 -2.3594115 0.026194662
0003e0 14 1b 15 bf e2 0f 03 bf b0 b6 5c 3e 5d cb 69 3f
       -0.5824444 -0.5119611 0.21554065 0.9132593
0003f0 c2 17 5f bf 86 2f e6 be 3c a0 74 3f ad 13 49 3f
       -0.87145627 -0.44958133 0.95557 0.7854565
