models_parameter/BTFeature_param.pth (torch, 10537 bytes, 2 tensors)

linear.weight f4 [1, 30]
000000 74 62 1a bf 4f c1 0a bf 37 25 a2 be 32 48 87 be
       -0.6030648 -0.54201216 -0.31669018 -0.26422268
000010 de 8c d4 3e fc bb d5 3d 42 2b 8d bd 72 1a a1 be
       0.41513723 0.10436246 -0.068930164 -0.3146549
000020 55 2b 9a 3e dc 79 8f bd b5 7f c3 be a2 69 ee 3e
       0.30111185 -0.07005665 -0.3818337 0.46564966
000030 aa 6a 8b bd c6 19 c8 be 2c 74 e6 3e b6 33 47 3f
       -0.06807454 -0.39082164 0.45010507 0.7781328
000040 2f 95 88 3e bb 37 91 be d4 1c eb 3d b8 6f 3e 3c
       0.26676318 -0.2836283 0.11480108 0.0116233155
000050 f4 e4 fa bd f8 5d b2 3e 75 d4 89 be b1 bc b3 3e
       -0.122507006 0.34837317 -0.26919904 0.35104898
000060 26 8a db 3e d8 44 37 3c 69 72 0c bd 98 6f c1 3e
       0.42878836 0.011185847 -0.034288798 0.37780452
000070 ae 8d 5d 3d de 5f 57 3f
       0.054090194 0.84130657

embed.weight f4 [171, 12]
000000 b1 71 07 3f c1 0a 90 bc 7e 47 e9 bf 9c fb 08 40
       0.52907854 -0.017583253 -1.8224943 2.140357
000010 b0 d2 ec 3e 28 41 6e bf ea fc fe 3e 3e f6 70 be
       0.46254492 -0.9306817 0.49802333 -0.23531434
000020 6e cb ac 3f a3 e9 a0 3d 0d 66 2e c0 5d 7c 76 3f
       1.3499582 0.07857063 -2.7249787 0.96283513
000030 d0 f0 ba 3e c8 d0 bd 3e d6 b8 08 3f d5 e6 f7 3e
       0.3651185 0.3707335 0.5340704 0.48418298
000040 83 4f cc 3e f0 06 8f 3e 7d 48 06 c0 1e 17 a5 be
       0.39904413 0.2793498 -2.0981743 -0.322442
000050 b4 01 09 bf 94 b0 61 3f cd 15 ee 3e 6d 75 16 be
       -0.53518224 0.8816006 0.46501008 -0.14693232
000060 1d c9 ee 3c 92 1b db 3f 61 bd 91 3f 4a 4d a5 be
       0.029148633 1.7117789 1.1385919 -0.3228553
000070 ac 74 91 bf 74 0d cb bf a6 82 aa 3d eb 8d 9c be
       -1.136373 -1.586348 0.083257005 -0.30577025
000080 1f a6 50 3f d8 04 12 bf ce a1 81 bf a9 eb 73 3e
       0.8150348 -0.5703864 -1.0127504 0.23820366
000090 bb 6c c0 be ff cf 35 be a4 4b 85 3e 79 27 8b bf
       -0.37582955 -0.17755125 0.26034272 -1.0871421
0000a0 3c 86 ac 3e c3 a2 28 bf 0c 31 b9 3f 23 48 5c bf
       0.33696163 -0.65873355 1.4468093 -0.8604757
0000b0 db 87 fd be 28 99 60 bf 21 58 ad 3f 0d fe bf 3c
       -0.49517712 -0.877337 1.354252 0.02343657
0000c0 0e e0 f7 3e 52 0c 16 bf 8a cf 09 3e 34 c1 cb 3e
       0.48413128 -0.5861255 0.13458076 0.3979584
0000d0 e3 84 9a bf 3b 7a 17 40 33 0c 84 bf ea 95 f5 be
       -1.2071804 2.3668354 -1.0316223 -0.47965938
0000e0 7c 56 9c 3b e8 14 3f bf 7b 47 74 3f 31 ae 37 be
       0.004771052 -0.74641275 0.9542157 -0.17937542
0000f0 a7 ac 95 3f 46 18 1b 3f f1 36 c4 3e 4b 9b e1 be
       1.1693314 0.60583913 0.38323167 -0.44063792
000100 0c 5d b8 3f 09 05 c5 3e fe 72 24 3d 46 87 1f 3f
       1.4403396 0.38480404 0.040148728 0.62315786
000110 a7 93 d3 bf 36 07 17 c0 cc ac c1 bf aa f8 7d 3f
       -1.6529435 -2.3598151 -1.5130858 0.99207556
000120 94 9c 2e bd 13 d6 26 3e a7 88 9b bf 85 78 a2 be
       -0.042629793 0.162926 -1.2151078 -0.31732574
000130 65 94 43 be 02 58 5a 3f 9b 02 be bf 63 e6 82 3f
       -0.19099577 0.8529054 -1.4844545 1.0226558
000140 a8 1b 87 3e e7 e3 23 3f 62 21 4d bf e5 3c 98 3d
       0.26388288 0.64019626 -0.80129063 0.0743349
000150 d6 90 fa 3f 5a 28 fa 3e 48 e3 2e 3e 94 32 b3 3e
       1.957545 0.4885891 0.17078888 0.34999526
000160 5c b9 02 3f e6 57 00 bf 05 b1 2d bf 38 da 76 3f
       0.51064086 -0.5013412 -0.67848235 0.96426725
000170 b4 90 5c bf c7 d9 8d 3e bc 87 9d be 45 96 a9 bf
       -0.861583 0.27705213 -0.3076762 -1.3248984
000180 86 20 59 3e 05 6c 0a 3e f2 bb 59 bf 1d 78 30 3f
       0.21203813 0.13517769 -0.85052407 0.6893328
000190 30 c0 98 be 78 a1 7f bf 86 4f 20 be f6 92 1a be
       -0.29834127 -0.99855757 -0.15655336 -0.15095124
0001a0 64 f4 25 3f 1e c1 0c bf a8 a6 a0 3e 09 e8 d4 3f
       0.64826035 -0.54982173 0.3137715 1.6633312
0001b0 07 78 4f be 5b 7b 5b bf 82 6e 35 be cf c6 82 3f
       -0.2026063 -0.857351 -0.17717937 1.0216922
0001c0 4c 90 d0 bf da 53 1f bf b7 0f 48 3d bc c4 9a 3f
       -1.6294036 -0.6223732 0.04884311 1.2091289
0001d0 a0 75 26 3e c4 9c d3 3e 10 d4 a0 3f 2d 61 2e bf
       0.16255808 0.4133054 1.2564716 -0.6811703
0001e0 1a a2 9f be 11 a5 05 40 a5 58 14 3e 2e 47 2f bf
       -0.3117836 2.0881999 0.1448694 -0.68467987
0001f0 da eb 8d bf ae f9 84 bf 74 a9 a7 3e 11 2a 1a 3f
       -1.1087601 -1.0388696 0.3274647 0.6022044
000200 37 67 a1 3f 80 d9 9a 3e 8e 6e 06 bf 53 a4 53 bf
       1.2609624 0.30244064 -0.52512443 -0.82672614
000210 b5 09 84 3f ee ee 97 be 0f f2 39 bf 7f e1 f6 be
       1.0315462 -0.29674476 -0.7263498 -0.48218915
000220 5d 21 b2 bd 8b 73 d6 3e 01 c0 00 bf f8 f2 81 3e
       -0.0869777 0.41885027 -0.50292975 0.25380683
000230 13 04 24 3f 06 e9 17 bf 76 98 a3 be 77 a7 76 3f
       0.64068717 -0.5933994 -0.31952256 0.9634928
000240 e2 e4 80 3f a2 09 c3 be 60 01 7c 3f 69 b3 9a bf
       1.006985 -0.38093287 0.984396 -1.2086002
000250 5f f6 da 3e ab aa 00 3f ce f2 15 3f d5 3b aa bf
       0.4276609 0.5026042 0.58573616 -1.3299509
000260 1e c1 8c bf cc be 2a 3e b9 24 0c 3e 4a 9f da 3e
       -1.0996435 0.16674346 0.13685884 0.42699653
000270 c1 f8 16 3b f5 28 ff 3e fd 56 86 3f 1f 03 55 3d
       0.0023036452 0.49835935 1.0495297 0.05200493
000280 9e 76 19 3f da 1f 1f 3f de 18 10 3f bc 73 26 c0
       0.5994662 0.62157977 0.56287944 -2.6008139
000290 25 f8 06 c0 07 1c b5 3f 28 ad 25 bf a7 b9 4e 3e
       -2.1088955 1.4149178 -0.6471734 0.20188008
0002a0 ca fd 7c be 7a af 00 bf bc 32 7b 3f be db 62 bf
       -0.24706188 -0.50267756 0.9812429 -0.8861655
0002b0 1a e4 0a 3f 59 66 21 bf 6d 66 60 3f 61 a8 84 3f
       0.54254305 -0.63046795 0.8765629 1.0363885
0002c0 66 54 d6 be 79 16 94 bd 89 b6 d1 3b e2 33 e4 bd
       -0.41861266 -0.07230849 0.0063999337 -0.11142708
0002d0 23 2d 76 be a0 17 ac bd bc 6c 80 3f ed ac bc 3e
       -0.24040656 -0.084029436 1.0033183 0.36850682
0002e0 9a 4e 97 bf cb 73 c1 be 80 25 1f bf 77 de 40 bf
       -1.1820862 -0.37783656 -0.62166595 -0.75339454
0002f0 7f f3 a5 3f 70 e9 35 bf ed b2 a3 3f 56 9c 91 3e
       1.2964934 -0.7105932 1.2788979 0.28439587
000300 25 20 40 3f 53 d5 06 c0 7b 7a d4 be a7 ee bb bf
       0.7504905 -2.1067703 -0.41499695 -1.4682206
000310 4b eb 6f be 75 7a ab 3d 6d de 92 be d3 50 07 40
       -0.23429601 0.08372966 -0.28685322 2.114308
000320 5d 47 e1 bf 97 ef fb 3f 50 56 bd be 1a cd d9 3f
       -1.7599903 1.9682492 -0.36979914 1.7015717
000330 d0 c8 a1 be 84 55 7f 3f b8 6a 9c 3f 02 46 44 be
       -0.3159852 0.9973986 1.2220068 -0.19167331
000340 d6 61 82 be 86 2d 98 bf 7a da 62 3f 38 10 78 3f
       -0.25465268 -1.1888893 0.8861462 0.9689975
000350 7d bd 99 bf de 39 13 3e e6 8c c4 bf 05 0f 1c 3f
       -1.2010952 0.14377543 -1.5355499 0.6096042
000360 17 c1 a7 be 3a 5b de be 61 98 3c bf 8f c6 a8 be
       -0.32764503 -0.43428975 -0.7367001 -0.32963988
000370 81 01 3c 3f b2 76 80 3d 0c 6e 9e 3e eb de 07 bf
       0.73439795 0.06272639 0.30943334 -0.5307452
000380 8d 41 5e 3f 71 29 6e bf 9d ad c9 be 55 cd b3 3f
       0.8681877 -0.93031985 -0.3939027 1.4047037
000390 d3 09 a3 bf 0a 08 08 40 db 80 6c 3c 51 06 7a 3e
       -1.2737373 2.1254907 0.014435018 0.24416472
0003a0 f1 83 80 bf f1 83 be bd a0 ec 0f bf 96 f2 aa 3f
       -1.0040265 -0.093025096 -0.56220436 1.3355281
0003b0 fc 86 a7 3e fb 85 59 be a4 6e 66 bf 73 da 8d 3f
       0.32720172 -0.21242516 -0.90012574 1.108229
0003c0 41 6f 0e bf b4 1c 0c bf d9 42 22 3d 11 46 7c 3f
       -0.5563851 -0.547313 0.039614532 0.9854441
0003d0 42 de b3 bf 0e ca 1e bf 57 46 fc bf e0 1d 0c bf
       -1.4052203 -0.6202706 -1.9708966 -0.54733086
0003e0 91 77 b2 3f 48 3d cd 3d 3e 7b 14 3f 1e 33 36 40
       1.3942739 0.10021454 0.5800055 2.84687
0003f0 6a 8b 43 bb c4 d1 52 bf 94 8b 95 be 3e 71 9f bf
       -0.0029837736 -0.82351327 -0.29208052 -1.2456434
