models_parameter/BTFeature_param.pth (torch, 10537 bytes, 2 tensors)

linear.weight f4 [1, 30]
0.2845361 -0.03137869 0.32507148 0.39833564 -0.1470881 -0.5268023 0.25583866 0.3943902
0.4140387 -0.2803335 0.31494325 -0.2690108 0.08163884 0.32704753 0.7531965 -0.41552693
0.4984707 -0.5912115 -0.1583514 0.047766477 0.07331293 0.69174117 -0.12558602 0.029711474
-0.25316146 0.23185107 -0.12725303 0.121215194 -0.27213272 -0.28661054
00000000: b7ae 913e f186 00bd c56f a63e a6f2 cb3e
00000010: 439e 16be 84dc 06bf 49fd 823e 83ed c93e
00000020: e1fc d33e df87 8fbe 3e40 a13e c9bb 89be
00000030: 4432 a73d c672 a73e 7cd1 403f f2bf d4be
00000040: 8d37 ff3e a359 17bf df26 22be c8a6 433d
00000050: 1725 963d f315 313f 9f99 00be 7a65 f33c
00000060: 619e 81be 5e6a 6d3e 9e4e 02be ac3f f83d
00000070: fb54 8bbe 9ebe 92be

embed.weight f4 [171, 12]
2.3898914 -1.435037 0.11991304 -0.3917359 -0.50921243 0.451909 0.010552858 -1.3230387
-0.6626375 -0.44051665 1.041175 0.4845654 0.5952454 -0.64636254 1.1289918 0.01585406
-1.0761052 0.35414675 -0.07325254 -0.7343876 0.51484424 1.2736219 -0.45210978 -0.69801354
1.3632029 0.7450902 0.34045017 -1.2941628 -0.51096773 -0.9480398 -1.3388206 -0.47560745
1.3724123 0.6364973 -0.7883454 -0.3542464 0.01633451 1.013899 -0.41362634 -0.52993155
0.5990689 -1.0616275 -1.1822318 1.476813 0.96891147 0.64800084 -1.0110378 0.17199133
-0.6015439 -0.03375663 -0.7132944 -0.09845184 0.03321177 -1.0186143 0.3581913 -0.29747248
0.8404888 0.42536032 0.1954779 1.7066041 0.864324 0.8671227 0.28150913 0.035503354
-1.1582493 -0.06247232 0.79593515 -1.1755378 -0.6055413 -1.0054958 0.20799665 0.07905196
1.0562644 -0.44789657 -1.7611483 -1.636721 1.2679896 1.4391233 0.388911 -0.26379988
-0.41958475 -0.34508422 0.013182624 0.83568645 -0.3366096 -0.15643734 -0.29722852 1.1043495
-0.64880055 -1.3709669 0.027143443 0.31391236 -0.8995413 1.398495 -0.7492475 0.47680727
-0.8463356 0.6158019 3.147905 -0.2298921 -1.9727931 -0.44120595 -0.5188007 -0.7652139
-1.5673931 1.3923665 1.5412564 -0.7615838 0.024412332 1.0000267 -1.7071551 -0.15057255
0.22122794 1.0144061 0.116615124 -0.75113916 0.8627876 -0.17929514 -1.5652453 0.21728127
-0.101508774 0.24615452 0.9562915 -1.2514158 -0.23978646 1.4989717 1.3862263 0.30270842
0.5604779 -0.9978343 -0.5474308 -1.8758528 -0.6619722 -1.5762188 -0.019123925 -0.08661062
-0.97486144 1.2117902 0.2574889 0.6486168 -0.71244705 -0.14546064 -0.43696076 1.2407893
-1.3473614 -0.11732802 -0.5159865 2.0589736 0.40540734 1.2628056 -0.17186598 -1.20485
-0.13758531 -1.3432814 1.0632485 -0.2605626 1.2988539 0.49810445 -0.01673992 -0.7297574
-0.75572336 -2.7815714 1.5417958 0.18729569 -0.8554825 1.3297218 0.37938577 -1.4457139
0.7488089 -1.152236 0.2013128 -0.26163954 0.11193241 2.2962742 -0.6114376 -0.9457113
-0.15017581 -1.447886 -0.4965913 1.1349819 -0.64506483 1.4523867 0.18326534 2.4659607
1.1255504 -1.5430856 0.09956804 -1.2175086 -1.1143951 -2.014831 0.67399365 0.29524422
-0.22114156 -0.43729016 1.3733548 0.14497511 -1.6957817 0.7044384 -0.23660171 -0.38512293
-0.24364132 0.32090536 0.3317186 1.142604 0.6362938 -0.38517624 -0.3942431 -1.5378934
1.0884466 0.35506028 -0.21875049 0.48806536 0.53001934 -2.7555728 0.15408798 1.6440725
-1.0675715 0.13885848 -0.5335639 1.8460217 0.85903335 0.19707133 -0.94726884 -0.3157771
0.25711763 -0.22097059 0.48289847 0.24709164 0.36187798 0.81319946 -1.1822264 0.6642497
-1.5486246 0.09665666 -1.2208092 -0.55799997 1.4163723 0.57030946 0.2573246 0.7116252
0.6925315 -0.7251226 -0.16137306 -1.0786563 0.55841947 -0.4499328 1.4023207 0.8192856
0.11604729 -0.94921684 0.115438424 -1.3189263 -0.5226718 1.9134121 0.9553632 -1.109627
00000000: fbf3 1840 4baf b7bf f894 f53d 9c91 c8be
00000010: bf5b 02bf 9e60 e73e e5e5 2c3c 5559 a9bf
00000020: 9ca2 29bf 668b e1be 3945 853f f518 f83e
00000030: 0162 183f 0478 25bf ce82 903f 60e0 813c
00000040: d1bd 89bf b952 b53e 6d05 96bd d300 3cbf
00000050: d5cc 033f 0b06 a33f ef7a e7be 04b1 32bf
00000060: 6f7d ae3f 3bbe 3e3f 7c4f ae3e 20a7 a5bf
00000070: c8ce 02bf bdb2 72bf 795e abbf d282 f3be
00000080: 35ab af3f 7df1 223f 01d1 49bf c95f b5be
00000090: f3cf 853c 71c7 813f d5c6 d3be 98a9 07bf
000000a0: 945c 193f 69e3 87bf 5f53 97bf 3508 bd3f
000000b0: 950a 783f 62e3 253f b069 81bf 7f1e 303e
000000c0: c8fe 19bf 6444 0abd 769a 36bf 1ea1 c9bd
000000d0: 1109 083d f461 82bf da64 b73e 504e 98be
000000e0: 462a 573f d4c8 d93e 5c2b 483e 0172 da3f
000000f0: 5644 5d3f c1fb 5d3f f721 903e f76b 113d
00000100: 8341 94bf fae2 7fbd 68c2 4b3f 0678 96bf
00000110: c104 1bbf 16b4 80bf 13fd 543e fee5 a13d
00000120: ac33 873f b352 e5be 4f6d e1bf 1380 d1bf
00000130: 7c4d a23f 3135 b83f 581f c73e c710 87be
00000140: d0d3 d6be e1ae b0be effb 573c 8cef 553f
00000150: 1858 acbe 1c31 20be 562e 98be 535b 8d3f
00000160: cb17 26bf d87b afbf ed5b de3c 1fb9 a03e
00000170: 5748 66bf e201 b33f afce 3fbf 1520 f43e
00000180: 73a9 58bf 31a5 1d3f 4777 4940 d668 6bbe
00000190: 7c84 fcbf bfe5 e1be 1fd0 04bf 0fe5 43bf
000001a0: 56a0 c8bf 1139 b23f e447 c53f 28f7 42bf
000001b0: 5ffc c73c e000 803f 0f84 dabf b12f 1abe
000001c0: 9489 623e 0fd8 813f e9d3 ee3d a84a 40bf
000001d0: a6df 5c3f 2599 37be f559 c8bf fb7e 5e3e
000001e0: d5e3 cfbd ee0f 7c3e 85cf 743f 652e a0bf
000001f0: 958a 75be 4ede bf3f dd6f b13f 99fc 9a3e
00000200: 7b7b 0f3f 1272 7fbf 6d24 0cbf f21b f0bf
00000210: 0377 29bf 8ac1 c9bf c7a9 9cbc e960 b1bd
00000220: 8590 79bf f11b 9b3f 96d5 833e c00b 263f
00000230: ee62 36bf a2f3 14be 52b9 dfbe 2fd2 9e3f
00000240: 5776 acbf ac49 f0bd b117 04bf 39c6 0340
00000250: 8d91 cf3e 9da3 a13f a3fd 2fbe 8638 9abf
00000260: 2ae3 0cbe a5f0 abbf 8718 883f 7668 85be
00000270: d840 a63f 8c07 ff3e 2822 89bc 62d1 3abf
00000280: 1677 41bf 4405 32c0 9159 c53f 71ca 3f3e
00000290: e700 5bbf 5334 aa3f da3e c23e 270d b9bf
000002a0: f1b1 3f3f 787c 93bf f124 4e3e 9ef5 85be
000002b0: d23c e53d 28f6 1240 2d87 1cbf 231a 72bf
000002c0: b0c7 19be 5454 b9bf 3741 febe 1647 913f
000002d0: f822 25bf cfe7 b93f e9a9 3b3e 4dd2 1d40
000002e0: 0912 903f d483 c5bf 54ea cb3d 52d7 9bbf
000002f0: 80a4 8ebf fef2 00c0 d98a 2c3f 402a 973e
00000300: ef72 62be 7fe4 dfbe 17ca af3f 5b74 143e
00000310: 600f d9bf 1356 343f b847 72be d52e c5be
00000320: 1c7d 79be b54d a43e 05d7 a93e d940 923f
00000330: 27e4 223f d235 c5be 3bda c9be b1d9 c4bf
00000340: 3852 8b3f 76ca b53e 2100 60be b4e3 f93e
00000350: 59af 073f 4e5b 30c0 3dc9 1d3e f870 d23f
00000360: 2fa6 88bf eb30 0e3e a597 08bf 704a ec3f
00000370: 9ce9 5b3f 11cd 493e 3680 72bf 89ad a1be
00000380: eca4 833e 1d46 62be 783e f73e 9705 7d3e
00000390: 1248 b93e d72d 503f 3253 97bf 450c 2a3f
000003a0: 5539 c6bf edf3 c53d 7a43 9cbf 16d9 0ebf
000003b0: b04b b53f cdff 113f 0dc0 833e 122d 363f
000003c0: bf49 313f a2a1 39bf fb3e 25be 6911 8abf
000003d0: 94f4 0e3f 985d e6be 3f7f b33f b3bc 513f
000003e0: 34aa ed3d e0ff 72bf fb6a ec3d 94d2 a8bf
000003f0: d2cd 05bf b0ea f43f af92 743f 4208 8ebf
