data/models_parameter/BTFeature_param.pth (torch, 112385 bytes, 7 tensors)

feat_mlp.0.weight f4 [128, 60]
00000000: c535 93bc be62 f6bc 3914 6bbe 72f9 45bd
00000010: 84fe 2dbe 11fd 143d ee82 263d 3d84 bebc
00000020: a111 a3bd d3ed abbc d712 933c e0d8 c13d
00000030: a526 3e3e a91f 473e 3e9e 9f3e 1913 3a3e
00000040: 796f 203d 5666 57be d251 f63d 54a1 ac3d
00000050: bf5f 85be e2df 11bd 228e d8bc af91 f4bd
00000060: aafe a03c 9291 0cbe f8d4 02be 83bc 763e
00000070: bf1f 60be 435d d63d bd51 5c3e a4ef 643e
00000080: 41c6 6e3e c24f 1b3e db3a a93d a0db 46bd
00000090: 3d85 d83e 15aa 36be b410 e0bd b2c1 3f3e
000000a0: 93c8 52bd 8cbb b53c cf17 083e 6ace 27bc
000000b0: 2694 563c 3b1e 54be 2f4d cfbc b7ff f73d
000000c0: 5895 183d fc93 d03d 33fa edbd 2716 7e3e
000000d0: 6f53 3f3d 3d74 5abe 9e25 993d 97bd 18bd
000000e0: 7f13 3fbd 1269 073e d7e3 97be f179 1b3e
000000f0: 281f 8abd 3440 adbd 445b 90bd 993b 13be
00000100: 5130 573e e9c9 293e 5a84 42bd c1f5 683c
00000110: 6e8b 92bd a9be 593e 22de a83c eb65 ccbe
00000120: 0f41 cdbd c7f5 4bbe af21 6b3d 7ab9 7d3e
00000130: 9dc5 f03c ff65 5cbd e05a 20bd d424 1f3c
00000140: a58e 7ebd 27b1 a2bd c65c 82be 0e23 233c
00000150: aa93 45be c117 0a3e efc9 17be a17b 0c3e
00000160: 0d59 05be ac7e b9bd 105c 9c3d 7a4c 24be
00000170: 8ceb d33e b3e2 77bd 9a36 3c3e 133a 51be
00000180: b16d 83bd b9c2 eabe 0070 e9bd d733 ff3b
00000190: 23db 82be e03a 2a3d 5fdd 94bc bc74 09be
000001a0: 7979 36bd 4d5c 353e 6d28 71be f2d5 aebe
000001b0: e40c 743d f060 37bc 7795 7ebe 95cb f6bd
000001c0: b4b9 b1be b2da c4be 25c6 3abe c8ce 17bd
000001d0: 1793 33be 6ec3 d8bd 063f 2f3d a0f3 9e3d
000001e0: 8b99 843c b887 59be dcf7 43be 6b15 73bc
000001f0: 07d3 65bd 8073 aa3d 8258 16be 82dc a0bd
00000200: 1c1f d63d a915 49be e922 563e a806 5d3d
00000210: 284b d7bd 9480 413d c9c4 f63d 0c8f 223c
00000220: 0f39 ecbd 48ab d2bc 6c81 d53d 2c00 773a
00000230: 6c8d cd3c e86e e9bd 7058 3bbd bc5e 973a
00000240: adcf 9dbd 450f 893e 8e27 353e a4fe 29be
00000250: a6c3 833d 328e efbb 9ef8 3bbe a1e6 243e
00000260: 77c8 2f3e d2c3 ecbd ddfb 77bc 51c2 00bd
00000270: 0ecd 263e e229 bd3d ac2a 873e dddc 9f3e
00000280: c72b 8d3e 9208 25bd ef60 023e 72a5 08be
00000290: a0ea 123e 9992 e5bd 5893 fabd 3af4 9bbd
000002a0: 6ce7 9b3c 7ae3 a2bd a47e 57bd 1c55 fa3d
000002b0: d329 73bc d109 43be b9bc a53d 3242 55bd
000002c0: db4a 6fbe cfd4 13bd 70c6 23bc d6d6 573d
000002d0: 4a82 b13d f5ca 04be 95f0 f83d e437 9e3e
000002e0: 669f a43d 6508 243c 4ed3 82bd b482 a4be
000002f0: bcd4 0b3e 3d11 313e 25ae 1fbe d12a f1bd
00000300: b668 fcbc bf59 463e c461 0cbe a173 99be
00000310: 304b 503d 9c91 07bc 9cc9 94bc f094 c6b9
00000320: dc49 143d 2e3a 14be d459 ecbc dcaf 34be
00000330: f6f1 ba3d ab1b 9c3d b7aa a2bd 3558 da3d
00000340: d638 0fbd 918b 873e 45bc 05be 90fa 673d
00000350: 0e80 d3bd e2bf 82be cbf0 b43d e907 00bd
00000360: 07cc debd 207b 2d3e be9c 19bd 43ac a7be
00000370: c653 5fbc 3798 39be 319c c7bd 59a5 fd3d
00000380: 4313 d53d 7f33 dc3c da6c abbe 72e9 1abe
00000390: 8aa8 823d 7c51 973c c803 12be 9e6a 9ebd
000003a0: dd5a 9bbd 2465 cabc f572 c6bd d2b5 043e
000003b0: 3fd0 6e3c cda1 3b3e 0a95 8dbe 0512 c5bd
000003c0: 4cfd 85ba 2c90 703e 9c2c aabc 7ff1 923e
000003d0: 0800 28be a8df a83e 7d25 823c 2bdf 203e
000003e0: 23a3 f8bd da83 a53d 5389 0f3c f3e4 4b3e
000003f0: 9482 a5bd d9ae 8c3e 05f5 b9bd 11b2 c83d
-0.017969975 -0.03007638 -0.22956933 -0.048333593 -0.16991621 0.036374155 0.040652208 -0.023256416
-0.07962347 -0.020987427 0.01795332 0.09465194 0.18569429 0.19445671 0.31175417 0.18171348
0.03916881 -0.21035132 0.12027325 0.084292084 -0.2604961 -0.035613902 -0.026434962 -0.119418494
0.019652683 -0.13727406 -0.12776554 0.24095349 -0.2188711 0.10467007 0.21515556 0.2235704
0.23317815 0.15167144 0.08263179 -0.048549294 0.42289153 -0.17838319 -0.10940686 0.18726233
-0.051460814 0.022184156 0.13290332 -0.010242084 0.013096845 -0.20714657 -0.025305359 0.121093206
0.0372518 0.10184476 -0.11619987 0.24813138 0.046710428 -0.21333404 0.07477878 -0.037290182
-0.046649452 0.13223675 -0.29666016 0.15183236 -0.06744224 -0.084595114 -0.070486575 -0.14378203
0.21014525 0.16580929 -0.0474895 0.014218749 -0.071555 0.21264137 0.020613734 -0.39921507
-0.100221746 -0.19917975 0.05740517 0.24777785 0.029391104 -0.05380821 -0.039149165 0.00971337
-0.062147755 -0.079439454 -0.25461406 0.009957088 -0.1929461 0.13485624 -0.14823125 0.13719036
-0.13022251 -0.09057364 0.07634747 -0.16044798 0.41390646 -0.06051893 0.18380204 -0.2043231
-0.06417406 -0.45851687 -0.113983154 0.007788162 -0.25557813 0.041560054 -0.018171964 -0.13423437
-0.04454944 0.17710991 -0.23550577 -0.34147602 0.059582606 -0.011192545 -0.24861704 -0.12050549
-0.34711993 -0.384481 -0.18239649 -0.037062436 -0.17536579 -0.1058415 0.042784713 0.077613115
0.016186496 -0.21243179 -0.1913752 -0.014836649 -0.056109454 0.08322811 -0.146822 -0.078545585
0.104551524 -0.19637169 0.20911755 0.053961426 -0.10512382 0.047241762 0.120492525 0.0099218
-0.115343206 -0.025716439 0.10425076 0.0009422328 0.02509185 -0.11398107 -0.045738637 0.0011548619
-0.07705627 0.26769462 0.1769087 -0.16601044 0.06433801 -0.007310652 -0.18356559 0.16103603
0.17166315 -0.11560787 -0.0151357325 -0.031435315 0.1628916 0.09236504 0.26399744 0.31223193
0.27572462 -0.040291376 0.1273229 -0.13344362 0.14347315 -0.11209602 -0.12235135 -0.07614942
0.019031249 -0.07953544 -0.05261101 0.122232646 -0.014841515 -0.19046713 0.080926366 -0.052065082
-0.23368399 -0.036091622 -0.009996042 0.052695118 0.08667429 -0.12968047 0.121552624 0.30902016
0.08038215 0.010011767 -0.063879594 -0.3213097 0.1365537 0.17291732 -0.15593775 -0.11775745
-0.030811649 0.19370173 -0.1370917 -0.2997103 0.050852954 -0.008274462 -0.018162541 -0.0003787647
0.03620325 -0.14475319 -0.028851427 -0.1764521 0.09128182 0.07622465 -0.079427175 0.106613554
-0.034966312 0.26473668 -0.130601 0.05663544 -0.10327159 -0.2553702 0.0883499 -0.031257544
-0.10878759 0.169415 -0.037502997 -0.32748613 -0.013630813 -0.18124472 -0.09746588 0.12385053
0.104040645 0.026880024 -0.33481485 -0.15128115 0.063798025 0.018471472 -0.14259255 -0.07735179
-0.0758569 -0.02470643 -0.09689895 0.12959984 0.014576017 0.18323441 -0.2765277 -0.096225776
-0.0010222583 0.23492497 -0.020773225 0.28699872 -0.16406262 0.32983136 0.015887016 0.15710132
-0.12140491 0.08081789 0.008760768 0.19911556 -0.080815464 0.27477148 -0.09079937 0.097995885

feat_mlp.0.bias f4 [128]
00000000: 3c1d ca3c 7e7c 533d 2b00 9cbd 4946 82bd
00000010: dab8 c1bd 3d4e a5bd f7d8 b23d ad96 7f3d
00000020: bb55 40be 1ce0 193d 8ff3 8e3c 6e0a 8cbd
00000030: 433c b8bd f535 35bb 1d18 57be b2c3 1fbe
00000040: fc78 553d b03a 8fbd 0d23 7e3c d381 8ebd
00000050: 1ccd 09be 7e06 12be 34e0 0fbd 7aec 18be
00000060: e250 12be 8be9 4cbd 1037 04be ddbf afbd
00000070: e2c5 06be 9765 9f3d fe2d bfbd 733e adbe
00000080: 42bf ae3d 2247 b63d 707d cabc e191 5dbe
00000090: 0463 b83c c61a 50be e15b 623e 7c76 923d
000000a0: 48d9 4cbd 0cad 49bd f3b0 85bd fa16 16bd
000000b0: ffa8 4e3d 95ea 95bd f578 c83c 81d1 ebbd
000000c0: 3bf0 8fbc 81d1 c83d de18 083c d175 b8be
000000d0: 12c4 28be cdeb 95bd 1425 4f3d c8d3 77be
000000e0: 2c8e 29be 17ee d33d 927d 65be 00cc aa3d
000000f0: 42e3 81be 1d6b 1a3e f847 43be fe38 10be
00000100: ba0e dbbd 23e4 813d 34d8 893d 8e64 e93d
00000110: 6ad4 00bd 5bbf 07be 12f8 62be 4b9c 403e
00000120: bf63 71bd 19e3 1e3e 497a d1bc 0ef2 8f3d
00000130: 40c5 c03c d1e7 2bbe 6ca2 c03d 8f42 4dbe
00000140: 97c2 5abe eaff 10bd 8f73 f43c 80a6 f63d
00000150: d9fa e83d 3339 093e b226 163d 7da7 74bd
00000160: 2c84 85bc 359c f13c 6d58 41bd 0de3 273e
00000170: 9771 b5bd e8be 7abe 0abc 3abe ed90 603e
00000180: 50b6 15be d78e 14be ea41 703d 60de 8d3b
00000190: 4d77 033e a10d 7abd 5c41 94bd e9a9 e7bd
000001a0: f1f0 af3d 9e20 60be 6b51 b83d 1c50 443d
000001b0: 2111 6b3d 3d2a 5a3d 1a2d d5bd 22c5 e63d
000001c0: 37e2 4a3c f677 f2bd 9214 dcbd 5a53 13be
000001d0: d80d 3cbd be9b b8bc 6ad9 53be bd1d 343d
000001e0: a688 05be 9624 10be 06af 1b3d c9b9 81ba
000001f0: b84e 19be b008 3d3b 8919 59be 6c83 d4bc
0.024672143 0.051632397 -0.076172195 -0.06361062 -0.09459086 -0.080715634 0.08732789 0.062399555
-0.18782704 0.037567243 0.017450122 -0.06837927 -0.08995869 -0.002765057 -0.21005292 -0.15601996
0.052117333 -0.069936156 0.015511286 -0.06958356 -0.1345715 -0.14260289 -0.035125926 -0.14933959
-0.14288667 -0.05002741 -0.1291163 -0.08581517 -0.13161424 0.077830486 -0.09334944 -0.33836707
0.08532573 0.08900286 -0.024718016 -0.2163768 0.022508152 -0.20322713 0.22105362 0.07151505
-0.050011903 -0.049237296 -0.06527891 -0.036643006 0.050454136 -0.073201336 0.02447174 -0.11514569
-0.017570606 0.09805585 0.00830671 -0.36027387 -0.16481045 -0.07320366 0.05057247 -0.24201882
-0.1655814 0.103481464 -0.22411183 0.08339691 -0.25368696 0.15079923 -0.19070423 -0.14084241
-0.10696168 0.06342342 0.067306906 0.113961324 -0.031452574 -0.1325659 -0.22164944 0.18809621
-0.058933016 0.15516318 -0.025571005 0.0702859 0.023531556 -0.1678765 0.094059795 -0.20044921
-0.21363293 -0.03540031 0.029840259 0.12043476 0.113759704 0.13400726 0.036657996 -0.05973004
-0.016298376 0.02949343 -0.04720347 0.16395207 -0.08859556 -0.24486887 -0.18235794 0.21930285
-0.14620328 -0.14507614 0.05865661 0.0043294877 0.12838478 -0.061048154 -0.07239029 -0.11311705
0.08590878 -0.21887442 0.08999904 0.04792796 0.057389382 0.053262938 -0.10408993 0.11268069
0.012383035 -0.11839287 -0.10746111 -0.14387265 -0.04591164 -0.022535201 -0.20688406 0.043973673
-0.13040408 -0.14076456 0.038008712 -0.0009897287 -0.14971435 0.002884429 -0.21201147 -0.025941573

feat_mlp.2.weight f4 [64, 128]
00000000: 8bf8 863d d43f fbbd e710 67bd 6e02 b4bd
00000010: 61aa 5f3e 1f40 c9bd a960 cd3c 5eab a2bd
00000020: 7514 0cbe 72e1 d8bc d17f b03d 28e3 d2bd
00000030: c8f0 f23d ca26 0bbe 517b a1bd b4d8 d53d
00000040: 19f7 6d3d 5e5e 673d bfb0 be3d ebc7 cf3d
00000050: 8a77 9ebd cf4e 1d3e 0b46 6bbb c949 40bd
00000060: 42f4 f03c a279 6bbb bb3d 423e bc26 30be
00000070: 1073 40bb 1ec0 d53d 50c9 5bbd 698a 153c
00000080: f266 a1be c5a2 973d a466 273d 2e73 b83d
00000090: 4ffb 7b3d 4d7b 9ebd 7e93 7f3c 2759 11be
000000a0: 62ff 7ebe 50fa 23bd a285 10bd 61a4 d6bd
000000b0: f5ca debc a24d d63c e4d6 f93d 3de0 d23a
000000c0: 39ff 88bd 53b8 debc c3b8 9cbe fc65 f53d
000000d0: 2759 a53c 0bc7 94be eb52 8ebc dd72 143e
000000e0: 26ec 06be 9006 033e cf4e ce3d 5317 fb3c
000000f0: ddc7 17bd 3a6c b3bd 6d63 edbd 5d20 833d
00000100: be49 333d f199 59be dbf2 0d3d 8f0f 113e
00000110: 0f68 093d 5ace 3c3d 6feb e03c 5e13 98be
00000120: 2d9a 9abd bfa6 9abd 08c2 62bd 2790 dc3c
00000130: 7170 363d 4e2a 71bd e6be 96be e4cf 22bd
00000140: cfbf a7bd f504 98bd f42e e6bc 665b 55bd
00000150: d010 adbd 97a4 273e 5e34 a03d 7cce 7f3d
00000160: 4acf 9cbd 1f13 463d f838 90bd 8ed1 df3d
00000170: 67b0 5ebe 1ebe cc3d 41af b8bc 33ea d33d
00000180: bdaa 963c 8c3d 7abe 45c3 aa3d ff93 c9bc
00000190: 1a05 893d 40a4 0b3e 427c bbbd 3aa7 76bd
000001a0: 4bfe 08bd cc1f 573e e64a 64be f20c 0d3e
000001b0: 8b8e ba3d 0f39 063e 3574 b8bd 1731 2fbe
000001c0: c24f 3a3e b876 f4bd 0dbc febd 1bd8 bdbb
000001d0: 3183 253d 8cf0 23bb fd2e 2a3e 0dcc f63d
000001e0: 7903 e3bd f995 723d 0da9 393c a026 87bc
000001f0: 5e61 8e3d 4060 003d bdf6 8ebe cc85 89bd
00000200: a6f6 2cbd c45e 92bd 3798 f83c 4a80 afbd
00000210: dfca d73c 9905 64bd 4a6c 01bd fa53 4fbc
00000220: fa62 2dbe 0245 0abe 2894 103e 43bb d8bd
00000230: 99b8 bc3d bff5 79bd 82ed 6e3c 217d 17bd
00000240: 151d bb3c 63b4 293d a038 27be c783 3d3e
00000250: f00d d43d 718c 453d 086e 70bd 9708 c5bb
00000260: bb4f 2dbd 9083 cebd 7728 473e 14c5 0d3d
00000270: ca46 023d e3b9 323d b41b 0d3b f6ed 193e
00000280: a5cf fe3c 2087 54be 099b a0bd 9512 b1bc
00000290: 08fb 893c 0ff0 02bd 6888 133e fcc5 80bd
000002a0: 3667 19bd 08c7 e2bd 0bd5 7c3d 89a7 7abd
000002b0: d034 7b3d 020a 5d3c 5565 8bbc b3af c83d
000002c0: 5172 c7bd 9967 72bd 0f99 c83d b994 703d
000002d0: 5f00 143c 0bef 06bb 58a8 d5bc 6421 ad3d
000002e0: 3c69 2bbe 4ad3 c9bc d925 afbd 027f d13d
000002f0: 2ddc 9a3c d63b e4bb 99e5 093d 5fd4 f23d
00000300: 4a0d 173d a46d 613d df40 eb3d 7c37 b03d
00000310: 89d4 26bd 55ca 1ebe 0a7a 67ba b944 91bd
00000320: 95b3 3cbd 3d2b d0bd f2d0 9a3d 0d6b b7bd
00000330: 642e 96bd 562d b03d a0e1 f73d 1168 403d
00000340: 1f9a a5bb 9ede 0f3d eb50 db3c e6cd e6bb
00000350: 183d 043e f7c9 d5bd bed4 a63d 65cf 24be
00000360: 0cfe 143d 6132 af3d 64a7 c4bd ad83 50bd
00000370: a1a3 043e ac3e 493d 2610 92bd 8592 eabb
00000380: fd6e d13c 380b 31be 135c a43d 75cf bb3d
00000390: 05ae fc3c 6336 1b3e f5ce 983d 66a1 15bb
000003a0: d53c 3cbc e8b0 1cbe 57f4 ac3d 20b1 05bc
000003b0: 5474 53bb 4651 b0bc acc1 53be 2c5c a23d
000003c0: 1a3f 2ebd 41aa 0fbd 1c34 323c 1910 bbbc
000003d0: ab53 8abe 6e9f 00be 5ed4 84ba 487a 2fbd
000003e0: b02a 79bd cb82 58bd 2494 34bd b479 64bd
000003f0: 13cd 17be 717a 22bd 1d36 a33d a299 dc3c
0.065903746 -0.122680336 -0.056412604 -0.08789526 0.21842338 -0.09826683 0.025070505 -0.07942842
-0.13679679 -0.026474688 0.08618129 -0.10297233 0.11862332 -0.13589016 -0.07884849 0.104417235
0.05809698 0.05648648 0.093110554 0.10145553 -0.07737644 0.15362094 -0.0035899903 -0.046945367
0.029413346 -0.0035930653 0.18968861 -0.17202276 -0.0029365458 0.10437034 -0.053658783 0.009127238
-0.31523854 0.07404093 0.04086937 0.09006344 0.061518963 -0.077383615 0.01559913 -0.14194165
-0.24902108 -0.04003364 -0.035283692 -0.104805715 -0.027196387 0.026160065 0.1219919 0.0016088557
-0.06689305 -0.027187502 -0.30609712 0.119823426 0.020184113 -0.29058108 -0.017373523 0.14496942
-0.13176021 0.12795472 0.10073625 0.03065077 -0.03705584 -0.08760877 -0.115912296 0.06402657
0.043771498 -0.2125013 0.034655433 0.14166091 0.033546504 0.04609523 0.027456013 -0.29702276
-0.07548938 -0.075513355 -0.055360824 0.026924206 0.044540826 -0.058878236 -0.2944252 -0.03974904
-0.081908815 -0.074228205 -0.02809856 -0.052089117 -0.08450472 0.1637138 0.07822488 0.06245278
-0.07656725 0.04835808 -0.07042116 0.10928641 -0.2174698 0.099971995 -0.022544505 0.10347404
0.018391961 -0.24437541 0.08338026 -0.024606703 0.06690426 0.13636875 -0.0915456 -0.060218073
-0.033445638 0.21008223 -0.22294196 0.1377447 0.09109219 0.13107704 -0.0900654 -0.1710857
0.18194488 -0.11936706 -0.124382116 -0.005793584 0.040408317 -0.0025015203 0.16619487 0.12050638
-0.11084647 0.059225056 0.011331809 -0.01649791 0.06952165 0.03134179 -0.2792262 -0.06714973
-0.04222741 -0.07146981 0.03034602 -0.08569391 0.026341854 -0.0556694 -0.031597413 -0.012654299
-0.16932288 -0.13502887 0.14119017 -0.10582592 0.09214897 -0.061025377 0.014582993 -0.036984567
0.022841016 0.041431796 -0.16330194 0.185073 0.10354221 0.04822964 -0.058698684 -0.006012987
-0.042312365 -0.10083687 0.1944903 0.034611776 0.03180579 0.043634307 0.0021531405 0.15032181
0.031104872 -0.20754671 -0.078420706 -0.021615306 0.016843334 -0.03196722 0.14407504 -0.062877625
-0.037451945 -0.110731184 0.06172661 -0.06119493 0.061329663 0.013491156 -0.017016092 0.09799137
-0.09738601 -0.05918083 0.097948186 0.058735583 0.009033292 -0.0020589258 -0.02608125 0.084536344
-0.16739362 -0.024636883 -0.08552141 0.10229303 0.018903816 -0.006965141 0.033666227 0.11856913
0.036877908 0.055036202 0.114869826 0.08604333 -0.040730033 -0.15506871 -0.0008830136 -0.07093186
-0.0460697 -0.10164497 0.075593844 -0.08955965 -0.07333067 0.08602397 0.121035814 0.046974245
-0.005053773 0.035124414 0.026771983 -0.007043588 0.1291393 -0.10438912 0.08146046 -0.1609474
0.03637509 0.08554531 -0.0960224 -0.050906826 0.12953044 0.049132034 -0.07131986 -0.00715858
0.025565619 -0.17289436 0.08025374 0.09170429 0.030844698 0.15157466 0.07461349 -0.0022831797
-0.011489113 -0.1530186 0.084450416 -0.008159906 -0.0032265382 -0.02152313 -0.20679349 0.07927737
-0.042540647 -0.035074476 0.010876682 -0.022834824 -0.2701696 -0.12560818 -0.0010134091 -0.042841226
-0.060831726 -0.05285911 -0.04408659 -0.055780128 -0.14824323 -0.03966755 0.07969306 0.026928727

feat_mlp.2.bias f4 [64]
00000000: 9f5f 62bd 75d4 e93d 3dc6 d43c 7102 44bd
00000010: 4efe e2bb 2671 a53d 7eb2 a8bb e94a ccbd
00000020: 8159 a63b 42cf 7d3d 454e a23d 7411 da3d
00000030: eec0 e839 706c b0bd 2851 6abd 9061 e53c
00000040: 9769 c93d 036f 733d 6dfa a7bd 3e93 0bbd
00000050: 2ef7 cc3c db55 06bd 0a8b a5bb 064f 7a3d
00000060: cac7 4f3d cbd6 393d 58cd 66bb 2217 6f3d
00000070: 199a 2e3d dd58 bbbd 28c6 b43d 31c1 8d3c
00000080: bb4f 3abd e6d0 c03c 5b9e 1439 2cf8 a43d
00000090: 8a83 af3d cb6c 1a3d 668f 843c 6944 66bc
000000a0: acb2 8a3d 48c3 e1bd b9ef 823d f4e3 65bc
000000b0: 123f e23d bc50 c03d 4b13 803c b83d f03d
000000c0: 8557 bd3d 2d7c bf3d 484a a03d b253 853c
000000d0: 29f7 b03c f97c 1c3d fff3 db3d 58e5 10bd
000000e0: 1f4b e6bd ff01 6a3d 5138 6abd e8b3 8dbc
000000f0: b4ce 503d de58 463d 1107 a7bd 5001 50bc
-0.055266973 0.11417476 0.025973434 -0.04785389 -0.006927288 0.08078222 -0.005148231 -0.099752255
0.0050765877 0.061965235 0.07925085 0.1064786 0.00044394232 -0.08614433 -0.057206303 0.028000623
0.09834593 0.05943204 -0.08202062 -0.034075968 0.025020208 -0.032796722 -0.005051975 0.06111052
0.050727643 0.04537086 -0.003521761 0.05837167 0.042627428 -0.09147809 0.08826858 0.017304035
-0.045486193 0.02353711 0.00014173372 0.080551475 0.08570011 0.03770141 0.016181659 -0.014054396
0.0677236 -0.11023575 0.0639338 -0.014031399 0.11047186 0.09390399 0.0156342 0.11730522
0.09245209 0.093498565 0.07826668 0.01627526 0.02160223 0.03820512 0.10739898 -0.03537497
-0.11244797 0.05713081 -0.057182614 -0.0172977 0.050978377 0.048424594 -0.08155645 -0.012695625

feat_mlp.4.weight f4 [1, 64]
00000000: 634f 23bf fff7 8c3e 42fc 963e c6cd bbbe
00000010: 5f22 07bf 8f5e a73e 3ce4 aabe 9768 9cbe
00000020: e6d5 fc3e 935c c4be 9759 51be ac42 98be
00000030: a065 3abe 6ee2 75be d16f 16bf 26e5 30be
00000040: e0d2 583d 7a1e 403f 4dfa c9be 46c1 f3be
00000050: bb25 41bf 44e0 943e b395 b0be 5096 dcbe
00000060: 02f5 a23e b17d fd3e 980f 0a3f c0f4 b0be
00000070: 2a0b 9cbe edbd 9cbe a6ae 96be 7ffd 133e
00000080: 94c0 853d c4fc d23d bea9 0bbf 1258 94be
00000090: 816e 08be a0dc b13e 6a5b 61be 4f87 f93e
000000a0: 31d8 84be c7b3 86be d71d a8be 8ed9 9fbe
000000b0: c4d4 583e 13ce d4be ce4d 12bf a179 453e
000000c0: 898a 1ebf c023 773e c698 bb3e 4c8f d4be
000000d0: dcc3 2dbf b5f1 24be ac21 d0be ddc6 50be
000000e0: c177 223f 739a cf3e a0c9 79be 7e9d 763d
000000f0: 94f5 32bf 1fc4 b5be e090 1fbf d0fa f1be
-0.6379301 0.27532956 0.29489332 -0.3668043 -0.5278682 0.3268933 -0.33377254 -0.30548546
0.49381942 -0.3835188 -0.20444332 -0.29738367 -0.1820283 -0.24012157 -0.5876437 -0.17274913
0.05293548 0.75046504 -0.39448777 -0.47608393 -0.754482 0.2907735 -0.3448921 -0.4308343
0.3182755 0.49509957 0.53930044 -0.3456173 -0.30477268 -0.30613652 -0.2943012 0.1445217
0.06530872 0.103021175 -0.5455588 -0.28973442 -0.13323404 0.34738636 -0.22007528 0.48736045
-0.2594619 -0.26309034 -0.32835266 -0.3122067 0.21174914 -0.41563472 -0.5714997 0.19284679
-0.6193014 0.24134731 0.36639994 -0.41515577 -0.6787698 -0.16107829 -0.4065069 -0.2038836
0.6346398 0.40547523 -0.2439332 0.06020879 -0.6990597 -0.3550119 -0.62330437 -0.47261667

embed.weight f4 [171, 32]
00000000: 1df5 d4bf 942b 603f 164e 983f f761 913f
00000010: b7c8 423f f449 773f 0e85 8f3e 47d6 81bf
00000020: 5550 b83f 4dc6 36bc 3891 1abe 94f4 0fbf
00000030: 5ec3 6d3f 50a8 a3bf 5508 9dbe 1020 403f
00000040: 8ebf f03f 1f1a a83e 971f 60be c200 eb3e
00000050: 48c0 b53f e3e1 c1bf 5888 9b3f 57ec 463f
00000060: 2c4b 643f e6c5 a33e 1f00 d5bd 4544 16bf
00000070: d535 0e3f 3048 3a3f abbc 2440 6bea a83f
00000080: 9413 febe cb81 77bf 25da 1fbf 9a45 c8be
00000090: 81b6 c6be 6f31 4bbe ef51 a2bd 105d 303e
000000a0: 2620 7ebf 3b00 42c0 6e7c 8e3e cb04 ce3f
000000b0: 19b4 b03e b0e4 6cbf b7b4 81bf 5af2 bf3e
000000c0: 8ee0 cdbd 0ad9 403e 09bd d7bf 70b0 683f
000000d0: 55c2 3b3d 9d65 debd 95ef c53f ca76 f53f
000000e0: cea5 d13d 2921 5ebe 20d8 94bf b0ac 743f
000000f0: 5eab 91bf 3471 3f3d 6335 bbbf 4c01 aabf
00000100: 34da 0440 2362 463f 78f2 8d3f bcc4 c43e
00000110: 6f1d 87be 5da8 0dbf 0c17 40be 92d1 803e
00000120: 738b 063f add1 0ebf f223 9d3e 8277 d13f
00000130: 0e61 973f be1f 79bf 002b 91bf 68f8 413f
00000140: f926 93be 6df7 24bf 1ca1 243f 1a80 32bf
00000150: d9cd f43e 8e25 acbe 04fb ae3f aabe f93f
00000160: b907 283e c6bb 053d c9e9 d13e 875e 2dbf
00000170: 2edb ac3f beb5 9bbe ef8a 9abf 40fc 8dbe
00000180: 223a 103f 0110 2dbf 92a0 383f 403c 0ac0
00000190: f62e 8d3d 956c c2bf 2c0d 80be 3f9f 13bd
000001a0: 3a68 733f ad6a 073e 0b24 2dbf 25df aa3f
000001b0: a48d a93f a426 123f 0446 d43e 4286 573f
000001c0: fce1 4240 93bf 80bf e504 08be 8eac 4ebe
000001d0: 1fe8 43bf d7d2 28bf e27c 133f cde7 c1be
000001e0: 4aa6 8a3f b3f7 d03f 522e a63f 18e8 df3d
000001f0: 4870 0540 1e64 853d 9270 8c3e 2f8f 6dbf
00000200: 6eda 31bf bf5e 6bbf aa42 d6bd 020c 8c3e
00000210: 41b3 cb3d b904 8ebe 4137 853e 19e0 923e
00000220: ff85 5a3f 1b29 f83b d2f2 a13e 91fc 3140
00000230: 9ae8 66bf c39e 5cbd cc7b 5a3f 7629 66bf
00000240: 0eab f0bf 0256 7f3f 98b6 183a 8f00 283e
00000250: 1fbc 5e3f 8b0b 6bbd 6693 2e3f ee88 253f
00000260: 2422 2d40 ceee 5d3f a476 febd 16a3 37bf
00000270: 31b1 be3f c394 2abf b765 303f 2ede 1440
00000280: b9e8 5e3f 4e6d d6bd 8bcc 94bd c996 abbf
00000290: 0c71 eb3f 75e0 71be eb92 ebbf b723 37bf
000002a0: 8838 393e 8151 0dbf e398 5640 10a3 283e
000002b0: 5245 3cbe 1400 cebe f95f d93e 0498 97bf
000002c0: 5b3e cb3d ac85 6f3f ebec 51bf 5b95 abbf
000002d0: 2022 bf3e 5928 abbf 4e1e bbbf a6e4 c43f
000002e0: b64f 83be 6af1 1d40 2ab9 493f 2e25 4abe
000002f0: 4204 3cbd 8eeb fabd 3da0 b1bf fbbd 0240
00000300: 6b22 383f a8c9 c6bd cdaa 433e 55ff e33e
00000310: 2511 1fbf e510 62c0 88c1 8c3e 965f 4640
00000320: 011c c33f 7d67 5abe eb34 06c0 57f6 c33f
00000330: aa80 0e40 ce89 7fbd ec73 a7bf 5f65 13c0
00000340: 53b3 1e3e 2577 21be a999 e63e 3121 01bd
00000350: a0ec 6cbf 88bd 603e d47a 113f fe4c 61bc
00000360: 109e 4dc0 2904 183f 602a a9bf d7a3 bbbf
00000370: 73fa 58bf 06a5 be3e 2d03 203a f9d5 11c0
00000380: ade6 97be b04a cdbe 2fe5 28bf c162 a4bc
00000390: aec7 8abd e732 ab3f 7ba0 2c40 0a96 6ebf
000003a0: 0f5b 11bf 8cbb 63bf 1968 4d3f 4e75 0dbf
000003b0: ec7a f3bf 2996 8d3c 513f 40be 72c4 b43d
000003c0: 224a abbf 71bb 80be 2ee2 b73d a9f1 cfbe
000003d0: 9db2 0640 0ee6 cbbe df29 07c0 c2f0 943f
000003e0: 161f 213e eca9 bbbe dd75 b9be c7a3 6ebf
000003f0: e7a0 eb3e 9c4c e0be 7755 953f 1b6d c33f
-1.6637303 0.87566495 1.189883 1.1358021 0.76087517 0.9659722 0.280312 -1.0143517
1.4399515 -0.011155677 -0.15094459 -0.5623257 0.9287623 -1.278574 -0.3067042 0.75048923
1.8808458 0.3283243 -0.2188705 0.45899016 1.4199305 -1.514706 1.2150984 0.77704376
0.89177203 0.31986922 -0.10400414 -0.5869792 0.5555089 0.727664 2.5740154 1.3196539
-0.49624312 -0.96682423 -0.6244224 -0.39115602 -0.38811114 -0.19843076 -0.07925784 0.17223
-0.99267805 -3.031264 0.27829307 1.6095213 0.34512404 -0.9253645 -1.0133275 0.37489587
-0.10052596 0.18832794 -1.6854564 0.9089422 0.045839626 -0.10859225 1.546374 1.9176877
0.10236703 -0.21692337 -1.1628456 0.95576 -1.1380422 0.04673882 -1.4625667 -1.3281646
2.075818 0.77493495 1.108962 0.38431346 -0.26389644 -0.55335027 -0.18758792 0.2515989
0.5255653 -0.5578869 0.30691487 1.6364596 1.1826494 -0.9731406 -1.1341248 0.7576966
-0.2874067 -0.6444004 0.64308333 -0.6972672 0.478133 -0.33622402 1.3670354 1.9511311
0.16409196 0.032649778 0.40998676 -0.6772236 1.3504388 -0.30412096 -1.2073649 -0.27731514
0.56338704 -0.67602545 0.7212001 -2.1599274 0.06893723 -1.5189387 -0.2501005 -0.03604054
0.9508091 0.13224287 -0.6763312 1.3349348 1.324635 0.5709021 0.41459668 0.84189236
3.045043 -1.0058464 -0.13283117 -0.20183012 -0.76526064 -0.65946716 0.5761243 -0.37872162
1.0831997 1.6325592 1.2982886 0.1093294 2.084978 0.065132365 0.27429634 -0.92796606
-0.6947392 -0.91941446 -0.10461934 0.2735291 0.09946299 -0.27737978 0.26018718 0.28686598
0.8536071 0.0075732595 0.3163057 2.7810404 -0.9019867 -0.053862344 0.8534515 -0.89907014
-1.8802202 0.9974061 0.00058255484 0.16406463 0.870058 -0.057384055 0.6819366 0.64662063
2.7052088 0.8669251 -0.12424973 -0.71733224 1.4897825 -0.6663324 0.68905205 2.3260608
0.87073857 -0.10470067 -0.07265576 -1.3405391 1.8393874 -0.2362078 -1.8404211 -0.7153887
0.18087971 -0.5520249 3.3530815 0.16468453 -0.18385819 -0.40234435 0.42456034 -1.1843266
0.09924003 0.9356334 -0.82002133 -1.3404955 0.37330723 -1.3371688 -1.4618623 1.5382278
-0.25646752 2.4678597 0.7879816 -0.19740745 -0.045902498 -0.1225196 -1.3877026 2.0428455
0.7192752 -0.097064316 0.19108124 0.4453074 -0.62135535 -3.5322812 0.27491403 3.099584
1.5242921 -0.2132854 -2.0969799 1.5309552 2.226603 -0.06238728 -1.3082252 -2.3030622
0.15498094 -0.15768106 0.45039108 -0.031525794 -0.9254856 0.219473 0.56828046 -0.0137512665
-3.2127724 0.5938135 -1.3216057 -1.4659375 -0.84757155 0.37235278 0.0006103989 -2.2786849
-0.2966818 -0.40096045 -0.65974706 -0.02006662 -0.06776367 1.3374909 2.697295 -0.9319769
-0.5677957 -0.8895805 0.80236965 -0.5525712 -1.9021888 0.017283516 -0.18774153 0.088265315
-1.3381999 -0.25143006 0.08978687 -0.4061406 2.1046517 -0.39823955 -2.1119306 1.1635973
0.15734515 -0.36653078 -0.36222735 -0.93218654 0.46021196 -0.43808448 1.1666707 1.5267671

embed_bias.weight f4 [171, 32]
00000000: 0e25 26bf 3696 4f3f 3656 523e 3294 843f
00000010: 8b5a 0a3f 2f10 26bf 21a8 05be a59a 86bf
00000020: a992 1cbe 7496 09bf 3b7f c33f c959 bc3a
00000030: cad7 603f c4bd 97bf 19b4 4f3e 453b 97bf
00000040: b19a cfbe 5f9d 4cbf 2c88 c63f a895 88bf
00000050: fdbc 2a3f fef6 9f3e 5558 3abe 50b5 d93f
00000060: f971 23c0 47ab 9d3f 186f 113f ca4d 8ebf
00000070: b48e 953f 67db 05be bd64 c13d 1280 15c0
00000080: 9894 8ebe 71ad 8d3f 5938 033f a925 f2bf
00000090: f0fe abbf fb95 243f e1e3 be3f c514 2fbf
000000a0: d416 883d 41e0 8cbe 1c83 8bbf 0eee d2be
000000b0: 84c0 0bbf b2a1 853f 4e01 433d 8e8a 9bbf
000000c0: 6b70 a6bf c2bc 713e d485 87be e1d2 84bf
000000d0: 2b47 e93e ebd2 263f c471 6dbe 5ed9 52bf
000000e0: 1aa1 443f 45fb 1840 7f4c 173f f001 d2bf
000000f0: 23b6 a4bd 6337 95bf 2411 3dbf 9eab 36be
00000100: e3a2 aebf 5418 5bbf 92d1 263b aea5 b8be
00000110: 1afc 9a3f 627e 9fbe 8256 943e e222 263d
00000120: f85f 86bf f38f e03e d02a 70be 5e2a 24bf
00000130: a9f4 ce3f 9a69 debe fcf2 cbbf daa9 c1bf
00000140: 421a cc3f c0ad b63e 235b 90bf 2420 b23f
00000150: 59ad 753f ef66 0fbf 3ddd 07bf 814d 6e3f
00000160: 6017 c63f 569c c5bf e187 f63f f518 4b3e
00000170: 16b6 94be 0c16 7c3f cde3 733f 12d1 8c3e
00000180: 7f8a 7bbf 160c a5bf cf14 26bf 1f3e 24be
00000190: 56dc 5cbe f7ba cf3f 6f60 463f 74ce 77bf
000001a0: 006e df3e 60cb 8fbf 0a2a 8cbf 2dea 43bf
000001b0: afe8 7dbe 34d5 2fbf a79e 893f 7288 5ebd
000001c0: fc1c 77bf e2c5 1d3f 0139 5e3f d1f0 843e
000001d0: 91a3 9dbd 090c dabd 9efd 39bf 4a0c 78be
000001e0: d881 3b40 fb20 7bbf 95eb 0ebd 16b3 e1bf
000001f0: dd9d 1f3e 5ecc 473d 9574 d63e 760f b0bf
00000200: 76f7 9cbf 19c8 993f 751c 59bd 9f5d 85bf
00000210: 95b5 83bf 70e4 60bf 4437 32bf b54b 04bf
00000220: f856 b1be e5ce af3e 1f5c 91bf dbad 873f
00000230: 782c efbe 27b3 8bbf 0706 da3c f06c 2fbf
00000240: 79a1 e7be d6b5 77be 1906 173e 6832 08c0
00000250: 850f 19bf 5958 893f f077 abbf 7840 bb3f
00000260: 0bd0 bbbf 0016 ffbf 253d 833f 4517 663f
00000270: 40ab 5b3f cc28 a03f 201f a8bf 74d5 ef3e
00000280: 3c70 ca3e 3298 2040 e793 c33d 0e5d 9a3f
00000290: a00b 09be 92ba 1f3d 11d1 dabf 2c87 78bf
000002a0: 7d12 9ebf e003 993f 37cd 01c0 fd25 df3f
000002b0: eb3b d2bf 9f85 873e 0d47 cd3f 81f1 88bf
000002c0: e532 403e 740b 84be e577 84bf 10b5 1dbe
000002d0: 018c 33bf 9d8c bd3f c178 43bf 5944 8d3d
000002e0: d62c 153f 3948 9e3d e10e bbbe d343 01be
000002f0: 5b96 e3bf cb55 673f bfdd 8fbf 3b2e 763e
00000300: cf06 01c0 a41e 7bbf 2014 25bf b039 d73f
00000310: bb0d 2d3d 6866 1e3f 9313 ab3e 007e 0fbf
00000320: 8ea2 1ebf ab99 0fbf 03a5 94bf 13eb a73f
00000330: ce77 873e f5c9 87bf 13c9 31bf 8f7d debf
00000340: 4dc4 12c0 3442 17be ecfe 11c0 d8b7 0040
00000350: 4bda 1dbe 9bb3 403f c106 793f 0f0d 493f
00000360: f0aa 4c3f 916b 2fbf 2d45 1e3f 447b b8bf
00000370: 93c7 abbf 43e4 a63f b006 173f 13a1 563f
00000380: eb5b 05bf ff83 c83f d53e 383f 599d 1f40
00000390: 1d42 01bf 4ff9 07c0 352b 68be 7fe2 e53a
000003a0: 7940 1cc0 b116 b2bf 5fc1 0c3f 4b57 80bf
000003b0: 2796 27bf 313e 803f 94f1 dfbe 1219 863f
000003c0: c34a 1ebf 6c61 1d3f 31c7 13bf 7ce7 e2bf
000003d0: 2dce 47be 9a17 c9bf 736b f23d 0b0b 993f
000003e0: af18 17bf 2c00 c43e 752f 233e 8167 653f
000003f0: 6553 e83f a84e f0bf 3d2b 0a3f f6c4 3dbf
-0.6490029 0.8108858 0.205407 1.0357726 0.5404441 -0.64868444 -0.13052417 -1.0515944
-0.15290321 -0.537452 1.5273203 0.001437002 0.8782927 -1.1854787 0.20283546 -1.1814963
-0.40547708 -0.7992763 1.5510306 -1.0670671 0.66694623 0.31243128 -0.18197758 1.7008457
-2.5538313 1.2317895 0.5681014 -1.1117489 1.1684175 -0.13071977 0.094430424 -2.3359418
-0.27847743 1.1068555 0.51257855 -1.8917743 -1.3437176 0.6429135 1.4913293 -0.68391067
0.06644979 -0.27514842 -1.0899386 -0.41197246 -0.5459063 1.043997 0.047608666 -1.2151659
-1.3003057 0.23607162 -0.2646929 -1.0376855 0.4556211 0.65165585 -0.2318793 -0.82362926
0.7680832 2.3903363 0.591011 -1.6406841 -0.08042552 -1.1657528 -0.7385428 -0.17838904
-1.3643459 -0.85583997 0.0025454503 -0.36063904 1.2108185 -0.3115111 0.2897225 0.04056061
-1.0498037 0.43859825 -0.23453832 -0.6412715 1.6168414 -0.43439943 -1.5933528 -1.512996
1.5945513 0.35679436 -1.1277813 1.3916059 0.9596763 -0.5601644 -0.5307196 0.9308701
1.5475883 -1.5438335 1.9260217 0.19833739 -0.2904517 0.9847114 0.9526947 0.27503258
-0.98258203 -1.2894313 -0.648755 -0.16039322 -0.21568426 1.6228932 0.77490896 -0.967994
0.4363861 -1.123394 -1.0950329 -0.765292 -0.24795793 -0.686847 1.0751542 -0.054329343
-0.965286 0.6163007 0.8680573 0.25964978 -0.076972134 -0.10646827 -0.72652614 -0.24223438
2.9298 -0.980972 -0.034892637 -1.7632778 0.15587564 0.048778884 0.4188582 -1.3754718
-1.2263019 1.201419 -0.053005654 -1.0419196 -1.028979 -0.8784857 -0.6961558 -0.5167802
-0.34636664 0.34337536 -1.1356238 1.0599931 -0.46713614 -1.0914048 0.026614202 -0.685256
-0.4524038 -0.24190459 0.1474842 -2.1280766 -0.59789306 1.0730087 -1.3395977 1.4629049
-1.4672865 -1.9928589 1.0253035 0.89879256 0.8580818 1.251245 -1.3134499 0.4684254
0.39538753 2.5092893 0.095496945 1.2059648 -0.13383341 0.038996287 -1.7095052 -0.97081256
-1.2349392 1.1954308 -2.0281503 1.7433468 -1.6424536 0.26469132 1.6037308 -1.0698701
0.18769415 -0.25789988 -1.0349089 -0.15401101 -0.70135504 1.4808537 -0.7635613 0.06897802
0.5827154 0.07728619 -0.3653479 -0.12623529 -1.778026 0.90365285 -1.1239547 0.24041073
-2.0160406 -0.9809363 -0.64483833 1.681448 0.042249423 0.6187501 0.3341337 -0.56051636
-0.6196679 -0.56093854 -1.1612858 1.3118614 0.2645859 -1.0608507 -0.6944744 -1.7382067
-2.2932312 -0.14771348 -2.2811842 2.011221 -0.15415303 0.75274056 0.9727593 0.7853555
0.7994833 -0.6852351 0.61824304 -1.4412618 -1.342028 1.303841 0.5899458 0.8383953
-0.5209338 1.5665282 0.71970874 2.4939787 -0.50491506 -2.1245916 -0.22672732 0.0017538815
-2.441435 -1.3913175 0.5498256 -1.002664 -0.6546349 1.0018979 -0.43738997 1.0476401
-0.6183283 0.6147678 -0.57725817 -1.7726893 -0.19512244 -1.5710328 0.118369006 1.1956495
-0.5902204 0.3828138 0.15936072 0.8961106 1.815045 -1.8774004 0.53972226 -0.74128664
