data/models_parameter/BTFeature_param.pth (torch, 112385 bytes, 7 tensors)

feat_mlp.0.weight f4 [128, 60]
000000 f3 26 69 bb 0e 57 ab 3d d1 a3 6e 3e c2 61 13 be
       -0.0035576194 0.08366214 0.23304678 -0.1439276
000010 c2 18 70 bd 12 dc b8 3d 53 90 b7 3d 16 57 55 be
       -0.05861736 0.0902635 0.089630745 -0.20834002
000020 30 83 31 be 74 38 8c 3c 00 b1 80 bd 8b 61 d2 bc
       -0.173352 0.017116763 -0.0628376 -0.025681278
000030 56 34 a7 3d 5b a4 a8 3c 47 58 05 3e 20 e7 6e be
       0.08164279 0.020586183 0.13021956 -0.23330355
000040 0c 14 6d 3c d1 1e 33 3d 12 79 95 bd 2a 06 ef 3d
       0.014470112 0.04373056 -0.07298483 0.116710976
000050 bc 57 d4 3d 22 32 47 be 0a c4 29 be 71 95 45 3e
       0.103682965 -0.19452718 -0.16578689 0.19295289
000060 2c 75 cd bd 95 14 56 be a6 24 f7 3b 06 0d 88 be
       -0.100321144 -0.20906289 0.0075422106 -0.26572436
000070 05 b7 4c 3c 9b e2 2a 3e 46 e7 54 bd 74 2c 91 3c
       0.012494807 0.16688006 -0.051978372 0.017721392
000080 f9 6e 45 3c b5 a4 f8 bd 6c a7 4a be f6 8a 6b 3e
       0.012050384 -0.121407904 -0.19790429 0.23002228
000090 c4 5d 88 bd 58 ac 21 bd 1b 6e a7 3b e4 0c e8 3d
       -0.066585094 -0.039471 0.005109561 0.11330584
0000a0 0b a4 7e be ba 54 6d be 45 1d 22 3d 9a ec aa bd
       -0.24867265 -0.23176852 0.039578695 -0.083459094
0000b0 12 4c e3 3c f5 f2 f6 bd d4 d0 4b be 95 bc 41 3d
       0.027746234 -0.12058059 -0.1990388 0.047298986
0000c0 c6 29 a2 3d a0 a4 9e 3d 8b ce 92 bd 21 de dc 3c
       0.07918124 0.077462435 -0.07168301 0.026961388
0000d0 5c d3 95 3d 12 f2 01 be 5e 99 27 bd db 79 28 3e
       0.07315704 -0.12689999 -0.040917747 0.16452734
0000e0 3c f1 87 be 83 a0 82 3c 5e 45 93 3e 73 84 91 3c
       -0.26551235 0.015945679 0.2876386 0.017763352
0000f0 87 58 ae bd 2f fc 7d bc 0b ea 4a be b7 b6 42 3e
       -0.08512979 -0.01550202 -0.19815843 0.19015013
000100 a7 7f 9a bd 7e 3e bf be bb 2c ed 39 1b 76 c2 bd
       -0.07543879 -0.37352365 0.0004523749 -0.09495183
000110 5b 1e 4f 3e 41 15 0a 3e a9 c3 d7 b9 5a ad 17 be
       0.20226423 0.1348467 -0.00041153774 -0.14812222
000120 7a 38 30 3e 54 16 e4 3d 0b a8 82 bd 45 80 6d bc
       0.17209044 0.11137071 -0.06379708 -0.014495914
000130 20 58 f0 bd 61 cc 6d be 1c 98 1d bc 99 e7 af bd
       -0.117355585 -0.23222496 -0.009618785 -0.085890956
000140 30 a4 22 be b7 9d 30 3e 57 10 2d 3d c7 a0 5c 3c
       -0.15882945 0.17247663 0.04225191 0.013466067
000150 f9 f7 db bd 95 71 bf 3c 29 04 21 3d fe 87 88 bd
       -0.107406564 0.02336959 0.039310608 -0.066665635
000160 38 ce 89 3d 27 e8 c0 bd 58 f6 02 3e 69 8e b2 3b
       0.06728786 -0.094192795 0.12789285 0.0054491055
000170 ee c5 7a 3e d3 50 13 3c dc 4b 30 be a7 36 6d bd
       0.24489567 0.008991438 -0.17216438 -0.05791345
000180 eb ec 04 3f 48 62 85 3e 1b 58 da bd c4 77 d6 3b
       0.5192401 0.26051545 -0.10661336 0.006545039
000190 cc 84 36 3e 8e 69 29 3e f2 fa 0e be 66 18 20 be
       0.17824095 0.16544172 -0.13962916 -0.15634307
0001a0 1c 49 89 3d a5 0d 88 be 1a f4 66 3e 70 82 3c 3e
       0.06703398 -0.2657291 0.22554055 0.18409133
0001b0 32 09 d7 bd cd 6d e8 bd d4 42 30 3d 60 cc 98 bd
       -0.10499801 -0.11349068 0.043032482 -0.074608564
0001c0 a4 5d d5 3d e0 ac 06 bd 64 fa 94 be f7 04 28 3e
       0.10418251 -0.03287971 -0.29097283 0.16408144
0001d0 c1 95 13 be 30 d6 26 3e 1d bf 23 be 75 78 43 be
       -0.14412595 0.16292644 -0.15990873 -0.1908892
0001e0 dc 2c 52 3e 21 2d 0f be 2a d1 43 3e fc 92 8f bd
       0.20524925 -0.13982059 0.19122759 -0.07010457
0001f0 0b 0b d0 bd c9 72 95 bd 71 57 38 be 00 c3 b5 3e
       -0.10158356 -0.07297284 -0.18002106 0.35500336
000200 82 e5 67 3e 49 30 83 3d 90 1e 98 3e 3d 4a c0 bc
       0.22646144 0.06405694 0.29710817 -0.0234729
000210 5c 35 b7 bc f2 53 95 3d 5a da ba bd d8 8c 0f be
       -0.02236431 0.07291402 -0.091236785 -0.14018571
000220 b1 51 a0 bd b9 f9 02 be 28 c9 0d 3d f4 bb f3 3c
       -0.078280814 -0.12790574 0.034615666 0.029752709
000230 7a 76 6b 3d 30 70 09 3e c9 71 29 bc fa 9d 36 be
       0.057486035 0.13421702 -0.01034207 -0.17833701
000240 0b 87 df 3d 56 5f 80 be bd 1c af bc 92 b6 83 3e
       0.10914429 -0.25072736 -0.021376008 0.25725228
000250 07 c4 b5 3d 96 62 08 3e bc e8 44 3d c4 ba 4c 3d
       0.0887528 0.13318858 0.048073515 0.0499828
000260 61 16 17 3e 00 03 8f be f0 c3 c7 be 94 70 71 3e
       0.1475463 -0.27931976 -0.39016676 0.23578101
000270 f5 1f a9 3e a1 71 26 3d 79 03 64 3e ce 18 b2 bd
       0.33032194 0.04063571 0.2226695 -0.08696137
000280 9c d3 49 bd ef 0f cf 3c 5b 5f ca 3d b9 dc e6 3d
       -0.049274072 0.025276152 0.09881469 0.11272568
000290 5c f7 d7 bd 72 c4 75 3e 55 fd d8 be 36 b0 4a 3e
       -0.10545227 0.24000719 -0.42380777 0.19793782
0002a0 48 fb f4 3d 7a cd 88 3d 0b 56 fa bd e3 22 29 3e
       0.119619906 0.066798165 -0.12223443 0.16517214
0002b0 a1 2a 60 bc 1a 20 8e 3d 00 a8 81 bc 55 8f bf bb
       -0.0136820385 0.06939717 -0.015827179 -0.005845944
0002c0 84 01 17 3e 78 07 17 3e 29 21 43 bd 2b d0 27 be
       0.14746672 0.14748943 -0.047639046 -0.16388004
0002d0 30 e3 f4 bd 59 75 4c 3d a6 7e c6 bc b9 a9 92 be
       -0.11957395 0.0499166 -0.024230313 -0.28645113
0002e0 bb 1c 94 be 45 91 11 3e 79 c9 47 bd 24 85 76 bd
       -0.2892817 0.14215572 -0.048776124 -0.060185567
0002f0 e0 71 4c be 4c f6 0e 3e d9 87 6f 3e 1b c5 29 be
       -0.19965315 0.13961142 0.23391666 -0.16579096
000300 56 30 81 be b6 d2 a8 3c 41 13 17 be 11 15 e0 3d
       -0.2523219 0.020608287 -0.14753439 0.10941518
000310 f6 25 75 bc 9a f2 4d 3e 62 f2 88 3d f6 a6 b4 bd
       -0.014962664 0.20112076 0.06686856 -0.08820908
000320 1a 23 a7 3d 84 95 27 be c1 45 3a 3e 02 48 2c 3e
       0.08160992 -0.1636563 0.18190672 0.16824344
000330 96 e7 43 be 03 92 b4 3d e4 48 1b bd 2e 05 5b be
       -0.19131312 0.08816912 -0.03791131 -0.21388695
000340 a1 53 38 3e 73 89 0f 3e e3 32 63 3d e8 0c 1a be
       0.18000652 0.14017276 0.05546845 -0.15043986
000350 46 73 ee 3d 5c 1b b1 bd a8 33 c8 be ea 23 a0 be
       0.116430804 -0.086477965 -0.3910191 -0.312774
000360 83 00 a4 be f8 d5 6c 3d c6 81 0b 3e c7 cb 1c bc
       -0.3203164 0.057821244 0.13623723 -0.009570069
000370 f2 40 56 3e a0 11 b6 3e 27 47 0d 3d 45 93 fb bb
       0.20923212 0.35560322 0.034491684 -0.007677468
000380 cc 22 95 3d b2 35 0f bd af e8 28 bc 57 bf 37 3e
       0.072820276 -0.034963317 -0.010309382 0.17944084
000390 10 87 f9 bd 20 94 9e 3d 03 19 e3 3d 24 e7 db 3d
       -0.12183964 0.07743096 0.11088755 0.10737446
0003a0 88 18 98 3d e6 cc 25 be d6 fb 06 3d 6d 01 71 3e
       0.07426554 -0.16191444 0.032955013 0.235357
0003b0 cd d3 72 3e 0e 83 87 be c6 d6 93 bd 7e 9c 1f 3e
       0.23713608 -0.26467174 -0.07218699 0.15587041
0003c0 e3 a4 0d be 4a 7f a4 3d ec 51 ba 3c 26 5a fc bd
       -0.1383243 0.08032091 0.022744142 -0.12321882
0003d0 85 e7 60 3e 0a 94 2c be 0a 9b 21 bd 15 91 91 be
       0.21963318 -0.16853347 -0.039454497 -0.28431
0003e0 66 f5 60 3d b2 87 07 3d 91 fc 67 bd d3 45 5f 3e
       0.05492153 0.033088394 -0.05663735 0.2180398
0003f0 89 d6 2f 3e fe dc 08 3e 4c 1b 90 3d d7 73 78 be
       0.17171682 0.13365552 0.070364565 -0.2426294

feat_mlp.0.bias f4 [128]
000000 56 7b 4b 3e d1 d5 4f be 8d 97 08 be af 4f cf 3d
       0.19871268 -0.20296408 -0.13339062 0.1012262
000010 f5 e0 ad bd 8f 66 3f be a2 14 0f 3d d1 cb 5f bd
       -0.08490173 -0.18691467 0.034931786 -0.054637734
000020 20 ec 6b 3d 9f d5 fb 3d 8c 58 a5 3b 03 43 c8 bd
       0.057598233 0.12296604 0.005045956 -0.097784065
000030 48 63 0b 3d 6f e7 0f bd 01 9a 10 3d 63 f1 46 be
       0.03403023 -0.03513282 0.03530312 -0.19428019
000040 85 25 82 bb f3 bd 58 bb 10 84 bd bd fd 97 05 be
       -0.003971758 -0.0033072203 -0.092537045 -0.1304626
000050 4f 9c 79 3d eb 8b 19 be 7f 06 a9 3d 4e e0 0b 3d
       0.060940083 -0.1499478 0.08253192 0.03414946
000060 25 27 13 bd f4 15 38 3d 00 63 98 bd 29 ec 43 be
       -0.035926003 0.04494281 -0.07440758 -0.19133057
000070 ac d3 00 be 12 0b 90 3d ab 23 e9 bd b0 67 1d bd
       -0.12580746 0.070333615 -0.11383756 -0.038428962
000080 f3 c9 21 be c4 18 2c bd 09 14 92 3c 46 b6 d5 bd
       -0.15799694 -0.042015806 0.01783182 -0.104351565
000090 7c 6c 00 be 05 23 1b 3d 99 a5 65 bc ff c7 b5 bd
       -0.12541384 0.037875194 -0.014016532 -0.08876037
0000a0 6b 2a 37 3d 46 6b 05 bd 2f e3 c5 bd 6c 01 3f be
       0.044718187 -0.032573007 -0.096624725 -0.18652886
0000b0 4d 24 44 bd bf 0e e0 bd 0f c6 a1 3d ab 97 18 3d
       -0.04788618 -0.109403126 0.07899105 0.037254017
0000c0 73 28 5b be 8c ec d7 3c ba ba c9 3d c6 55 5f be
       -0.21402149 0.026357912 0.098500684 -0.21810064
0000d0 c0 1d df bd 97 f1 bd bd de 1f 27 3e 09 27 08 3e
       -0.10894346 -0.09274595 0.1632075 0.1329614
0000e0 94 c9 cd ba 6d 3a 6d bc 88 36 12 bd 21 05 ee bd
       -0.0015700334 -0.014479262 -0.035696536 -0.11622072
0000f0 71 e0 f4 bd 65 98 4c be 5b ff 92 bd 10 39 23 bd
       -0.11956871 -0.19980009 -0.071776114 -0.03984934
000100 ce 7e 7c be 61 81 c7 bc fe 5b 08 3d 31 eb 25 3e
       -0.24657747 -0.024353685 0.033290856 0.16203
000110 b6 62 e1 3d d1 47 92 bd 33 3f 95 bc bf e8 69 be
       0.11005156 -0.07142604 -0.018218612 -0.22842692
000120 d7 e1 89 bd 64 c3 0c be 80 39 88 3d 54 15 06 be
       -0.06732529 -0.1374641 0.06651592 -0.13094074
000130 eb 2b 70 3c c0 9e ab bc 5f f7 8d bd ed 0d 2b 3d
       0.014658908 -0.020949721 -0.06931948 0.041761328
000140 bc 63 16 be a8 08 d6 bc 15 f2 7a bc 33 e0 69 3c
       -0.14686483 -0.026127174 -0.015316506 0.014274645
000150 a9 e4 25 bd 7a a1 7a bd 62 80 61 3d e7 cd d8 bd
       -0.04050127 -0.061189152 0.055054076 -0.10586148
000160 6a 62 15 be f1 3e e6 bd 2b 1f 1a be 6e 87 5e 3e
       -0.14588323 -0.11242474 -0.15050952 0.2173135
000170 17 25 78 3e 19 2d 3f bd 3b 13 29 be 80 45 53 3d
       0.24232899 -0.046673868 -0.16511242 0.051579952
000180 1f 30 2e bd 54 a8 5d be 02 41 7b 3c 9e 18 56 bd
       -0.04252636 -0.21646243 0.015335323 -0.05226957
000190 b5 a0 21 3d 75 60 ff bd e5 f1 b9 3c 39 91 65 3d
       0.039459903 -0.124695696 0.022698352 0.0560467
0001a0 42 23 29 be ac 39 01 3d d8 68 e0 bd 6b 46 2b bd
       -0.16517356 0.03154914 -0.10957497 -0.041815203
0001b0 45 82 db 3d 36 85 5d be 43 d4 62 3d 87 b9 b1 bc
       0.10718206 -0.21632847 0.05537821 -0.021694912
0001c0 69 0c 55 3b 6c 73 86 3d 3d cb d2 bd b9 0d dd 3d
       0.0032508618 0.06564984 -0.10292671 0.10793633
0001d0 9e ef e2 3a 4c 92 3f 3d 43 19 4d 3d c0 4c 80 be
       0.0017313843 0.04677038 0.05007292 -0.25058556
0001e0 a6 37 3c bc 1c f4 ee 3c 65 b4 0c 3e 98 50 37 3e
       -0.011487877 0.029169135 0.1374069 0.17901838
0001f0 46 f9 87 bd 60 d5 0a be 33 14 b6 be 6d 7f 80 be
       -0.06639342 -0.13557959 -0.35562286 -0.25097218

feat_mlp.2.weight f4 [64, 128]
000000 77 49 17 3e 81 31 b5 bc f8 e6 74 3d 18 e9 e3 3d
       0.14774118 -0.022118332 0.05979058 0.111284435
000010 2d 31 4f bd 97 b2 04 3d d4 fa 4a 3d 18 55 0b 3e
       -0.050584007 0.03239688 0.049555615 0.1360668
000020 ba 0e 01 3e 2b 03 b4 bd ed 37 a9 bb f7 34 98 bd
       0.12603274 -0.08789667 -0.0051641376 -0.07431977
000030 4f e4 f2 3b 26 80 16 3e 49 b1 a5 bd 81 92 39 bd
       0.0074124704 0.14697322 -0.08090455 -0.045305733
000040 15 1d fc 3d f5 c9 b1 3d c1 43 4b bc 2c f4 87 bd
       0.123102345 0.08681098 -0.0124062905 -0.06638369
000050 a6 77 93 bd f9 f5 ab 3d 1a a7 d2 bc ff af 61 bd
       -0.072005555 0.08396525 -0.025714446 -0.055099484
000060 9d 61 6d 3d 1d 03 09 3e 4c 40 f0 bd 57 16 9e bd
       0.05795442 0.13380094 -0.11731014 -0.07719105
000070 da ef 83 bd ff ad 64 3b b0 f9 fa bd fa de ee 3d
       -0.064422324 0.0034893749 -0.12254655 0.11663623
000080 7e 23 09 bd 79 ea 20 be bf 5b 4b bd d9 97 f9 bd
       -0.033481114 -0.15714444 -0.049648043 -0.12187166
000090 69 3f 24 bd 46 4a b8 3d c9 f9 b9 3d 2e 04 ae bb
       -0.040099535 0.089985415 0.09080846 -0.005310557
0000a0 38 b9 11 bb c3 51 0c be c2 3d a7 3d da 3f 6d 3c
       -0.0022235643 -0.13703065 0.08166076 0.014480555
0000b0 64 8c f9 bc 16 96 07 3e 59 9d 6e 3d cb 39 2b 3d
       -0.030462451 0.13240847 0.058255527 0.041803163
0000c0 4b 3a d9 3c 69 6f b1 3d 9b ec 31 bd 26 71 e8 3d
       0.026517054 0.08663828 -0.043438535 0.11349706
0000d0 a9 2f a7 bd f0 74 29 be f5 e2 0f 3d 54 1a b4 bd
       -0.08163387 -0.16548514 0.035128552 -0.08794084
0000e0 7b c6 59 3d ea 03 fa 3d aa 08 f5 3d d6 2a 2f 3e
       0.0531678 0.12207778 0.11964543 0.17106184
0000f0 73 c7 ad bc 31 a6 6c bd da b6 3c bd ee b7 69 bd
       -0.021213269 -0.05777568 -0.04607282 -0.057060175
000100 2b d2 33 3c 3a 57 ab 3d 41 99 f9 39 23 93 8f bd
       0.010975401 0.083662465 0.00047607164 -0.07010486
000110 15 cd 58 bd 9f 3d 93 bd 1f f2 ef 3c 0c 65 8c 3d
       -0.052929956 -0.07189488 0.029290257 0.06855211
000120 dd 9d 05 3d a7 be e6 3d e6 b9 94 3d f8 c2 b9 3d
       0.032621253 0.11266833 0.0726202 0.090703905
000130 0f 5e 9d bd c0 58 58 bd 92 e7 e4 bb d3 c3 cb bd
       -0.07683956 -0.052819014 -0.006985613 -0.0994946
000140 53 d3 da 3d 25 b3 d9 3d 59 60 54 bc 03 7d a0 bc
       0.10684838 0.10629872 -0.012962424 -0.01959086
000150 80 fd 2b be 52 bf f2 3d 17 19 a2 3d a3 e0 c2 bd
       -0.16795921 0.11852898 0.07914942 -0.09515502
000160 75 90 fe 3c 19 d8 78 3d 1c fd c9 bd 8c 05 8c bd
       0.031074742 0.06075296 -0.0986273 -0.068369955
000170 03 8f c1 bd 2d 4f 8f bd 9b 56 8a 3d f9 fa dd bd
       -0.094511054 -0.069975235 0.067548 -0.10838885
000180 1a 0c 14 bc e3 57 84 bd 3f ca e3 3d 0f 1f d4 3d
       -0.009036088 -0.064620756 0.1112256 0.103574865
000190 d9 db c0 bc 3c 3a 30 3c 53 a2 aa 3d 51 a7 c0 3c
       -0.023542332 0.010756072 0.08331742 0.023517283
0001a0 3e e1 c5 bd 0e eb 3b bd c0 2f a7 3d 15 a5 6c 3b
       -0.09662102 -0.045878462 0.081634045 0.0036109139
0001b0 93 1a 6c 3d 23 25 8e bd 78 f7 bd 3c 9b 96 c0 bd
       0.05764253 -0.06940677 0.023189291 -0.09403726
0001c0 0c 24 f0 bd 7d ea 51 3c 2a 14 b5 bc 88 23 ae 3d
       -0.117256254 0.012812254 -0.022104342 0.08502871
0001d0 31 2e 0c 3d a1 f6 67 bc 27 cf 5d 3d 14 39 2d 3d
       0.03422374 -0.014157922 0.054152634 0.042290762
0001e0 9e 66 c5 3d 13 da 69 3d 79 5a 9d 3c 79 0c f7 3c
       0.09638713 0.057092737 0.01920818 0.030157315
0001f0 5a 6c 19 3e 28 91 d0 bb 9b b7 83 be 7a c1 86 bd
       0.14982739 -0.00636496 -0.25726017 -0.065798715
000200 de fa 20 3e 0a b2 18 bd 3f 74 19 be 70 3a 96 bc
       0.15720698 -0.037279166 -0.1498575 -0.018338412
000210 6c 39 3d bd e2 93 39 3d e5 85 85 bd c4 e0 45 3c
       -0.04619734 0.045307048 -0.06519679 0.012077514
000220 3e b3 27 3d a3 09 19 3e 5e d5 03 3e c1 d3 8b bd
       0.040942423 0.14945082 0.12874362 -0.06827498
000230 07 cd a5 3d 22 a1 a3 3d f3 e3 0f be 90 ef dc 3d
       0.080957465 0.07989718 -0.140518 0.107878804
000240 6b 80 72 bd 23 2d 5a bd fe e8 b6 3b b5 1c 8a bc
       -0.0592045 -0.053265702 0.005581974 -0.016859392
000250 ef 9d 8d 3d 18 d4 66 3d a6 67 b3 3d c6 ea d3 3d
       0.06914889 0.056354612 0.08760004 0.10347514
000260 9a 56 fc bd 05 9c 01 3e cb c9 ce bd be a9 25 be
       -0.123212054 0.12657173 -0.10097083 -0.16178033
000270 ee 91 ce bd 18 f3 d5 bd 0a 20 08 bd dc a0 e9 3b
       -0.10086428 -0.10446757 -0.03323368 0.0071297716
000280 49 d1 93 be 32 8f 72 be d5 66 c2 3c 02 cc f7 bd
       -0.2887061 -0.23687437 0.023730675 -0.12099458
000290 5a d4 ba bd 56 c4 f2 3a 89 e1 f5 3d e4 06 06 3d
       -0.09122534 0.0018521647 0.12005908 0.032721415
0002a0 42 50 29 bd b8 a1 b2 3d 26 c9 a0 3d 87 c5 36 bd
       -0.041336305 0.08722252 0.07850866 -0.04462197
0002b0 5b 3c ca 3d f0 09 f3 3c c5 de 14 be 14 99 a5 bd
       0.09874793 0.029667825 -0.14538105 -0.08085838
0002c0 08 f9 cd bd 32 ca 9a 3d 7f e2 06 be 53 31 c9 3b
       -0.100572646 0.07558097 -0.13172339 0.006139913
0002d0 44 fd e8 3d c5 c8 a0 bd c6 19 4b 3d 2d 71 d9 bd
       0.113764316 -0.07850794 0.049585126 -0.1061729
0002e0 fb 2c 0d bd 0e 0e a4 bd cb 84 90 bd cb ac 7c bd
       -0.034466725 -0.08010493 -0.07056578 -0.061688226
0002f0 90 13 5b 3d 4d 38 27 3e 32 33 26 be 5f 39 7a 3d
       0.053485453 0.16330071 -0.16230467 0.06108987
000300 19 ba 6f be f2 d9 56 3d f4 0f 2b be c8 b2 eb 3d
       -0.23410834 0.052453943 -0.16705304 0.11508709
000310 d1 fe 3d 3c 68 df 41 bd 64 2f e7 bd 6c c6 a9 3d
       0.0115963975 -0.047332197 -0.11288336 0.08289799
000320 87 6b 08 bb 3b 36 cd 3d 41 bd b9 3c f5 41 2e 3d
       -0.0020816044 0.10020109 0.022673251 0.04254337
000330 07 90 18 3d 5a 4b f0 3c 36 37 a3 3c e7 25 ab bd
       0.03724673 0.029332805 0.019923788 -0.08356839
000340 b0 4f 42 3d d8 1d 3f bd 3c a1 08 3c 9a 46 ea bd
       0.047439277 -0.04665932 0.0083392225 -0.114392474
000350 54 38 91 bd 51 de 5b 3e 7d 24 2e be e3 3e 86 3d
       -0.07090822 0.21471526 -0.17006107 0.065549634
000360 a5 4c 19 3e 87 4a 0f 3e 0f 27 16 3e 33 a5 54 3c
       0.14970644 0.13993274 0.14663337 0.01297884
000370 0f 72 31 3d e1 31 05 3e f4 4d 74 3c b8 bd 9b 3d
       0.043321665 0.13007309 0.014911164 0.07604545
000380 79 4b 89 bd e4 e6 45 bc cb e7 89 3d 27 5e 53 3e
       -0.067038484 -0.012078974 0.06733664 0.20641385
000390 43 e0 bd bd 10 8e 97 bd 57 9c bc be c1 64 f5 bb
       -0.0927129 -0.07400143 -0.36838028 -0.0074888174
0003a0 b7 13 47 3d 71 99 a6 bc 7e ad 35 bd 14 37 aa bd
       0.048602786 -0.020336838 -0.04435491 -0.083112866
0003b0 8b 16 7c bd ea 6e aa 3c fd 03 b7 bd 81 aa 66 3d
       -0.061544936 0.020804841 -0.089363076 0.05631495
0003c0 17 7a 2d 3d b9 47 da bd c7 0b 4f be ae ae c1 bd
       0.042352762 -0.10658211 -0.20219336 -0.09457146
0003d0 4f 7c b6 3d 5a 27 a7 bd c4 a5 af 3d 4a 98 65 bd
       0.08910429 -0.081618026 0.08576539 -0.056053437
0003e0 46 fb 6f bd 37 1f 47 3c 08 70 f9 bd 19 df 00 3e
       -0.058589242 0.012153438 -0.121795714 0.12585105
0003f0 d1 c0 b0 3c bf 00 4d 3d 85 ac 88 bc 27 98 87 bd
       0.021576317 0.05004954 -0.016683826 -0.06620818

feat_mlp.2.bias f4 [64]
000000 4b ce fe 3b 8c a6 ab 3d 15 fb d5 3d 41 9c a2 bd
       0.007776057 0.08381376 0.10448281 -0.07939959
000010 88 c4 8a 3d 6e 68 cf 3c 20 84 2f bd ca e8 2a 3d
       0.067757666 0.02531835 -0.042850614 0.04172591
000020 3b 0e 99 bc 1e eb c3 bc bf 16 d8 bc 2b fa eb 3b
       -0.018683543 -0.023915824 -0.026378034 0.007201453
000030 82 be aa 3c 0d f9 9f bd 10 e0 f6 3c 23 9c 6f 3c
       0.020842794 -0.078111745 0.030136138 0.014624628
000040 58 20 61 bd db 59 cd bd 36 0a 62 3d 50 a1 fa bc
       -0.054962486 -0.10026904 0.05518552 -0.030594498
000050 61 31 bf 3d ff dc dc 3b 61 45 02 3d e8 a1 19 3d
       0.0933559 0.006740212 0.031804446 0.03750792
000060 a0 f8 84 bd e2 f4 aa 3d 9a be 8d bc 23 77 2d 3d
       -0.06492734 0.08347489 -0.0173028 0.042349946
000070 bd 77 a7 3d cd 2c c6 bc dc 7a b0 bb cf 4c 63 bd
       0.08177135 -0.024191285 -0.0053857397 -0.055493172
000080 02 ff 73 bd 9d a3 ac bc db 9d e1 3c e1 f7 e4 3c
       -0.059569366 -0.02107411 0.027541092 0.02795023
000090 26 0d 2b 3d 0b cd c0 bb 9e a1 b3 bd 9b 6e 59 3c
       0.041760586 -0.005883818 -0.087710604 0.013270999
0000a0 a0 e2 94 bd a0 39 3e bc c2 74 cc bc f0 e5 6a bc
       -0.07269788 -0.011610419 -0.024958018 -0.014337048
0000b0 be b7 5c bd 01 5a 95 bc 1f 0b 6b bd f6 73 93 3d
       -0.053886168 -0.018231394 -0.057383653 0.07199852
0000c0 42 81 45 bd ac e2 0f 3e d1 a4 a3 bc 04 9c f9 bc
       -0.048218973 0.14051312 -0.019976052 -0.030469902
0000d0 e1 3d 93 3d 8e 38 18 3d d6 aa 22 3d 5b a9 ad 3d
       0.07189537 0.03716331 0.039713703 0.084795676
0000e0 85 ce 0f 3d 47 8e b5 bd 97 c8 91 3d 10 ca a5 3b
       0.03510906 -0.08865028 0.071183376 0.005059488
0000f0 00 34 17 bd 81 3a 76 3d 3e 27 38 bd 04 32 57 3d
       -0.036914825 0.060114387 -0.0449593 0.052537933

feat_mlp.4.weight f4 [1, 64]
000000 b1 bc 16 be bb 7d 9a be 57 f5 e1 be 5a b5 ea be
       -0.14720418 -0.3017405 -0.44132492 -0.45841485
000010 fb cf cc be ef 91 63 bd bf b0 96 3e ef 50 1c be
       -0.40002427 -0.055559095 0.29431722 -0.15265249
000020 bf a2 b0 be 5f 9a b1 3e c5 97 11 3f 81 cd 8c be
       -0.34499165 0.34688088 0.56872207 -0.27500537
000030 a4 3f ba be 46 b0 3e 3f 9e 87 b7 3e 89 6f 1e 3e
       -0.3637668 0.7448772 0.35845655 0.15472235
000040 a7 b9 d6 3e f3 e2 05 3f 1f 86 03 bf cd 78 11 bf
       0.41938516 0.5229942 -0.5137653 -0.5682495
000050 3a 4e 8f 3e 08 58 1b 3f dd a4 c2 be f3 39 3e bf
       0.2798937 0.606812 -0.38016406 -0.74307173
000060 cf 14 66 3e b4 51 af be c2 67 99 3e 9e df 87 3e
       0.22468875 -0.34242022 0.29961973 0.26537794
000070 ea 71 06 3f bb e3 52 3e 60 8d 93 3e 73 2a 04 3e
       0.5251757 0.20594685 0.28818798 0.12906818
000080 a2 d0 f8 bd 72 de 1a 3f f2 86 e4 3e 4e b7 b4 3e
       -0.121491686 0.60495675 0.44634205 0.352961
000090 bb 67 c2 be 7a 0f db be f9 71 51 3d e7 b3 b2 3e
       -0.37969765 -0.42785245 0.051134083 0.3490288
0000a0 42 a6 e8 3b dd 62 b5 be c1 de 53 be 95 f4 ab 3e
       0.0070998976 -0.3542699 -0.20690443 0.3358504
0000b0 7c 2c fb 3e 80 bc 76 be 51 6d b3 3e ad b0 4a be
       0.49057376 -0.24095345 0.3504434 -0.19793959
0000c0 b3 c5 6b be cb 54 d6 3e f5 74 11 3f 4c ad da be
       -0.23024635 0.41861567 0.5681909 -0.4271034
0000d0 6b 61 51 3f 59 91 4c be 35 7e 91 3e b1 03 c8 3e
       0.81789273 -0.1997732 0.284166 0.39065316
0000e0 9a 50 89 3e b4 12 2f be aa e4 2c be d0 c2 d7 3e
       0.26819307 -0.17096978 -0.16884103 0.42140818
0000f0 47 2a 7d bd e9 ac 68 3e e5 e8 8f 3e 03 cf 18 be
       -0.061807897 0.2272221 0.28107372 -0.14922719

embed.weight f4 [171, 32]
000000 17 84 0c be f9 a9 27 3f 1c 96 91 be b7 7c c3 be
       -0.13722263 0.6549373 -0.28434837 -0.38181087
000010 62 5c 00 40 c5 b0 01 3d 19 2a 85 3f ae 68 b3 3e
       2.0056386 0.03166272 1.0403472 0.35040802
000020 c9 91 83 bf 63 d2 c1 3e 1f f1 df bd 49 54 a5 3d
       -1.0278865 0.37855825 -0.10934662 0.08072717
000030 44 4b 06 bf 46 b6 8f bf 20 44 90 3f 7c 4e 96 3e
       -0.52458596 -1.12275 1.127079 0.29356754
000040 33 c3 89 bf ef cd 4a bf 5c ca 78 3f 40 83 fe 3d
       -1.0762695 -0.7922048 0.97183776 0.12427378
000050 d8 f6 05 3d 1f 5d b6 3e a9 7c e8 bf 9c ad 55 3e
       0.03270611 0.3561792 -1.8163043 0.20867008
000060 f0 56 3e 3f d1 3d 12 3f a4 40 3c be c9 67 bf 3b
       0.74351406 0.57125574 -0.18384033 0.0058412296
000070 d3 0f 26 3f e2 93 ad 3f c3 03 40 3f a0 bf 08 c0
       0.64867896 1.3560755 0.7500574 -2.1366959
000080 c0 77 17 bf 99 07 c1 3e 48 f3 bb 3f bb 15 a6 bc
       -0.591671 0.3770111 1.4683619 -0.020274034
000090 58 21 3f bf 17 31 ce be d3 9c 61 3f b7 b7 6a bf
       -0.74660254 -0.40271828 0.8812992 -0.91686577
0000a0 27 70 af bf 26 b5 83 bf cd 45 b2 3e e0 db b2 bf
       -1.3706101 -1.0289657 0.3481888 -1.397335
0000b0 9b 8c 41 bf d8 d6 e0 3f 8f e5 ed 3e 1b b6 d1 bf
       -0.7560517 1.7565565 0.46464202 -1.6383699
0000c0 6e e4 2f bf bb e6 e5 3f 17 4e 87 be 6c 46 37 3f
       -0.6870793 1.7961038 -0.26426765 0.7159183
0000d0 a7 94 30 3f cf fc 9a bd 06 3a bc be 05 8c ad bf
       0.68976825 -0.07567751 -0.36763018 -1.3558356
0000e0 5e ed 43 c0 ff 5f a0 3e a1 f2 8b 3f b3 5e ce 3e
       -3.0613627 0.3132324 1.093342 0.40306625
0000f0 96 c1 0c bf 0a 3c 65 be 15 47 da 3e 80 ca b7 bf
       -0.5498289 -0.22386184 0.42632356 -1.4358673
000100 99 02 93 3f dc bd 4d 3e 5b ac 86 bf 2b c9 31 bf
       1.1485168 0.20091957 -1.0521349 -0.6944758
000110 56 2b 77 3f df 89 f8 bf 6a cf 7f 3f 89 de bf 3d
       0.965505 -1.9417075 0.99925864 0.09368617
000120 83 8f 5d 3e 2d b2 b9 bd cf 62 8e 3e 28 b8 4f bf
       0.21636777 -0.090671875 0.2780976 -0.81140375
000130 89 20 72 3f e3 0c b6 3e 22 a9 2e 3f 11 2f 65 bf
       0.94580895 0.35556707 0.68226826 -0.8952494
000140 ce 56 cb bf bc e3 7f 3e 51 73 79 bf c5 8e 73 3f
       -1.5885866 0.24989218 -0.97441584 0.95139724
000150 83 5d ac 3f 77 e3 84 3f b2 08 ea be 68 c6 ec bf
       1.3466038 1.0381917 -0.4570976 -1.8498049
000160 aa d8 44 3e a0 f9 75 bf 62 37 d7 be cc 7c 75 3f
       0.19223276 -0.9608402 -0.4203444 0.9589355
000170 63 ea 14 bf 0d c2 96 3e a4 db be 3b 43 80 f3 3e
       -0.58170146 0.29444924 0.005824523 0.47558793
000180 10 be 57 be fd d6 82 be 23 a6 c1 3e 6a 5b 33 3c
       -0.21068597 -0.25554648 0.37822065 0.010947088
000190 87 2f 12 3f 21 cd b0 3f 7a 80 97 be 69 e9 de 3f
       0.5710377 1.38126 -0.29590207 1.7414981
0001a0 64 d1 88 bc d4 44 ca bd 6b 03 28 bf ce 7c b2 3f
       -0.016701408 -0.09876409 -0.65630215 1.3944337
0001b0 b7 11 94 bf 1a c7 81 3e fb c8 02 3f 80 eb 0c bf
       -1.1567906 0.25347215 0.5108792 -0.55046844
0001c0 c4 11 65 3f aa 6c 48 3e 6f b3 cd bf 27 1a 02 c0
       0.89480233 0.19572702 -1.6070384 -2.0328462
0001d0 4c 0e 97 be 64 3d 8c be fe 35 23 3e ad 6b dd 3f
       -0.29503095 -0.27390587 0.15938565 1.7298485
0001e0 ea d8 9c 3e 96 e1 15 3f c8 7b f7 bf 02 3a ee be
       0.30634242 0.5854734 -1.933465 -0.4652863
0001f0 62 91 18 bf 91 19 0d be 9d f8 c4 3f 72 b8 85 bf
       -0.59596837 -0.13779284 1.5388371 -1.0446913
000200 31 37 2b 3f e6 04 ea bd 22 79 9f be 61 fe 9e bf
       0.6688109 -0.114267156 -0.31147105 -1.242138
000210 ea 0c d6 3f 5c 1f f1 be ce 7e 8e 3f f0 c5 db 3e
       1.6722691 -0.47094238 1.1132448 0.42924452
000220 b7 70 b5 bf 17 87 86 bd 0f 97 01 be e7 5b d7 be
       -1.4175023 -0.06568735 -0.1265528 -0.42062303
000230 c9 8a d5 3e 48 48 e2 3e 6f 34 84 bf 58 69 eb 3d
       0.41707447 0.4419577 -1.0328501 0.11494702
000240 ca 93 6f bf f8 34 b7 3f c6 90 e8 be 7d 95 06 3f
       -0.93584883 1.431304 -0.45422953 0.5257185
000250 37 19 5a 3f d3 c6 c7 bf 0d 26 6c 3e fd 04 49 3f
       0.85194725 -1.5607551 0.2306139 0.78523237
000260 7c f9 13 40 a3 b1 98 3f 5f 38 0a 3f 9f 0e 85 3f
       2.3121023 1.192921 0.53992265 1.0395087
000270 9b 49 2d be c2 04 5c 3e 02 d6 29 be b1 a3 11 bf
       -0.1692261 0.2148619 -0.16585544 -0.568904
000280 41 8d 74 3f 83 60 0f 3f f2 76 69 3d d9 2e c5 be
       0.95528036 0.5600664 0.0569982 -0.38512304
000290 90 6b 3d 3f 7e c2 e3 bf dd 7f 09 3f b2 c4 2c bf
       0.7399225 -1.7793729 0.5371073 -0.67487633
0002a0 13 9d 04 3f 8b 4e 76 3f a2 32 7f bf de f6 e5 be
       0.51802176 0.962136 -0.99686635 -0.44914907
0002b0 6d 5a de 3f 69 a9 cf bf 6c 10 40 3f 14 e0 5a bf
       1.7371346 -1.6223575 0.7502506 -0.85498166
0002c0 f8 fa c8 be 2a c1 cb 3f 41 21 ab bf 3c 35 70 bf
       -0.39253974 1.5918324 -1.3369523 -0.9383123
0002d0 42 0e 91 3d 17 1d a9 bf b7 79 76 bf 51 52 a7 3d
       0.070827976 -1.3212003 -0.9627947 0.081699975
0002e0 1e 38 b3 3e 80 bf 3c be 1d a0 c0 be 72 43 46 3f
       0.35003752 -0.18432426 -0.37622157 0.77446663
0002f0 cd 00 03 3f fd bf f4 bd 9b 5a bb bf 32 24 b2 3d
       0.51173097 -0.11950681 -1.4637026 0.0869831
000300 4b cc 70 3e a3 ab 04 40 95 41 1f bf 3f 79 2a 40
       0.23515432 2.0729759 -0.62209445 2.6636503
000310 47 c8 d5 be 14 aa 7b bf dd ad ce 3d 64 50 e3 3e
       -0.41754362 -0.98306394 0.100917555 0.4439727
000320 f3 4a 02 40 bd 51 4a bf a6 50 da be 18 ae 84 3e
       2.0358245 -0.7903097 -0.42639655 0.25914073
000330 78 09 a2 bf dc a7 12 40 af 6c 02 c0 9b bf db bf
       -1.265914 2.2914953 -2.0378835 -1.7167848
000340 1c e0 c7 3f 57 7a 3e 3e 11 db 95 be 7e 90 08 bf
       1.5615268 0.18601356 -0.29268697 -0.5334548
000350 1f eb 81 3f 4e 36 0e bf a7 bb 81 c0 cf d6 f1 3f
       1.0149878 -0.5555161 -4.054157 1.8893679
000360 91 4e f1 3f 33 71 64 bf e4 18 04 c0 c6 a0 8f 3f
       1.8852102 -0.8923523 -2.0640192 1.1220939
000370 10 02 c0 bf 94 8d da bf 3b 67 23 3d d4 2c d5 be
       -1.500063 -1.7074456 0.03989337 -0.41635764
000380 c6 32 91 bf 45 36 01 40 ca c4 a7 3f b8 c4 cf 3d
       -1.134362 2.0189373 1.310693 0.10144943
000390 79 9c fe 3f 27 b9 42 bd 63 28 84 bf d2 60 27 3f
       1.9891502 -0.047539856 -1.0324825 0.6538211
0003a0 78 af e7 be a4 df 3b 3e ee 15 96 bf a6 d2 97 be
       -0.4525106 0.18347031 -1.1725442 -0.296529
0003b0 ba c9 7b bf fd cc 43 40 4d f8 85 3e 91 3d 4f 3f
       -0.98354685 3.0593865 0.26166 0.8095332
0003c0 27 37 3e 3f 21 0d 9f 3f 1c 83 c1 bf 1a 5b ea 3e
       0.74302906 1.2425882 -1.5118136 0.4577263
0003d0 42 5f 97 bf e3 3a e4 bf 62 67 d2 3f 8f 76 81 3f
       -1.1825945 -1.7830471 1.64378 1.0114306
0003e0 1a 13 fb bf 68 50 7b 3e a4 14 1c c0 e4 76 39 3f
       -1.9615204 0.24542391 -2.4387598 0.7244704
0003f0 0a b9 a0 3f ec 7f e2 3e 3c cf 82 3f 7f 8f 4a 3f
       1.255647 0.44238222 1.0219493 0.7912521

embed_bias.weight f4 [171, 32]
000000 96 6a 6a bf 29 9a 94 bf 7f da e5 be db 68 9f bf
       -0.9156889 -1.1609546 -0.44893262 -1.2453874
000010 c4 3c bc 3e 21 6c 00 3d bb f7 01 bf 5a ae 9a 3f
       0.3676511 0.03135312 -0.5076863 1.2084458
000020 f6 43 88 3e 2b 84 2a 40 a2 ff 9b 3f 00 75 84 bf
       0.2661435 2.664317 1.2187388 -1.0348206
000030 0a ac 10 c0 65 9d 7d 3d 8b 62 4a 3f 93 b3 59 be
       -2.2605004 0.06191768 0.79056615 -0.21259908
000040 54 8d 02 be 3c f9 e1 3d ed 1b 83 bf f6 16 e1 3d
       -0.12749225 0.11033866 -1.0242897 0.109907076
000050 32 ad 25 3d 79 f3 6e 3e 3b 92 24 3e 4f 49 d4 3e
       0.040448375 0.23335065 0.16071407 0.4146218
000060 ff 88 35 bf 0e 28 16 be 05 8f 8d 3f 10 c1 8a bf
       -0.70912164 -0.14663717 1.1059271 -1.0840168
000070 e7 ec 61 3e 3a c7 aa 3e cf 16 05 3f 58 9a f2 3e
       0.22063027 0.33355123 0.5198793 0.4738338
000080 1c dd 8c 3e ff 74 dd 3e cd 61 aa be bf f5 fc be
       0.27512443 0.43253323 -0.3327774 -0.4940624
000090 db d2 eb bf ac 81 53 bf af 0b e2 be 73 5a 78 bd
       -1.8423723 -0.8261974 -0.4414954 -0.060633134
0000a0 d6 b2 a7 3f 4f 46 89 bf 86 db 18 bd cb 6d 10 bf
       1.3101451 -1.0724581 -0.03731873 -0.5641753
0000b0 c3 e4 e4 3e 03 98 43 3f 92 f2 16 40 36 b2 16 3f
       0.4470578 0.76403826 2.3585553 0.5886568
0000c0 83 e3 78 3f 1b fa b1 3e bd 37 b1 3e d5 1f e9 3e
       0.97222155 0.34761128 0.34612837 0.45532098
0000d0 2f 15 ab bf 8f 9a 89 39 b6 b3 30 bf 8d 2c 25 bf
       -1.336584 0.0002624583 -0.6902422 -0.64521104
0000e0 80 81 0c 3e 81 38 35 bf e1 ac c7 be 0b e2 aa 3e
       0.13721275 -0.70789343 -0.38999084 0.33375582
0000f0 bd 8b 58 3e 34 d4 b6 3f c3 20 01 c0 52 6d 15 bf
       0.21147056 1.4283509 -2.0176246 -0.58369935
000100 1c 05 8d 3f b2 87 e7 bf cd 80 06 bf be a2 a9 3b
       1.1017184 -1.8088286 -0.52540284 0.005176871
000110 aa d2 82 3f 96 7c 6f be d6 e2 d3 3f 6c bb 94 3e
       1.022054 -0.2338737 1.65536 0.29049242
000120 29 e0 20 bf fb 24 e6 be ee a8 a0 bc 6b ca ba bc
       -0.6284204 -0.4495009 -0.019611802 -0.022801599
000130 0f f7 aa 3d df 96 58 3f 23 7d 9d bf 36 bc 59 bf
       0.08347904 0.8460521 -1.2303814 -0.8505281
000140 1b 0b f5 be 2b ca 0c be f8 80 4f 3f bb e5 f3 bf
       -0.47860035 -0.13748996 0.81056166 -1.9054483
000150 64 70 ec 3d 9c e5 a6 3f aa f7 21 bf 86 0c 0e bf
       0.11544874 1.3038821 -0.6326853 -0.5548786
000160 b7 9f 53 3f 03 89 3a 3f 65 65 b5 3f 6a 72 da bd
       0.8266558 0.72865313 1.4171568 -0.10666354
000170 12 67 fb 3e c1 ee 5d 3f 3b 71 82 bf b3 e3 b5 be
       0.49102074 0.86692435 -1.0190805 -0.35525283
000180 28 cc 2b bf d0 7e 24 3e 3b 27 ed 3e b0 4b a6 bf
       -0.6710839 0.16064 0.46318993 -1.2991848
000190 70 8c 8d 3f 8f d9 00 c0 df b7 8e be 99 b4 95 be
       1.1058483 -2.0132787 -0.27874658 -0.29239348
0001a0 b4 b6 bf 3f 0d 35 aa bf 7b 15 ae bd a9 5e 0a 40
       1.4977632 -1.329744 -0.08500191 2.1620276
0001b0 c0 5a 67 bf a3 f1 96 bf f8 88 25 bf f3 3c 3d be
       -0.9037285 -1.1792492 -0.6466212 -0.18480282
0001c0 3c f0 f0 bc 36 6e b5 be 25 25 a5 3e a7 d3 86 3f
       -0.029411428 -0.35435647 0.32254902 1.0533341
0001d0 02 40 d5 be f9 cd ce 3f 65 d8 1a 40 c3 ea 09 c0
       -0.41650397 1.6156608 2.4194577 -2.1549537
0001e0 ea a2 7a 3f 10 68 52 3f 93 41 8c bc e4 6f 04 bf
       0.9790484 0.82190037 -0.017121112 -0.5173323
0001f0 ff 13 ae bc 52 33 5c 3f d3 b1 a3 bf 27 1c 98 3e
       -0.02124977 0.8601581 -1.2788643 0.2970898
000200 2e 04 4a be 9a c8 85 3d 78 51 56 bf b9 cb 64 bf
       -0.19728157 0.06532402 -0.8371806 -0.89373356
000210 66 f5 b0 3b 08 bb c4 bf 80 e8 5a bf c8 86 8a 3d
       0.0054003475 -1.5369577 -0.85511017 0.06763989
000220 94 6f c3 bf 33 dd 3f 3f aa d6 e5 be d6 a6 ce bd
       -1.5268426 0.749469 -0.44890338 -0.10090415
000230 80 ac 7f be d1 24 ee 3e 18 8d ba bf 8e 20 37 40
       -0.24968147 0.46512464 -1.4574308 2.861362
000240 e4 18 60 3f de 09 d4 be 40 5a b9 3f e2 99 a5 be
       0.8753798 -0.41413778 1.4480667 -0.32343966
000250 74 48 ee 3f 74 35 84 bf df be 41 3f 98 a3 0a 3f
       1.8615861 -1.0328813 0.7568187 0.54155874
000260 6e e5 d1 bf 7f e3 3e bd a6 2b 23 3f 94 f2 ef bc
       -1.6398141 -0.046603676 0.6373848 -0.029290475
000270 09 a1 be bf 56 0e 0e bf 92 4d 20 3f 66 7a 0c 3f
       -1.4892894 -0.55490625 0.6261836 0.54874265
000280 26 13 e1 3e 42 52 c1 3d 1b dd 57 bf 8d d3 08 bf
       0.43959922 0.094395176 -0.84321755 -0.534478
000290 2a 80 0e c0 d1 b1 89 bf 44 a8 6a bf c1 be 82 bf
       -2.2265725 -1.075739 -0.91663 -1.0214463
0002a0 ec 3d cf bc 69 98 5e 3f 75 11 55 bf 78 a4 d7 be
       -0.025298081 0.8695131 -0.8322976 -0.42117667
0002b0 de 45 62 bf be 1b 86 be 3d 62 97 be 56 eb c0 3e
       -0.8838786 -0.2619304 -0.29567137 0.37679547
0002c0 26 5b 0f bf 0c 6b a7 3f ef 30 d4 bf 90 3b 1a 3f
       -0.55998456 1.3079543 -1.6577433 0.60247135
0002d0 a8 2f 18 3f e6 b9 e1 bd 29 9a 47 3e b5 4d f7 3f
       0.5944772 -0.110217854 0.19492401 1.9320589
0002e0 ef 79 69 bf 7a 25 14 c0 9f c2 bb be 86 f3 ce 3d
       -0.9120168 -2.3147874 -0.36671922 0.10105042
0002f0 d6 e0 38 bf 4c 58 0a 3f 90 4f 9c 3d 2e 87 d0 3e
       -0.7221807 0.5404098 0.07632363 0.40728134
000300 7b ba ea bd 18 0a 88 bf 34 25 e6 3e e1 73 4f bd
       -0.114613496 -1.062808 0.4495026 -0.05064762
000310 29 46 36 3f 67 bc 77 3e 0f 66 80 bf 5e 21 1c c0
       0.71200806 0.24192964 -1.0031146 -2.4395366
000320 94 ea a8 3e 49 3b b2 bf cb 20 e5 be a5 23 97 3f
       0.3299147 -1.3924342 -0.44751582 1.1807753
000330 a5 d0 08 3e 56 ad 4a be 6a e7 19 c0 1a 36 09 40
       0.13360842 -0.19792685 -2.4047494 2.143927
000340 d8 44 95 3f 7c 3b 99 bf 04 a6 03 40 78 1f ea 3d
       1.1661634 -1.1971278 2.0570078 0.114317834
000350 b8 24 58 3f cb eb 78 be 22 43 85 3f dc 34 b1 3b
       0.8443103 -0.24308698 1.0411112 0.0054079127
000360 b5 07 45 bf d7 12 c4 3f cb b9 99 3f 0d 4f 95 3f
       -0.76964885 1.531825 1.2009825 1.1664749
000370 1e f4 ee bd 53 da 22 3e 96 62 0f c0 7d 8b 75 3f
       -0.116676554 0.15903597 -2.2403922 0.9591597
000380 e8 af 28 3f 04 37 bd 3e 26 b9 d4 3e f2 8f fd bf
       0.6589341 0.36956036 0.41547507 -1.9809554
000390 3f 56 d2 bf dd 7a d0 bf 46 c7 d2 bf e7 80 1e c0
       -1.643257 -1.6287495 -1.6467063 -2.4766176
0003a0 f5 e5 d5 bf b0 9d b6 3f 5f df 3f be 82 54 84 3f
       -1.6710802 1.4266872 -0.18737553 1.033829
0003b0 b1 17 ab bf c0 b7 df 3d 06 30 14 3f ab dd da 3f
       -1.3366605 0.109237194 0.5788578 1.7098898
0003c0 04 2e a3 3f 59 81 0d 3e 53 5f 24 bf 8f db 68 3f
       1.2748418 0.13818873 -0.64207953 0.9096002
0003d0 ff e1 7a 3e 84 78 06 3f e3 89 03 c0 33 dc 5a bf
       0.24500273 0.5252764 -2.055291 -0.8549225
0003e0 a1 af 5c bf 02 b1 e3 bd 37 94 6b 3e 27 ae 58 bf
       -0.8620549 -0.11117746 0.23005758 -0.84640735
0003f0 ea 23 c9 be c1 2d f2 3f a0 ae 6d bf 9f 3b 90 be
       -0.39285213 1.8920213 -0.9284458 -0.28170487
