data/models_parameter/BTFeature_param.pth (torch, 112385 bytes, 7 tensors)

feat_mlp.0.weight f4 [128, 60]
000000 a4 bd a1 3e 72 57 8d 3c 89 1a ff bd 32 cd 04 3e
       0.31589997 0.017253611 -0.12456233 0.12968901
000010 d8 c2 76 3d d0 fa 2f bc 4c 36 67 3e ad a4 04 bd
       0.06024441 -0.010740951 0.22579306 -0.03238361
000020 26 53 fe 3d c0 8a 73 3d 33 f9 ed bd 23 5f 40 bc
       0.12418203 0.059458494 -0.116197966 -0.011741432
000030 d9 ea 35 3c 8f 7b 0a 3e 0a c7 36 3e dd 66 c2 bd
       0.011103355 0.13523696 0.17849365 -0.09492276
000040 f2 4b ae 3c 35 c7 ed bd f0 8a bf 3a 5c b5 a9 bd
       0.021276448 -0.11610261 0.001461355 -0.08286545
000050 30 ae b6 bd 5b 9f f5 3d 01 c1 9f 3e fd 8d ee bd
       -0.089199424 0.11993285 0.31201938 -0.11648176
000060 a9 56 80 bc 7d f8 93 bd cc 75 1f be 60 f0 da bd
       -0.015666323 -0.0722513 -0.1557228 -0.10690379
000070 8d cf 18 3e d6 dd 12 bc 1c 0e 52 be 6b 76 b7 3d
       0.14922924 -0.008964023 -0.20513195 0.08958133
000080 a6 60 d0 bd db 45 c8 bb 90 47 52 be c8 bf 61 3d
       -0.10174684 -0.006111843 -0.20535111 0.055114537
000090 6f ff ea 3e 82 b2 13 3e ba 34 77 be 5c ee bb 3d
       0.45898005 0.14423564 -0.24141207 0.09176323
0000a0 9c b4 93 be 95 80 32 be 8a 7e 00 be 12 04 81 3d
       -0.28848732 -0.17431863 -0.12548271 0.062996045
0000b0 b0 ab c9 3d b5 3c 2c be 87 8a 0c be 6d ff 8e be
       0.098472 -0.16820033 -0.13724719 -0.2792925
0000c0 30 fd 0a 3d c8 a2 02 be c0 21 6d be fb 71 74 3e
       0.033932865 -0.12757409 -0.23157406 0.23871605
0000d0 6d 75 05 3d 65 cb ec 3b 63 8e 00 3d 02 1b d9 bb
       0.03258269 0.007226395 0.03138579 -0.006625534
0000e0 df 94 20 bd 97 9a 74 be 23 75 be 3c a3 5a 1a be
       -0.039204475 -0.23887096 0.023249215 -0.15073638
0000f0 97 a3 31 3e 5f 58 31 be c5 da 76 be 5a 28 fa 3b
       0.17347561 -0.17318867 -0.24106891 0.007634205
000100 04 e1 42 be f4 4c 34 3e dc f7 c8 bc d8 5e fb bc
       -0.19031149 0.1760748 -0.024532251 -0.030684873
000110 ac 99 38 3e ec 84 25 3d c0 ae f2 3c 82 be e1 bc
       0.18027371 0.040409967 0.029624343 -0.027556662
000120 cd b8 2f 3d ca 68 a4 3c 50 cb 4c be ac 85 c3 3c
       0.04290085 0.020069499 -0.19999433 0.02386745
000130 88 35 35 be ba dd 15 3d 94 ba 7c bd 60 60 d4 bb
       -0.17696202 0.036588408 -0.061701372 -0.0064812154
000140 ac 9c 8c bd 2b e1 7d be 6f 85 c5 3e e1 20 5c 3e
       -0.0686582 -0.24792926 0.38578364 0.21496917
000150 df 57 b8 3d 3c 9d 23 3d 6d 61 92 3e a8 2c 80 3e
       0.09001135 0.039944872 0.28589955 0.2503407
000160 62 e8 37 3d 17 6a 70 3d cb 8e 1e 3e 87 96 8c be
       0.044899352 0.058694925 0.15484159 -0.27458593
000170 e0 af 0e 3e 33 02 84 3e 3a 84 3d be ab e2 96 be
       0.13934278 0.25782928 -0.18507472 -0.2946981
000180 b9 dc 20 3f 83 50 d2 bd 79 83 51 bd 4f 00 dc bd
       0.62836796 -0.10269263 -0.051150773 -0.10742246
000190 c7 aa 03 3c bf 88 70 bc bb fc 1f 3d 5f 6d 5f be
       0.008036322 -0.01468104 0.039059382 -0.21819066
0001a0 bf bb 5b be 21 21 88 bd ab bf 5f 3c 8e 0b 4a be
       -0.21458338 -0.06646944 0.013656537 -0.1973097
0001b0 00 c0 ca bd 90 4b e4 3c 69 8a 8b 3e d9 21 3d be
       -0.09899902 0.027868062 0.27254036 -0.18469943
0001c0 9e 69 18 be 46 31 49 be 92 3f b9 3d de b8 9a bd
       -0.1488404 -0.19647703 0.09045328 -0.07554792
0001d0 15 94 83 be fc 44 a4 3d 12 0a 47 3d 49 7e 0e be
       -0.25698915 0.0802097 0.04859359 -0.13915361
0001e0 8f b6 3f be 69 59 d4 be 1e a3 22 3c 63 83 85 b9
       -0.18721984 -0.41474465 0.0099265855 -0.00025465628
0001f0 9e cc 17 3e 9f 08 b8 bd e2 aa 2a 3e 22 57 5f 3d
       0.14824149 -0.08986019 0.16666749 0.054526456
000200 0f a4 8c 3e 5f 20 11 bd 8e ed 8f bd 3e 42 70 be
       0.27468917 -0.035431262 -0.07027732 -0.2346277
000210 02 dc ac bd 42 ee 2f 3d ef 81 d9 3d ea 43 2e bd
       -0.08440401 0.04295183 0.10620486 -0.042545237
000220 e3 72 b9 3d 91 c1 2f 3e b4 dc a5 3d 32 09 8e 3d
       0.09055116 0.17163683 0.080987364 0.069353476
000230 36 a0 a0 bd 8c 0e da 3d 87 d4 36 be 1c 21 a8 3d
       -0.07843058 0.10647306 -0.1785451 0.0820944
000240 dc a8 8c be 02 a1 39 3e 9e 93 d3 bd be 55 b8 bc
       -0.2747258 0.18127826 -0.1033089 -0.022501823
000250 49 72 89 3e 08 99 f2 3d 4f d6 62 3d fa dd 49 3d
       0.26845005 0.11845595 0.05538016 0.04928396
000260 31 ab 61 3d 28 2f 91 bd ac 30 de be 21 e7 62 3d
       0.0550949 -0.070890725 -0.4339651 0.055396203
000270 a6 a4 dd 3e 22 47 2a 3e 8d e4 11 3e 76 ea 22 be
       0.4328968 0.16628698 0.14247341 -0.15909752
000280 9a 74 81 be 3a 77 4b bd f5 1f 3a bb fe 75 15 3a
       -0.25284272 -0.04967425 -0.0028400396 0.0005701481
000290 ec 6d 81 3d 90 12 15 3e 51 6c 43 be 49 82 54 bd
       0.06319794 0.14557862 -0.19084288 -0.051882062
0002a0 ba 06 9b bd 06 7d df 3d af ee b1 be 05 18 20 3e
       -0.07569642 0.10912518 -0.34752414 0.15634163
0002b0 22 2c bc 3d 84 3b 0a 3d c7 ba d3 bd 19 61 ea 3d
       0.09188105 0.033748165 -0.10338359 0.11444301
0002c0 bd 38 8d 3d 51 e2 f3 bd c2 94 be 3d 89 1a 33 be
       0.068955876 -0.11908401 0.09305717 -0.17490591
0002d0 87 0d 4b bd 6f 11 8d be 15 4a 39 3e 34 07 79 3d
       -0.049573448 -0.27552363 0.18094666 0.060797885
0002e0 e2 7f 1b be e3 1e 6e bd 4c 36 ee bd d6 e6 f0 3d
       -0.15185502 -0.058134925 -0.1163145 0.117627785
0002f0 65 63 1e be 38 d6 08 3e bd f4 dc bd 63 9b 15 3e
       -0.15467604 0.13362968 -0.107888676 0.14610057
000300 bc fc b2 bd ef 4d 78 be 73 e6 f9 3d f9 80 88 3d
       -0.087396115 -0.2424848 0.12202158 0.066652246
000310 b0 cb 17 3b 34 93 ed 3b 5f 8c e5 bd 62 8b 92 3d
       0.0023162179 0.007250214 -0.11208414 0.071554914
000320 c3 f0 b7 bd 05 07 18 3e ac ed 1c be 05 b7 d4 3c
       -0.089814685 0.14846428 -0.1532504 0.025966177
000330 b6 d8 12 3d e1 ec 8f 3e 20 f0 47 be 30 c8 8c 3c
       0.035851203 0.28110412 -0.19525194 0.0171853
000340 cc a8 b5 3d b7 66 f1 3d e4 6f 57 be ef b7 3d 3d
       0.08870086 0.117871694 -0.21038777 0.04631799
000350 1b 06 0e 3e 3c d8 b8 3e 68 b2 d8 3e a2 39 21 3e
       0.13869517 0.36102474 0.42323613 0.15744641
000360 e5 89 ab be e0 8e b7 3b a7 c7 7d be 0c 6b 49 3e
       -0.33503643 0.005601749 -0.24783193 0.19669741
000370 14 c8 94 3e ef 11 ca bb 84 6f 19 3e 5b f3 1b be
       0.29058897 -0.0061666886 0.14983946 -0.15229551
000380 1e 5a 4e 3d 23 b5 d9 3d e3 bc 1d be da 0a 43 bd
       0.05037891 0.10630252 -0.15404086 -0.04761777
000390 14 8a 84 bb 84 02 95 3c e9 cf b0 3c 94 89 0f 3d
       -0.0040447805 0.018189676 0.021583514 0.035043314
0003a0 e1 f5 3f be bf c3 ff 3d 74 3b 67 3e 36 91 6d 3e
       -0.18746139 0.124885075 0.22581273 0.23199925
0003b0 5b b0 a4 3c 20 5b 34 3e b7 18 7f be e8 c7 d8 3d
       0.020103624 0.17612886 -0.24911772 0.10585004
0003c0 0d bd ce 3d 79 e8 23 be 9e 34 5b 3d bb f8 69 be
       0.10094652 -0.1600665 0.053516977 -0.2284879
0003d0 98 6d e4 3d 5f 50 2c 3e 8e d9 d9 bd 72 ca 4c 3d
       0.11153716 0.16827534 -0.106371984 0.049997754
0003e0 2d 2f 49 3e 57 1f 72 bc 0d af 8d 3e b7 e2 31 be
       0.19646902 -0.01477798 0.27672616 -0.17371641
0003f0 18 0a 13 3e 2b cc c3 bd d6 10 37 3d 67 af 35 be
       0.14359319 -0.09560426 0.04469379 -0.17742692

feat_mlp.0.bias f4 [128]
000000 31 a9 2d bd 7f 4d 9c 3d 7e 83 5d 3d c3 14 09 3d
       -0.04239768 0.07631969 0.05408048 0.033467066
000010 e4 3c 06 bd ca e8 15 3c 29 a4 04 3c 43 9c 4b be
       -0.032772914 0.0091497395 0.008095779 -0.19883828
000020 d4 0a b1 bd dd 87 0d be 43 81 30 be 0c e0 99 3d
       -0.086446434 -0.13821359 -0.1723681 0.07513437
000030 c5 8d fe bd 14 c7 88 bd c7 ac 2f 3d 16 66 be bc
       -0.12429384 -0.06678596 0.042889383 -0.023242038
000040 10 e5 8f bd fe 90 a6 3d ec a9 bd bd c1 f6 b0 bc
       -0.07026112 0.08133124 -0.09260926 -0.021602036
000050 47 3d 9f be a6 fe df bd cd 0d 8e bc 58 42 60 3d
       -0.31101438 -0.10937242 -0.017340565 0.05475077
000060 0c cd bd 3c e6 f1 cb bd cf 07 1a be f6 dc cc bd
       0.023169063 -0.09958248 -0.15042041 -0.100030825
000070 8a c1 20 be ae ec 74 be 89 53 ca bd 52 97 3b 3d
       -0.1569883 -0.23918411 -0.09879214 0.045798607
000080 b6 c4 d9 bc f5 ed 21 be cb 68 ca 3d 38 a1 1b bd
       -0.026583057 -0.1581343 0.09883269 -0.037995547
000090 ab 35 c8 bc 58 cd f9 bd 90 a1 1a 3d c7 c8 1f 3d
       -0.024439653 -0.12197369 0.037751734 0.039009836
0000a0 85 c2 c7 bd c7 0e 99 3c 90 73 d4 3d ce e2 1b be
       -0.097538985 0.018683804 0.10373604 -0.15223238
0000b0 3b 09 81 3e 2c 94 76 be 30 42 19 bd c6 db 30 be
       0.25202355 -0.2407996 -0.037416637 -0.17271337
0000c0 1d 16 c2 bc 7b 23 a1 bd 14 37 18 be b0 31 02 be
       -0.023692185 -0.078680955 -0.1486476 -0.12714267
0000d0 8b 08 09 bc af 53 69 bd ee fe 76 be 87 8b 3b bc
       -0.008363853 -0.056964573 -0.24120685 -0.01144684
0000e0 d5 41 03 be 70 74 b9 3c f3 42 c5 bc 1b 5d 45 bb
       -0.12818082 0.02263853 -0.024079775 -0.003011531
0000f0 cf 82 b4 bd 62 37 30 3d 47 d0 94 be d4 42 dc 3d
       -0.08814012 0.043021567 -0.29065153 0.10754934
000100 e1 6b c2 bd e5 a4 34 bd a6 7c 77 bd 74 31 8f 3d
       -0.094932325 -0.04410257 -0.06042161 0.06991854
000110 73 eb d4 bd f4 a7 c5 bd bb 68 ed bd 1c b1 11 bb
       -0.10396471 -0.09651175 -0.115922414 -0.002223081
000120 c0 6a 63 be 72 4e 8c 3b 3c a3 30 3e 9d 3a da bd
       -0.2220869 0.0042818123 0.17249769 -0.10655711
000130 ea 46 50 bd f6 e0 9a 3d 22 a3 76 3d 1b 1a d5 be
       -0.05084888 0.07562439 0.06021417 -0.4162148
000140 2f 59 fe bd 36 dd f4 bd 37 30 9e bd 2c c3 e8 be
       -0.12419354 -0.11956255 -0.0772404 -0.45461404
000150 1a 1e df bd 86 d2 4b 3e 55 4f a9 bd 16 d9 0e bd
       -0.10894413 0.19904527 -0.082670845 -0.034874998
000160 6c 02 bf bd 54 05 03 be 21 ac d7 bb 3e ad 95 3d
       -0.09326634 -0.12795001 -0.0065817987 0.07308434
000170 dd 54 a3 bd ff 41 ca bd ac ba 5f 3d 62 de 9f bb
       -0.07975171 -0.09875869 0.054621384 -0.004878805
000180 e4 f9 c2 3d 55 b6 a5 3d a0 75 d9 3c 56 7b 6a bd
       0.09520319 0.08091418 0.026545346 -0.05724653
000190 d1 7c 07 be 52 ef b9 bd 88 8c 36 bd 33 36 10 3e
       -0.13231207 -0.0907885 -0.044567615 0.14083175
0001a0 48 81 56 be ed ce 8d bc a9 31 0f be c2 ac 5f be
       -0.20947754 -0.017310584 -0.13983788 -0.21843246
0001b0 63 70 64 be 70 1b fc bd 61 b6 be 3d a0 21 04 3e
       -0.22308497 -0.12309921 0.0931213 0.12903452
0001c0 23 3f 04 3c 86 f1 1f be 83 02 8d bc 5d 51 0a bc
       0.008071694 -0.15619478 -0.017213112 -0.00844225
0001d0 76 7a 9e be 40 00 a1 bd 91 39 1b be a1 1e 14 be
       -0.30952805 -0.07861376 -0.15158679 -0.14464809
0001e0 40 ad 28 be 78 3b d6 bd e9 cd 71 3d 2b 8f be bd
       -0.1647234 -0.104605615 0.05903426 -0.09304651
0001f0 4a 0c 10 3d a6 b0 d1 3c 7d e0 67 bc 0b 36 b9 bd
       0.03516797 0.025596928 -0.014152643 -0.09043511

feat_mlp.2.weight f4 [64, 128]
000000 36 d5 9b bc 82 b9 ef bd 3d 4f 2f 3e ea 75 03 3d
       -0.019022565 -0.11705305 0.17120071 0.032094873
000010 43 9e bf bd b3 11 a1 bd de fc d2 bd bc 50 a8 bd
       -0.09356358 -0.07864704 -0.10302137 -0.08218524
000020 1f cf aa bd 89 93 1a bc ac d0 34 3e dd 35 67 bd
       -0.083402865 -0.009434589 0.17657727 -0.056447852
000030 48 c1 d5 3c 1b aa 41 3e bb 24 bd bd 2a 15 05 bd
       0.02609314 0.18912546 -0.092355214 -0.032490887
000040 b5 90 64 3d ee 58 a3 bb 81 45 a6 3d 65 2c 4e 3d
       0.055802066 -0.0049849665 0.081187256 0.050335307
000050 7b db b0 3d 99 fa d7 bd 30 6c 27 be 62 6c e7 bb
       0.086356126 -0.105458446 -0.16349864 -0.007062481
000060 68 53 af 3c 56 f5 89 bd 7e 81 38 3e d2 fc 96 be
       0.021402076 -0.06736247 0.18018147 -0.29489762
000070 cb 33 c4 3d ee 33 c2 bb 81 14 b8 3c e6 13 5f 3c
       0.09580191 -0.0059266007 0.022470715 0.013615584
000080 87 1f 1d 3d 38 1a 79 3c ab 38 75 3d 9a 47 80 bd
       0.038360145 0.015204005 0.059868496 -0.06263657
000090 6c 06 7b be 96 ad 3c 3e 14 47 98 be c4 6c 81 3d
       -0.24514169 0.18425593 -0.29741728 0.063195735
0000a0 8f c5 9f 3d 7e 44 2c be 9b 94 2e be 7e b6 51 be
       0.07801353 -0.16823003 -0.17048876 -0.20479771
0000b0 63 fb 15 3d bf 34 47 bb ca 9b f0 bd 77 55 97 bd
       0.036616694 -0.003039643 -0.117484644 -0.07389348
0000c0 fa 6c be bc 52 c7 02 be ed 86 13 be 2a a3 fb bd
       -0.023245323 -0.12771347 -0.14406939 -0.122869805
0000d0 49 f7 87 3d 57 1b b7 bd ba 30 93 3d a8 2f 04 3e
       0.06638963 -0.089407615 0.07187028 0.12908804
0000e0 b0 0a 1c be f3 15 4f 3d 96 15 d1 bc 27 3a 97 bd
       -0.15238452 0.05055804 -0.025522988 -0.073841386
0000f0 2f c6 01 be c5 20 8f bd 15 5f 2f be 08 b6 bb 3d
       -0.12673257 -0.06988672 -0.17126115 0.09165579
000100 c7 0e 95 3b d6 cd ad 3d df d6 19 bc 5a fe 2e 3d
       0.0045488807 0.08486526 -0.009389608 0.042723037
000110 65 ba 5b 3e 13 08 15 bd 6d af 6b be b3 7f ad bc
       0.21457823 -0.036384653 -0.23016138 -0.021179056
000120 14 3a c5 bc f6 9b 4d bd 73 e9 41 3c 69 e7 43 3d
       -0.024075545 -0.050197564 0.011835444 0.04782811
000130 b0 43 2b be 6b a4 b7 bb 2d a3 2b 3e fd 50 4f bb
       -0.1672504 -0.005604317 0.16761465 -0.0031633966
000140 b9 34 d0 bd 4d 0b a2 3d e5 0f c8 3d 2e 5e b1 3b
       -0.10166306 0.07912312 0.09768657 0.0054128384
000150 94 2c 27 3e 91 90 19 3e 62 94 dd bb d4 78 f2 bc
       0.16325599 0.14996554 -0.0067620734 -0.029598631
000160 c5 70 48 3e 84 2d 61 be 13 e2 43 3e b7 18 83 bd
       0.19574268 -0.21990019 0.19129209 -0.06401198
000170 8d 7f eb 3c ab 2e ee bd 68 5d 11 bd d5 3c aa bd
       0.028747344 -0.11629995 -0.03548947 -0.08312384
000180 68 49 5b be 6f 6a 29 be 19 56 a5 3d 84 8b 82 bd
       -0.21414721 -0.16544507 0.080730624 -0.06374267
000190 e8 5d e8 3d 53 1b e6 bd f8 a7 0f 3e f2 74 e1 bc
       0.11346036 -0.112356804 0.14028919 -0.027521584
0001a0 8d 1e 83 bd 75 5a 60 be 62 41 51 be 21 a0 1f 3e
       -0.064023115 -0.21909507 -0.20435098 0.15588428
0001b0 88 22 81 3c c3 60 37 3d e9 71 ed 3d db 75 d4 bc
       0.015763536 0.044770014 0.11593992 -0.025935104
0001c0 4c 0f 14 bc 64 cd 2d 3e c1 15 c3 3d 98 0d 17 3d
       -0.00903685 0.16972882 0.095256336 0.0368782
0001d0 2c db 41 3e 3a 8e f4 bb f0 72 0a be df ef 78 bb
       0.18931264 -0.007463244 -0.13520408 -0.0037984771
0001e0 07 be 57 3d 1f 84 80 be ee 0e 9e bd 75 c6 99 3d
       0.05267146 -0.251008 -0.07717691 0.07508556
0001f0 4c 70 58 bd 22 15 7c 3d 31 af 7f bd 0f 6a 8f 3d
       -0.05284147 0.06154359 -0.062422935 0.07002651
000200 48 8e dd bd ba 0c 67 bd 9c 67 c6 bd 6e 07 af bd
       -0.108181536 -0.05640862 -0.09687731 -0.08546339
000210 74 60 72 bc d7 2f 2b 3d 96 75 35 3d aa 29 97 bb
       -0.014793504 0.04179367 0.04430159 -0.004613121
000220 0f c0 92 bd f0 16 93 bd 6b f5 a5 3c 20 57 96 bd
       -0.071655385 -0.07182109 0.020258626 -0.073408365
000230 35 9d f1 bc dc 5d f5 bc a5 74 a0 bd 81 b7 04 bd
       -0.029493907 -0.029951982 -0.07834748 -0.032401565
000240 39 91 35 bd 60 a2 d8 bd 0b dc a4 3d 52 bf dd bd
       -0.04432795 -0.105778456 0.08049782 -0.10827507
000250 d7 68 f7 bb 35 d3 81 3c b5 e0 34 3b 90 15 d9 bc
       -0.0075503397 0.015847782 0.0027599756 -0.02649954
000260 9b 79 32 3b 34 66 1f 3d 6d f9 1b 3c 40 ad 07 bd
       0.0027233127 0.038915828 0.009519917 -0.03312421
000270 fa be a2 3b f5 cd a3 3c 64 a5 5e 3d 58 ac 54 bd
       0.004966614 0.019995669 0.054356948 -0.051922172
000280 13 15 3d 3c 89 08 64 3d c3 fc 3c bc 25 5f 3c bd
       0.011540669 0.055672202 -0.011534872 -0.045989174
000290 94 8f 1d bd 61 a3 29 bd 22 90 21 bd 96 66 6e 3d
       -0.038467005 -0.041415576 -0.039444096 0.058203302
0002a0 42 4c b1 b9 b8 13 b1 bd 4b 48 2b 3d c7 63 87 bd
       -0.00033816887 -0.08646339 0.04181699 -0.06610828
0002b0 bf 2d d3 bd 1f e0 48 bd ca 74 c6 bd ab d9 c9 bd
       -0.1031146 -0.049041864 -0.096902445 -0.0985597
0002c0 be 6f bd bd f3 2a 86 bc 61 af 74 bd cc 65 b2 bd
       -0.09249829 -0.016377902 -0.059737567 -0.087108225
0002d0 38 44 11 3c c3 a2 44 bd 79 19 42 bd 23 16 1b 3d
       0.008866362 -0.048006784 -0.047387574 0.037862908
0002e0 43 76 8c bb 8b 5b 5f 3d 78 3b 05 bd 49 9e 0c 3d
       -0.004286559 0.05453066 -0.032527417 0.03433064
0002f0 51 57 e2 bd 96 56 9d bd 19 07 e0 3c 1c ef 25 3d
       -0.110518105 -0.076825306 0.027347134 0.040511236
000300 0a 63 83 3d 69 95 5f bc 0e fb 4f 3d bf 98 17 3d
       0.064153746 -0.013646462 0.050776534 0.037010904
000310 1e 84 b5 bd c0 23 c1 bd 04 42 5f bd 61 12 97 bd
       -0.0886309 -0.09430647 -0.054506317 -0.073765524
000320 2e 94 35 bd 6c 03 a9 bc c1 2f c8 bd b8 6b 33 3d
       -0.04433077 -0.020631514 -0.09774733 0.0438039
000330 bf 04 7d 3d 31 0d 52 3d 3e db e3 bd e5 70 f6 3c
       0.061772104 0.05128211 -0.111258015 0.03008313
000340 d9 ac f0 bd 0c c1 87 bd 11 79 47 3d de a5 8c bd
       -0.11751718 -0.06628618 0.048699442 -0.06867574
000350 65 b5 83 3b 59 3d ed bd 2a d0 91 bd 8c 44 62 bd
       0.0040194266 -0.11583967 -0.07119782 -0.055241153
000360 55 8f 3e bd c5 d2 d7 bd 59 28 9b bd 3d 2f 00 3a
       -0.04652341 -0.10538248 -0.07576055 0.00048898516
000370 e6 f5 e8 bc 61 90 8b 3c fc b1 88 3d 73 ce 9f 3b
       -0.028437566 0.017036619 0.06674573 0.0048769056
000380 05 4d ac bd 42 d6 6f 3d b1 4b 6a 3c 95 e2 66 bd
       -0.08413128 0.05855394 0.014300273 -0.05636843
000390 7e c9 44 bd 90 28 71 bc 0c 66 7e bd 28 e5 8f 3c
       -0.04804372 -0.0147191435 -0.06210904 0.017565325
0003a0 0f ab ba bd b7 2d ce bd e6 6b 4f 3d 8b d2 44 bc
       -0.09114658 -0.10067313 0.05064001 -0.012013088
0003b0 7f f2 52 3c ee 4d 4a 3d 24 a0 fb 3c 77 cd 04 bd
       0.012875198 0.049390726 0.03071601 -0.03242251
0003c0 0e 42 60 bd 71 4e e5 bd 06 ef d6 ba 5e 73 b7 3c
       -0.054750495 -0.11196602 -0.0016398139 0.022393879
0003d0 7f 49 cc bd 86 3e 41 3d 2d 90 2d bd 2b 88 ff bc
       -0.09974956 0.047178768 -0.042373825 -0.03119286
0003e0 90 55 ad bd 8d bc de bd 9b 05 db bc f6 31 d7 3d
       -0.084635854 -0.10875807 -0.026736071 0.10507576
0003f0 b5 0f 15 3d bf 12 81 bd 13 e4 3b 3c d1 38 a5 bd
       0.036391933 -0.06302404 0.011467951 -0.080674775

feat_mlp.2.bias f4 [64]
000000 75 ae d6 3d ea a7 97 3c 82 47 96 3d 73 e7 28 bd
       0.10482494 0.018512685 0.07337858 -0.041236352
000010 56 2b 88 bd 88 44 31 3c 9d 5a 93 bc e2 c9 76 bd
       -0.06648891 0.010819562 -0.017987544 -0.060251124
000020 f9 95 85 bd 00 b8 40 3c 07 e2 48 bd fc f9 7e bd
       -0.06522746 0.011762619 -0.04904368 -0.062250122
000030 44 52 98 3b 7b ea ab bd d1 1e 29 3c 3b d2 14 bd
       0.0046484787 -0.08394333 0.010322289 -0.036333304
000040 68 d8 76 3d f5 bc 73 3d 10 16 0f 3d 01 5e 25 bd
       0.060264975 0.059506375 0.03493315 -0.040372852
000050 6e 6a af bd 15 a6 43 bc be 60 b8 3d 09 c8 b9 bd
       -0.08565222 -0.0119414525 0.09002827 -0.09071357
000060 71 45 a0 3d d4 b1 48 bc 28 34 81 3b cf 0a 8f bc
       0.07825745 -0.012249429 0.003942985 -0.017461209
000070 e1 03 1a bc 9c a6 61 3d 8e 17 4b bd 23 90 3e bd
       -0.009400339 0.05509053 -0.04958301 -0.04652418
000080 32 bb 8d bc c3 83 98 3c 9e 64 58 bc 36 2d 6b 3d
       -0.017301176 0.018617516 -0.013207583 0.057416163
000090 bb 07 68 bd a8 da 5b bd e2 56 5a 3c d0 57 74 bc
       -0.056647997 -0.053675324 0.013326379 -0.014913514
0000a0 82 98 c1 3c 9e 06 23 bc cc f8 8b bd 35 ac 48 bc
       0.023632292 -0.009950308 -0.068345636 -0.012248089
0000b0 09 10 f7 3c 1c 19 84 3d d9 7d e8 3d 37 6c dc 3b
       0.030159013 0.06450102 0.113521285 0.0067267674
0000c0 5b ff f3 bc 19 21 f4 3c 0a eb 84 3d da 22 e8 bd
       -0.029784849 0.029800938 0.06490143 -0.113347724
0000d0 86 0f 1f bc 9e d0 63 3d 7a 8b 29 bc 92 2c e2 3c
       -0.009708291 0.055618875 -0.010348195 0.027609143
0000e0 68 f3 d1 3d df ef 2c bc 41 6a 0c bd 96 94 a2 3d
       0.10251504 -0.010555237 -0.03428102 0.07938497
0000f0 c5 fd 15 3d 4a 18 65 3d 91 60 a6 3d 42 0b 3d bd
       0.036618967 0.055931367 0.08123887 -0.046153314

feat_mlp.4.weight f4 [1, 64]
000000 ae c4 c0 be a4 0d ca bb 7d 89 59 3e 43 44 f0 be
       -0.37650055 -0.006166177 0.21243854 -0.4692708
000010 76 8e d3 bd 35 fd 1a 3f 24 04 be bd 5e f7 63 be
       -0.10329907 0.60542613 -0.092781335 -0.22262332
000020 62 aa 8c be 10 66 82 3e ae 99 f7 be bc f2 95 bd
       -0.27473742 0.25468493 -0.48359436 -0.073216885
000030 8e 5e cf be 51 11 66 be 8f 4f 8a bd 9c 60 51 3e
       -0.40501827 -0.22467543 -0.06753456 0.2044701
000040 49 b5 9b 3e 43 d3 62 3e 28 03 31 3e eb 4e bf be
       0.30411747 0.22150902 0.1728636 -0.37364897
000050 40 2a 34 3f fe 1f 7c be 70 17 55 3e 83 db 4e be
       0.7037697 -0.24621579 0.20809722 -0.20200925
000060 d4 7b 99 be 34 f8 17 3e 38 4f 5d be 6f 25 8e 3e
       -0.29977286 0.14840776 -0.21612251 0.27762935
000070 5d 46 be be 85 84 87 be 04 dd 92 3e 30 bd 97 3e
       -0.37163058 -0.26468292 0.28684247 0.29636526
000080 36 ea 05 3e 0c db ac 3e f6 22 c6 3e 5b ba 17 be
       0.13077626 0.3376087 0.38698548 -0.14817183
000090 cb ce bf 3e 23 2e 9a 3e 7c c6 03 3e e6 6a 00 3e
       0.37462458 0.30113325 0.12868685 0.12540779
0000a0 55 5a f8 bd 24 7a 2f 3e 58 94 82 3e ca 61 68 3e
       -0.121266045 0.17136437 0.25503802 0.22693554
0000b0 48 28 90 3e f4 62 f4 3d 7c 26 a9 be 62 ab e6 3d
       0.28155732 0.11932936 -0.33037174 0.112631574
0000c0 d6 af ad 3e be 8b b7 be a7 8f ad be 2b fe 9a 3e
       0.33923215 -0.35848802 -0.3389866 0.3027204
0000d0 23 26 92 be bd c4 ae be f3 e4 5c be e5 b6 4a be
       -0.2854472 -0.34134474 -0.21571712 -0.19796331
0000e0 79 f3 5a 3e 9e c7 04 bf bc 89 22 be 14 0e ef 3d
       0.2138194 -0.5186709 -0.15872854 0.11672607
0000f0 ff 5f c4 bd bc 9e bd be 24 89 96 bd dd 21 05 3e
       -0.09588622 -0.37035167 -0.07350376 0.13001199

embed.weight f4 [171, 32]
000000 fb da df 3e 97 7e 5a bf d2 2a f9 3f 76 4e 6f 3f
       0.43721756 -0.8534941 1.9466193 0.93479097
000010 47 74 e0 be 1b 7b 09 be 09 83 d7 bf 2b a1 d3 bf
       -0.43838713 -0.13425867 -1.6836864 -1.653356
000020 6c e1 2b bf 21 8e 17 bf 7a a4 4d 3f 8f e7 07 3e
       -0.6714084 -0.59201247 0.80329096 0.13271926
000030 99 95 6c bf 68 d1 f4 3e 9e d3 40 3f df e1 96 3f
       -0.9241577 0.47816014 0.753229 1.178768
000040 d6 1a c5 3e 89 93 b2 3f 4d f1 2a bf f5 6f 79 be
       0.38497037 1.3951274 -0.66774446 -0.24359114
000050 de f2 6a 3f 25 09 5c be 31 9f e5 be 88 13 03 c0
       0.91776836 -0.21487863 -0.44848016 -2.048067
000060 7e 9e d5 bf 38 74 0e 40 e6 78 22 3f 49 f5 b1 3c
       -1.6688993 2.2258434 0.63465726 0.021723406
000070 77 47 24 bf 24 cc 19 3d 39 b3 a4 bd f7 c0 df 3f
       -0.64171547 0.0375482 -0.080419965 1.7480763
000080 8e a9 26 bf ec 23 49 3f c9 37 ec 3e e5 f5 10 bf
       -0.6510247 0.7857044 0.4613631 -0.56625205
000090 91 8f a4 be 64 20 62 be 8f 98 27 3f d0 f7 05 3f
       -0.32140782 -0.22082669 0.6546716 0.52331257
0000a0 f8 20 c1 3f e0 31 98 3f 30 99 98 bc 23 75 5b 3f
       1.5088186 1.1890221 -0.018627733 0.8572561
0000b0 6c 03 f2 bf 6c c9 e9 3e 3b 76 7e bf 60 ea 95 3f
       -1.8907294 0.45661485 -0.99399155 1.171215
0000c0 4d 3b 63 3f c7 dc bf 3e a0 3a 05 40 35 62 35 3e
       0.8876236 0.37473127 2.0817032 0.17713244
0000d0 48 d0 df 3e e1 b5 62 3f 13 f9 6e bf 30 e9 24 bf
       0.43713593 0.88558775 -0.9334881 -0.64418316
0000e0 13 52 97 bf bf 19 10 bf 6c b3 d4 be c3 53 81 be
       -1.1821922 -0.56289285 -0.41543138 -0.25259218
0000f0 e8 21 9a 3e be d8 0f 3f 9e ed 41 3f fb 6f 7e 3d
       0.30103993 0.561901 0.757532 0.06211851
000100 39 b4 9d 3e 2b 0f a3 3f 5b 9f c5 3f 74 27 36 bf
       0.3080156 1.2739004 1.5439256 -0.7115395
000110 ce 85 b0 3f 2e ba c2 be b3 80 ed 3f b4 cb 8c 3f
       1.3790834 -0.3803267 1.8554901 1.0999665
000120 8a f6 57 3f 31 ad cb bf ba 77 4e bf b2 ca 6b be
       0.84360564 -1.5912229 -0.8065144 -0.23026541
000130 21 be 0c 3f 82 22 9a 3f bc 71 1d 3d 05 a8 8a be
       0.54977614 1.2041781 0.038438544 -0.27081314
000140 c6 f0 dd 3f 85 30 35 40 4a 33 44 3f 8c 41 96 3e
       1.7339103 2.8310864 0.7664076 0.29346883
000150 77 e8 85 bd 80 27 ac 3f b5 13 99 bf 15 7b 00 bf
       -0.0653848 1.3449554 -1.1959139 -0.5018781
000160 54 c0 9e bd 05 35 b3 be ac 65 82 be 9e 01 ab bf
       -0.077515274 -0.35001388 -0.25468194 -1.3359869
000170 63 63 30 40 5b 16 73 bf f0 95 0d bf 0c f5 c4 3e
       2.756066 -0.94955987 -0.5530691 0.38468206
000180 03 90 4e 3f c3 23 28 bf 9f 55 e7 3e 41 07 4e bf
       0.80688494 -0.6567957 0.4518251 -0.8047982
000190 dd d8 c3 3e 87 4e c5 bf e6 08 59 3f 36 ee b4 be
       0.3825139 -1.541459 0.847792 -0.3533799
0001a0 01 83 c7 bb 0e 6d 0b bf 38 b4 34 bf cc 6b 76 3e
       -0.006088615 -0.5446328 -0.7058749 0.24064559
0001b0 84 16 42 3e 00 ec c5 bf ee c7 ba bf 7f 68 88 3e
       0.18953902 -1.5462646 -1.4592264 0.26642224
0001c0 1e cf 09 3f 3e a4 ee bf 20 ec ce bf fb c1 6b 3d
       0.5383166 -1.8643873 -1.616581 0.05755804
0001d0 18 99 67 bf ef 51 c6 3f 5b 88 09 c0 e6 95 50 3f
       -0.9046798 1.5493754 -2.1489475 0.81478727
0001e0 d9 9d 05 3f 4c 53 86 bd 22 52 67 bf a6 30 ce 3e
       0.5219398 -0.06558856 -0.903597 0.4027149
0001f0 36 08 6f 3f 8b 4c f2 bf 59 16 73 bf bc dc 06 40
       0.93371904 -1.8929609 -0.94955975 2.1072226
000200 7b d6 bc 3e 1a 4d 98 3f 59 76 e6 bf e0 42 93 be
       0.36882386 1.189853 -1.8004867 -0.2876196
000210 a8 6c 5c bf 3b a7 cc 3f f7 44 ca be eb c3 ee be
       -0.86103296 1.5988535 -0.3950574 -0.4663385
000220 89 ab 93 be 9f d7 47 3e 34 32 18 c0 52 fc 79 3f
       -0.28841808 0.19515847 -2.3780642 0.97650635
000230 ba fc 97 3f ca 9a b9 be e6 e5 e4 3e 5e 41 82 bd
       1.1874001 -0.36250907 0.4470665 -0.06360124
000240 e7 5c c6 bf a4 33 cb be fb be ae 3e 14 95 f9 bf
       -1.5497102 -0.39687836 0.34130082 -1.949862
000250 b9 4b 3d 3f ad e7 31 bf 69 56 93 3d c5 2a 43 3e
       0.7394367 -0.69494134 0.07194216 0.19059284
000260 6f cf 15 3e 11 d3 6e 3f a6 fc f3 3e 00 9e ae bf
       0.14629911 0.9329081 0.47653693 -1.3641968
000270 3d 53 8e 3e 75 b8 1d bf b3 d0 8a be 1d af c3 3f
       0.2779788 -0.61609584 -0.2711235 1.5287815
000280 1e ba 15 bf ab 03 ab 3d 2a 30 82 3e 29 91 da 3e
       -0.5848712 0.08350309 0.2542737 0.42688873
000290 84 88 25 bf 10 51 89 be 77 03 5b bc 1c 0d f1 3e
       -0.6466143 -0.26819658 -0.013367525 0.47080314
0002a0 ee 03 5a 3f d4 39 1c bf b3 1e 16 be f9 d0 18 be
       0.85162246 -0.6102574 -0.14660148 -0.14923467
0002b0 58 a3 c8 be 18 d7 af 3e 96 46 aa bf 89 c2 c7 3e
       -0.3918712 0.3434379 -1.3302791 0.39015606
0002c0 65 7d cf bd fd 49 76 3f d7 32 08 c0 d7 c4 82 bf
       -0.10131339 0.9620665 -2.128103 -1.0216321
0002d0 91 6a 1d 3f ed ca a6 3f 3e 5c cd 3d 54 07 68 bf
       0.6149073 1.3030678 0.100273594 -0.9063618
0002e0 15 c9 91 bf 1e 65 79 3f ef 2d 65 bf 46 cd eb 3d
       -1.138949 0.9741992 -0.89523214 0.11513762
0002f0 dd 27 97 3f 64 96 98 3f 76 0f f8 3e cb b0 4f 3f
       1.180904 1.1920896 0.48449296 0.8112914
000300 77 bb 56 3f 90 b7 4b 3f 8a ef 85 bf 4b 7a 3b bc
       0.838798 0.7957697 -1.0463727 -0.011442731
000310 bd 19 b6 bf b8 77 31 c0 4d 19 f3 3e 1e d1 91 bf
       -1.4226605 -2.772932 0.4748024 -1.1391943
000320 3e 5a 72 3f e1 67 ba bf 6c c4 63 bf 1c d6 9b 3f
       0.9466895 -1.4562951 -0.8897159 1.2174716
000330 15 42 30 bf 5b 7e c9 be 8b 9c 0f 40 7b a8 8b bf
       -0.68850833 -0.39354214 2.2439296 -1.0910791
000340 b5 1c a7 be 3a 62 df be 03 7b 3e 3e 04 61 b4 bf
       -0.3263909 -0.43629628 0.18601613 -1.4092107
000350 10 4f f7 bf 58 6f 36 3f 28 87 9a 3f cd fe 73 be
       -1.9321003 0.7126365 1.2072496 -0.23827668
000360 94 8f 41 bf e7 53 3c bf 63 fc 9d bf 7d 89 8f 3f
       -0.7560971 -0.73565525 -1.2342647 1.1213833
000370 62 07 cb 3e 60 82 b2 bf 76 5b 89 bf 0b c2 9b be
       0.3965407 -1.3946037 -1.0731037 -0.3042148
000380 4f 82 5f bf de b6 83 be 08 0a 87 bf 21 b5 2a 3f
       -0.8730821 -0.25725454 -1.0549936 0.6668263
000390 b0 5f 9b 3f 3c 04 80 bf 1b 62 88 bf 69 89 20 c0
       1.2138577 -1.0001292 -1.065494 -2.5083869
0003a0 18 79 0e 3e d4 7a dd be c0 e4 70 bf ba 26 93 3e
       0.13913381 -0.43257773 -0.94099045 0.28740484
0003b0 59 d6 67 3e d0 ef c1 3f 44 84 1c 3f 7f b5 e2 3f
       0.22640361 1.515131 0.6113932 1.7711638
0003c0 38 f9 8e 3f dd c4 9c 3f 8c 9b b5 be 97 d3 95 3e
       1.1169806 1.2247578 -0.35470235 0.29262993
0003d0 74 f8 5d bf 8d 13 cb 3d d6 94 40 3f 1e 0d d7 3f
       -0.86707234 0.099158384 0.75227106 1.6800878
0003e0 bb 49 5b bf 52 f5 bb bd 16 e9 45 bd 83 f9 5b be
       -0.8565938 -0.091776505 -0.04831799 -0.214819
0003f0 94 e6 d0 3f 9a 94 45 3f 5d d5 67 3f 2c 70 a6 3e
       1.6320367 0.77179873 0.9055994 0.32507455

embed_bias.weight f4 [171, 32]
000000 b6 ae 88 3e af c6 a4 3f 5e 4c 48 3e ad f1 ac bd
       0.26695794 1.2873133 0.19560382 -0.084445335
000010 cd 92 b5 bf 3e 84 df 3f 95 5d 9e bf 6c 4d 66 3e
       -1.4185425 1.7462232 -1.2372309 0.22490472
000020 15 7f 86 3f c2 3d 3c 3e 34 83 7b bf d1 ac d5 be
       1.0507532 0.18382934 -0.98247075 -0.4173341
000030 8e a3 ad bf 19 76 a9 3f 97 0b 19 bf 66 25 05 bf
       -1.3565538 1.3239166 -0.5978331 -0.5201019
000040 a4 ed fe 3f 76 8e 87 be 51 85 00 c0 4c a9 c9 bf
       1.9916272 -0.26475877 -2.008137 -1.575479
000050 30 bd 02 bf cf 25 85 3f b2 ce 90 3e 3e be 04 3f
       -0.5106993 1.0402163 0.28282696 0.51852787
000060 94 d0 e8 bd da ff 9a 3d d6 c5 f1 3e 6b 2d 69 3f
       -0.11367908 0.07568331 0.4722125 0.9108493
000070 67 c9 cb 3f 28 af 43 3e f7 ba 33 bf 52 4d 4f be
       1.5920838 0.19109786 -0.7020716 -0.20244339
000080 a6 ea 28 bf 22 db 84 bf 65 61 11 be 87 5c ab bf
       -0.65983045 -1.0379374 -0.1419731 -1.3387612
000090 bc 47 4c 3f bb fe 09 c0 86 d4 5d 3c 8c 97 24 3f
       0.7979696 -2.1561725 0.013539439 0.6429374
0000a0 4d c4 89 bd e6 0b 79 bd 05 dc 2e bf d6 fb 98 be
       -0.067268945 -0.060802363 -0.68304473 -0.29879636
0000b0 e1 30 29 bf aa 47 4d 3f 41 70 a0 be 6a ac 8a bf
       -0.6609021 0.80187476 -0.31335643 -1.0833867
0000c0 03 95 59 3f a2 a3 b1 bf 6e b5 1c bf cb 77 c1 bf
       0.84993 -1.3878062 -0.6121434 -1.5114683
0000d0 71 b7 1d 3e 73 9e ff 3f a7 7d 06 bf 41 06 0a 3f
       0.15402009 1.997023 -0.5253548 0.5391579
0000e0 27 0c f5 3f 1b 3f 01 bf 2d 0f c9 3e 7f da 8c 3f
       1.9144334 -0.50486916 0.3926939 1.100418
0000f0 90 df 26 3f cc ce bc be a8 5f de 3f a6 33 e5 bf
       0.6518488 -0.36876523 1.7372942 -1.7906387
000100 f2 cb c3 3f b5 47 26 3f f2 07 f1 be 74 45 83 3f
       1.5296614 0.64953166 -0.47076374 1.025557
000110 76 f2 ad 3f 8d a1 a1 3f 81 63 0f be 12 ca 1b 3f
       1.3589618 1.2627426 -0.14002801 0.6085521
000120 d3 0a 15 bf 5c c7 30 40 e3 c4 cc bf 5c ca b8 be
       -0.5821964 2.762168 -1.5997585 -0.36091888
000130 98 fb 09 c0 39 e2 14 3e f8 1e 0a c0 de 12 a7 be
       -2.155981 0.14539422 -2.1581402 -0.32631582
000140 6e 1a 40 3e ce 46 24 3f aa 5c 02 3f 8d 41 d0 3e
       0.18760082 0.6417054 0.50922644 0.4067501
000150 06 ce 8a be e6 89 7d bf ed 28 66 3f b3 72 ba bf
       -0.27110308 -0.9903854 0.899062 -1.4566253
000160 91 7b ff bf 83 54 95 3f e1 71 0b 40 e4 bc ea be
       -1.9959584 1.1666416 2.1788256 -0.45847237
000170 f5 1c 29 be 91 0b 6a bf 62 da 06 be a1 ce 31 3f
       -0.16514952 -0.914239 -0.13169244 0.69455916
000180 35 7d cd bd 33 e3 90 bb 04 68 b2 3e ed 46 c1 3e
       -0.10033647 -0.0044216155 0.34844983 0.37749425
000190 07 c1 0b bf ab 71 b0 3e 15 37 28 3e 55 83 04 be
       -0.5459141 0.34461722 0.16427262 -0.12940724
0001a0 2c 9c 94 3f 20 29 43 bf cf 0b e9 bf 5c 77 85 3f
       1.161016 -0.76234627 -1.8206729 1.042705
0001b0 f7 59 e6 bf 20 16 b7 be ac 4c 72 be 30 3b bd be
       -1.7996205 -0.35759068 -0.2366206 -0.3695922
0001c0 1d f2 1c 3f ce 7f 30 40 2a 16 84 3f bb 08 a1 3d
       0.61306936 2.7578006 1.0319264 0.07862993
0001d0 71 4b 42 40 76 47 a9 bd 34 46 22 3e d1 37 47 bf
       3.0358546 -0.08265583 0.15847093 -0.77819544
0001e0 9e 8c 14 40 de 93 ea be f6 03 35 bf 9d 76 73 bf
       2.3210826 -0.4581594 -0.7070917 -0.95102865
0001f0 68 09 a5 bf 91 e5 ee bf d6 35 90 bf c3 43 b2 3f
       -1.2893496 -1.8663808 -1.126643 1.3926929
000200 21 b9 37 3e d3 8f f0 bd 6c 7e d7 be e5 a4 0a bf
       0.17941715 -0.11746182 -0.4208864 -0.5415786
000210 b8 ef 3d bf d2 28 83 bf 47 12 40 bf 5f db 07 c0
       -0.74193907 -1.0246832 -0.7502789 -2.1227643
000220 49 be 4a be 81 62 60 bf ab 11 b7 3f a7 fa f8 3e
       -0.1979915 -0.87650305 1.4302267 0.48628733
000230 fd 4c b6 3f 5d e2 16 3f d1 a5 15 40 78 96 ee bf
       1.4242245 0.5893915 2.3382456 -1.863967
000240 e7 6f a9 3f 30 26 75 3f a8 91 e9 bf a0 56 32 bf
       1.3237275 0.95761395 -1.8247576 -0.6966343
000250 cb c1 35 3d 92 4f 18 3c 2a b4 79 3d f1 7a 99 be
       0.04437427 0.009296315 0.060962833 -0.2997661
000260 6e 36 8b bf 38 a9 82 bf b3 fb 77 3f ec ef 7d be
       -1.0875986 -1.0207891 0.9686844 -0.24798554
000270 7a 16 83 bf 09 0d 9f 3d cc 11 05 bf bd b2 d5 bf
       -1.0241234 0.07766158 -0.5198028 -1.6695172
000280 f3 84 0b bf a5 3f c7 bf 81 e8 e9 3f ea 18 83 be
       -0.5449974 -1.5566298 1.827408 -0.25604945
000290 8a bb a0 3e 1a bf 60 3f bf 19 c7 3f 5b b3 16 3f
       0.3139308 0.877916 1.5554732 0.58867425
0002a0 65 2c 85 3f 35 86 00 40 c6 8e 97 bf 04 b0 a7 3d
       1.0404173 2.0081913 -1.1840446 0.08187869
0002b0 b7 4b 1d 3f 73 54 f5 be a6 62 7a 3e af af b5 3e
       0.61443657 -0.47915992 0.24451694 0.35485598
0002c0 c3 97 52 3f e5 19 a5 3f d6 40 0e 40 4b dc a3 3e
       0.8226282 1.2898527 2.2227073 0.32004008
0002d0 da 9e 71 3e 87 94 f1 3d 62 7c 85 3f e6 94 eb 3d
       0.23595753 0.117959075 1.0428584 0.115030095
0002e0 a8 e7 23 3f d3 68 52 bf 73 ec 3d 3f 48 9e 61 3f
       0.64025354 -0.821912 0.7418892 0.88132143
0002f0 45 43 90 3d e8 23 67 bf e5 2c 2a bd 1e ac 0e bf
       0.07044081 -0.90289164 -0.04154672 -0.5573138
000300 e1 01 86 3f e4 34 aa bf 7a b6 1d bf 10 50 2e bc
       1.0469323 -1.3297391 -0.6160656 -0.010639206
000310 a8 bf a1 3e 19 83 39 bf 80 ec 2e bd 8e bb 00 c0
       0.31591535 -0.72465664 -0.042706013 -2.0114474
000320 25 56 67 bf 8f 7b 4e be 70 0e fa 3f 2d b9 f8 be
       -0.9036582 -0.20164321 1.9535656 -0.48578778
000330 e2 73 a8 3f fd 43 85 3f 7f e9 31 3f d7 2f 03 bf
       1.3160365 1.0411373 0.6949691 -0.5124487
000340 83 50 83 3f b0 1b 8f 3f fa 38 3f bd 03 bc 04 c0
       1.0258945 1.1180325 -0.046685196 -2.0739753
000350 53 c9 a0 bd 65 3d 9b bf 7b dc e3 3f 02 61 23 3f
       -0.078508995 -1.2128111 1.780166 0.638199
000360 87 b4 82 3d 84 62 2a be e5 17 8b 3f e3 da 8f bf
       0.06382089 -0.16639143 1.0866667 -1.1238674
000370 40 ea d9 bf dd e8 7c bd 78 f6 b0 3f 39 6a 94 3f
       -1.7024612 -0.061745513 1.3825216 1.1594917
000380 43 60 37 3e af d2 ae bf 09 27 39 3f e7 7d bc bf
       0.17907815 -1.3658046 0.7232519 -1.4725922
000390 d4 61 56 be eb a5 51 bf 6e d8 89 3f c9 c3 07 3e
       -0.20935756 -0.81893796 1.0769174 0.1325828
0003a0 98 ba a3 be 8c 42 c0 bf cb db b0 bf 2e 3d 2e bf
       -0.31978297 -1.5020308 -1.3817075 -0.680621
0003b0 af c9 40 3f ce 50 26 bf 01 ab 38 3f 00 f1 cc 3e
       0.75307745 -0.6496705 0.7213593 0.40027618
0003c0 55 26 cc 3c e9 0e 71 bf 5b c3 85 be 74 de 38 3f
       0.024920622 -0.94163376 -0.26125607 0.72214437
0003d0 b0 48 14 3f 1f cd 59 3f d3 b8 5c bf db e7 cb 3f
       0.5792341 0.85078615 -0.8621952 1.5930132
0003e0 bc 3d 85 bf 01 fc c8 bf 7f ec 12 c0 b4 43 09 c0
       -1.0409465 -1.5701905 -2.2956846 -2.1447573
0003f0 f6 ca 76 3f d9 bb 9b bd e9 2f 2a 3f e5 39 49 3f
       0.96403444 -0.076041885 0.66479355 0.78603965
